…
I0309 23:09:21.425783  4607 net.cpp:313] The NetState phase (0) differed from the phase (1) specified by a rule in layer data
I0309 23:09:21.425848  4607 net.cpp:313] The NetState phase (0) differed from the phase (1) specified by a rule in layer accuracy
I0309 23:09:21.426022  4607 net.cpp:49] Initializing net from parameters: 
name: "CaffeNet"
state {
  phase: TRAIN
}
layer {
  name: "data"
  type: "Data"
  top: "data"
  top: "label"
  include {
    phase: TRAIN
  }
  transform_param {
    mirror: true
    crop_size: 227
    mean_file: "data/hw2/mean.binaryproto"
  }
  data_param {
    source: "data/hw2/train_lmdb"
    batch_size: 256
    backend: LMDB
  }
}
layer {
  name: "conv1"
  type: "Convolution"
  bottom: "data"
  top: "conv1"
  param {
    lr_mult: 0
    decay_mult: 1
  }
  param {
    lr_mult: 0
    decay_mult: 0
  }
  convolution_param {
    num_output: 96
    kernel_size: 11
    stride: 4
    weight_filler {
      type: "gaussian"
      std: 0.01
    }
    bias_filler {
      type: "constant"
      value: 0
    }
  }
}
layer {
  name: "relu1"
  type: "ReLU"
  bottom: "conv1"
  top: "conv1"
}
layer {
  name: "pool1"
  type: "Pooling"
  bottom: "conv1"
  top: "pool1"
  pooling_param {
    pool: MAX
    kernel_size: 3
    stride: 2
  }
}
layer {
  name: "norm1"
  type: "LRN"
  bottom: "pool1"
  top: "norm1"
  lrn_param {
    local_size: 5
    alpha: 0.0001
    beta: 0.75
  }
}
layer {
  name: "conv2"
  type: "Convolution"
  bottom: "norm1"
  top: "conv2"
  param {
    lr_mult: 0
    decay_mult: 1
  }
  param {
    lr_mult: 0
    decay_mult: 0
  }
  convolution_param {
    num_output: 256
    pad: 2
    kernel_size: 5
    group: 2
    weight_filler {
      type: "gaussian"
      std: 0.01
    }
    bias_filler {
      type: "constant"
      value: 1
    }
  }
}
layer {
  name: "relu2"
  type: "ReLU"
  bottom: "conv2"
  top: "conv2"
}
layer {
  name: "pool2"
  type: "Pooling"
  bottom: "conv2"
  top: "pool2"
  pooling_param {
    pool: MAX
    kernel_size: 3
    stride: 2
  }
}
layer {
  name: "norm2"
  type: "LRN"
  bottom: "pool2"
  top: "norm2"
  lrn_param {
    local_size: 5
    alpha: 0.0001
    beta: 0.75
  }
}
layer {
  name: "conv3"
  type: "Convolution"
  bottom: "norm2"
  top: "conv3"
  param {
    lr_mult: 0
    decay_mult: 1
  }
  param {
    lr_mult: 0
    decay_mult: 0
  }
  convolution_param {
    num_output: 384
    pad: 1
    kernel_size: 3
    weight_filler {
      type: "gaussian"
      std: 0.01
    }
    bias_filler {
      type: "constant"
      value: 0
    }
  }
}
layer {
  name: "relu3"
  type: "ReLU"
  bottom: "conv3"
  top: "conv3"
}
layer {
  name: "conv4"
  type: "Convolution"
  bottom: "conv3"
  top: "conv4"
  param {
    lr_mult: 0
    decay_mult: 1
  }
  param {
    lr_mult: 0
    decay_mult: 0
  }
  convolution_param {
    num_output: 384
    pad: 1
    kernel_size: 3
    group: 2
    weight_filler {
      type: "gaussian"
      std: 0.01
    }
    bias_filler {
      type: "constant"
      value: 1
    }
  }
}
layer {
  name: "relu4"
  type: "ReLU"
  bottom: "conv4"
  top: "conv4"
}
layer {
  name: "conv5"
  type: "Convolution"
  bottom: "conv4"
  top: "conv5"
  param {
    lr_mult: 0
    decay_mult: 1
  }
  param {
    lr_mult: 0
    decay_mult: 0
  }
  convolution_param {
    num_output: 256
    pad: 1
    kernel_size: 3
    group: 2
    weight_filler {
      type: "gaussian"
      std: 0.01
    }
    bias_filler {
      type: "constant"
      value: 1
    }
  }
}
layer {
  name: "relu5"
  type: "ReLU"
  bottom: "conv5"
  top: "conv5"
}
layer {
  name: "pool5"
  type: "Pooling"
  bottom: "conv5"
  top: "pool5"
  pooling_param {
    pool: MAX
    kernel_size: 3
    stride: 2
  }
}
layer {
  name: "fc6"
  type: "InnerProduct"
  bottom: "pool5"
  top: "fc6"
  param {
    lr_mult: 0
    decay_mult: 1
  }
  param {
    lr_mult: 0
    decay_mult: 0
  }
  inner_product_param {
    num_output: 4096
    weight_filler {
      type: "gaussian"
      std: 0.005
    }
    bias_filler {
      type: "constant"
      value: 1
    }
  }
}
layer {
  name: "relu6"
  type: "ReLU"
  bottom: "fc6"
  top: "fc6"
}
layer {
  name: "drop6"
  type: "Dropout"
  bottom: "fc6"
  top: "fc6"
  dropout_param {
    dropout_ratio: 0.5
  }
}
layer {
  name: "fc7"
  type: "InnerProduct"
  bottom: "fc6"
  top: "fc7"
  param {
    lr_mult: 1
    decay_mult: 1
  }
  param {
    lr_mult: 2
    decay_mult: 0
  }
  inner_product_param {
    num_output: 4096
    weight_filler {
      type: "gaussian"
      std: 0.005
    }
    bias_filler {
      type: "constant"
      value: 1
    }
  }
}
layer {
  name: "relu7"
  type: "ReLU"
  bottom: "fc7"
  top: "fc7"
}
layer {
  name: "drop7"
  type: "Dropout"
  bottom: "fc7"
  top: "fc7"
  dropout_param {
    dropout_ratio: 0.5
  }
}
layer {
  name: "fc8_new"
  type: "InnerProduct"
  bottom: "fc7"
  top: "fc8_new"
  param {
    lr_mult: 1
    decay_mult: 1
  }
  param {
    lr_mult: 2
    decay_mult: 0
  }
  inner_product_param {
    num_output: 25
    weight_filler {
      type: "gaussian"
      std: 0.01
    }
    bias_filler {
      type: "constant"
      value: 0
    }
  }
}
layer {
  name: "loss"
  type: "SoftmaxWithLoss"
  bottom: "fc8_new"
  bottom: "label"
  top: "loss"
}
I0309 23:09:21.426280  4607 layer_factory.hpp:77] Creating layer data
I0309 23:09:21.427115  4607 net.cpp:91] Creating Layer data
I0309 23:09:21.427155  4607 net.cpp:399] data -> data
I0309 23:09:21.427274  4607 net.cpp:399] data -> label
I0309 23:09:21.427351  4607 data_transformer.cpp:25] Loading mean file from: data/hw2/mean.binaryproto
I0309 23:09:21.530531  4610 db_lmdb.cpp:38] Opened lmdb data/hw2/train_lmdb
I0309 23:09:21.721871  4607 data_layer.cpp:41] output data size: 256,3,227,227
I0309 23:09:22.034072  4607 net.cpp:141] Setting up data
I0309 23:09:22.034198  4607 net.cpp:148] Top shape: 256 3 227 227 (39574272)
I0309 23:09:22.034229  4607 net.cpp:148] Top shape: 256 (256)
I0309 23:09:22.034267  4607 net.cpp:156] Memory required for data: 158298112
I0309 23:09:22.034306  4607 layer_factory.hpp:77] Creating layer conv1
I0309 23:09:22.034394  4607 net.cpp:91] Creating Layer conv1
I0309 23:09:22.034430  4607 net.cpp:425] conv1 <- data
I0309 23:09:22.034464  4607 net.cpp:399] conv1 -> conv1
I0309 23:09:22.053122  4607 net.cpp:141] Setting up conv1
I0309 23:09:22.053159  4607 net.cpp:148] Top shape: 256 96 55 55 (74342400)
I0309 23:09:22.053182  4607 net.cpp:156] Memory required for data: 455667712
I0309 23:09:22.053231  4607 layer_factory.hpp:77] Creating layer relu1
I0309 23:09:22.053261  4607 net.cpp:91] Creating Layer relu1
I0309 23:09:22.053282  4607 net.cpp:425] relu1 <- conv1
I0309 23:09:22.053305  4607 net.cpp:386] relu1 -> conv1 (in-place)
I0309 23:09:22.053333  4607 net.cpp:141] Setting up relu1
I0309 23:09:22.053356  4607 net.cpp:148] Top shape: 256 96 55 55 (74342400)
I0309 23:09:22.053375  4607 net.cpp:156] Memory required for data: 753037312
I0309 23:09:22.053395  4607 layer_factory.hpp:77] Creating layer pool1
I0309 23:09:22.053421  4607 net.cpp:91] Creating Layer pool1
I0309 23:09:22.053443  4607 net.cpp:425] pool1 <- conv1
I0309 23:09:22.053465  4607 net.cpp:399] pool1 -> pool1
I0309 23:09:22.053581  4607 net.cpp:141] Setting up pool1
I0309 23:09:22.053611  4607 net.cpp:148] Top shape: 256 96 27 27 (17915904)
I0309 23:09:22.053630  4607 net.cpp:156] Memory required for data: 824700928
I0309 23:09:22.053650  4607 layer_factory.hpp:77] Creating layer norm1
I0309 23:09:22.053678  4607 net.cpp:91] Creating Layer norm1
I0309 23:09:22.053699  4607 net.cpp:425] norm1 <- pool1
I0309 23:09:22.053722  4607 net.cpp:399] norm1 -> norm1
I0309 23:09:22.053831  4607 net.cpp:141] Setting up norm1
I0309 23:09:22.053896  4607 net.cpp:148] Top shape: 256 96 27 27 (17915904)
I0309 23:09:22.053917  4607 net.cpp:156] Memory required for data: 896364544
I0309 23:09:22.053936  4607 layer_factory.hpp:77] Creating layer conv2
I0309 23:09:22.053964  4607 net.cpp:91] Creating Layer conv2
I0309 23:09:22.053987  4607 net.cpp:425] conv2 <- norm1
I0309 23:09:22.054011  4607 net.cpp:399] conv2 -> conv2
I0309 23:09:22.066300  4607 net.cpp:141] Setting up conv2
I0309 23:09:22.066349  4607 net.cpp:148] Top shape: 256 256 27 27 (47775744)
I0309 23:09:22.066378  4607 net.cpp:156] Memory required for data: 1087467520
I0309 23:09:22.066411  4607 layer_factory.hpp:77] Creating layer relu2
I0309 23:09:22.066440  4607 net.cpp:91] Creating Layer relu2
I0309 23:09:22.066467  4607 net.cpp:425] relu2 <- conv2
I0309 23:09:22.066507  4607 net.cpp:386] relu2 -> conv2 (in-place)
I0309 23:09:22.066537  4607 net.cpp:141] Setting up relu2
I0309 23:09:22.066567  4607 net.cpp:148] Top shape: 256 256 27 27 (47775744)
I0309 23:09:22.066593  4607 net.cpp:156] Memory required for data: 1278570496
I0309 23:09:22.066617  4607 layer_factory.hpp:77] Creating layer pool2
I0309 23:09:22.066645  4607 net.cpp:91] Creating Layer pool2
I0309 23:09:22.066669  4607 net.cpp:425] pool2 <- conv2
I0309 23:09:22.066700  4607 net.cpp:399] pool2 -> pool2
I0309 23:09:22.066758  4607 net.cpp:141] Setting up pool2
I0309 23:09:22.066792  4607 net.cpp:148] Top shape: 256 256 13 13 (11075584)
I0309 23:09:22.066815  4607 net.cpp:156] Memory required for data: 1322872832
I0309 23:09:22.066843  4607 layer_factory.hpp:77] Creating layer norm2
I0309 23:09:22.066874  4607 net.cpp:91] Creating Layer norm2
I0309 23:09:22.066900  4607 net.cpp:425] norm2 <- pool2
I0309 23:09:22.066928  4607 net.cpp:399] norm2 -> norm2
I0309 23:09:22.066984  4607 net.cpp:141] Setting up norm2
I0309 23:09:22.067018  4607 net.cpp:148] Top shape: 256 256 13 13 (11075584)
I0309 23:09:22.067041  4607 net.cpp:156] Memory required for data: 1367175168
I0309 23:09:22.067067  4607 layer_factory.hpp:77] Creating layer conv3
I0309 23:09:22.067096  4607 net.cpp:91] Creating Layer conv3
I0309 23:09:22.067123  4607 net.cpp:425] conv3 <- norm2
I0309 23:09:22.067148  4607 net.cpp:399] conv3 -> conv3
I0309 23:09:22.100709  4607 net.cpp:141] Setting up conv3
I0309 23:09:22.100750  4607 net.cpp:148] Top shape: 256 384 13 13 (16613376)
I0309 23:09:22.100772  4607 net.cpp:156] Memory required for data: 1433628672
I0309 23:09:22.100798  4607 layer_factory.hpp:77] Creating layer relu3
I0309 23:09:22.100822  4607 net.cpp:91] Creating Layer relu3
I0309 23:09:22.100843  4607 net.cpp:425] relu3 <- conv3
I0309 23:09:22.100868  4607 net.cpp:386] relu3 -> conv3 (in-place)
I0309 23:09:22.100894  4607 net.cpp:141] Setting up relu3
I0309 23:09:22.100917  4607 net.cpp:148] Top shape: 256 384 13 13 (16613376)
I0309 23:09:22.100937  4607 net.cpp:156] Memory required for data: 1500082176
I0309 23:09:22.100956  4607 layer_factory.hpp:77] Creating layer conv4
I0309 23:09:22.100982  4607 net.cpp:91] Creating Layer conv4
I0309 23:09:22.101003  4607 net.cpp:425] conv4 <- conv3
I0309 23:09:22.101029  4607 net.cpp:399] conv4 -> conv4
I0309 23:09:22.126173  4607 net.cpp:141] Setting up conv4
I0309 23:09:22.126226  4607 net.cpp:148] Top shape: 256 384 13 13 (16613376)
I0309 23:09:22.126262  4607 net.cpp:156] Memory required for data: 1566535680
I0309 23:09:22.126288  4607 layer_factory.hpp:77] Creating layer relu4
I0309 23:09:22.126314  4607 net.cpp:91] Creating Layer relu4
I0309 23:09:22.126338  4607 net.cpp:425] relu4 <- conv4
I0309 23:09:22.126366  4607 net.cpp:386] relu4 -> conv4 (in-place)
I0309 23:09:22.126395  4607 net.cpp:141] Setting up relu4
I0309 23:09:22.126435  4607 net.cpp:148] Top shape: 256 384 13 13 (16613376)
I0309 23:09:22.126456  4607 net.cpp:156] Memory required for data: 1632989184
I0309 23:09:22.126477  4607 layer_factory.hpp:77] Creating layer conv5
I0309 23:09:22.126519  4607 net.cpp:91] Creating Layer conv5
I0309 23:09:22.126554  4607 net.cpp:425] conv5 <- conv4
I0309 23:09:22.126591  4607 net.cpp:399] conv5 -> conv5
I0309 23:09:22.143431  4607 net.cpp:141] Setting up conv5
I0309 23:09:22.143474  4607 net.cpp:148] Top shape: 256 256 13 13 (11075584)
I0309 23:09:22.143501  4607 net.cpp:156] Memory required for data: 1677291520
I0309 23:09:22.143530  4607 layer_factory.hpp:77] Creating layer relu5
I0309 23:09:22.143559  4607 net.cpp:91] Creating Layer relu5
I0309 23:09:22.143585  4607 net.cpp:425] relu5 <- conv5
I0309 23:09:22.143612  4607 net.cpp:386] relu5 -> conv5 (in-place)
I0309 23:09:22.143642  4607 net.cpp:141] Setting up relu5
I0309 23:09:22.143671  4607 net.cpp:148] Top shape: 256 256 13 13 (11075584)
I0309 23:09:22.143694  4607 net.cpp:156] Memory required for data: 1721593856
I0309 23:09:22.143718  4607 layer_factory.hpp:77] Creating layer pool5
I0309 23:09:22.143746  4607 net.cpp:91] Creating Layer pool5
I0309 23:09:22.143771  4607 net.cpp:425] pool5 <- conv5
I0309 23:09:22.143796  4607 net.cpp:399] pool5 -> pool5
I0309 23:09:22.143853  4607 net.cpp:141] Setting up pool5
I0309 23:09:22.143885  4607 net.cpp:148] Top shape: 256 256 6 6 (2359296)
I0309 23:09:22.143908  4607 net.cpp:156] Memory required for data: 1731031040
I0309 23:09:22.143931  4607 layer_factory.hpp:77] Creating layer fc6
I0309 23:09:22.143985  4607 net.cpp:91] Creating Layer fc6
I0309 23:09:22.144012  4607 net.cpp:425] fc6 <- pool5
I0309 23:09:22.144038  4607 net.cpp:399] fc6 -> fc6
I0309 23:09:22.203270  4611 blocking_queue.cpp:50] Waiting for data
I0309 23:09:23.576336  4607 net.cpp:141] Setting up fc6
I0309 23:09:23.576438  4607 net.cpp:148] Top shape: 256 4096 (1048576)
I0309 23:09:23.576467  4607 net.cpp:156] Memory required for data: 1735225344
I0309 23:09:23.576501  4607 layer_factory.hpp:77] Creating layer relu6
I0309 23:09:23.576546  4607 net.cpp:91] Creating Layer relu6
I0309 23:09:23.576575  4607 net.cpp:425] relu6 <- fc6
I0309 23:09:23.576606  4607 net.cpp:386] relu6 -> fc6 (in-place)
I0309 23:09:23.576642  4607 net.cpp:141] Setting up relu6
I0309 23:09:23.576668  4607 net.cpp:148] Top shape: 256 4096 (1048576)
I0309 23:09:23.576694  4607 net.cpp:156] Memory required for data: 1739419648
I0309 23:09:23.576719  4607 layer_factory.hpp:77] Creating layer drop6
I0309 23:09:23.576750  4607 net.cpp:91] Creating Layer drop6
I0309 23:09:23.576776  4607 net.cpp:425] drop6 <- fc6
I0309 23:09:23.576799  4607 net.cpp:386] drop6 -> fc6 (in-place)
I0309 23:09:23.576843  4607 net.cpp:141] Setting up drop6
I0309 23:09:23.576877  4607 net.cpp:148] Top shape: 256 4096 (1048576)
I0309 23:09:23.576901  4607 net.cpp:156] Memory required for data: 1743613952
I0309 23:09:23.576925  4607 layer_factory.hpp:77] Creating layer fc7
I0309 23:09:23.576956  4607 net.cpp:91] Creating Layer fc7
I0309 23:09:23.576982  4607 net.cpp:425] fc7 <- fc6
I0309 23:09:23.577013  4607 net.cpp:399] fc7 -> fc7
I0309 23:09:24.211379  4607 net.cpp:141] Setting up fc7
I0309 23:09:24.211493  4607 net.cpp:148] Top shape: 256 4096 (1048576)
I0309 23:09:24.211516  4607 net.cpp:156] Memory required for data: 1747808256
I0309 23:09:24.211544  4607 layer_factory.hpp:77] Creating layer relu7
I0309 23:09:24.211571  4607 net.cpp:91] Creating Layer relu7
I0309 23:09:24.211594  4607 net.cpp:425] relu7 <- fc7
I0309 23:09:24.211622  4607 net.cpp:386] relu7 -> fc7 (in-place)
I0309 23:09:24.211657  4607 net.cpp:141] Setting up relu7
I0309 23:09:24.211681  4607 net.cpp:148] Top shape: 256 4096 (1048576)
I0309 23:09:24.211701  4607 net.cpp:156] Memory required for data: 1752002560
I0309 23:09:24.211720  4607 layer_factory.hpp:77] Creating layer drop7
I0309 23:09:24.211745  4607 net.cpp:91] Creating Layer drop7
I0309 23:09:24.211766  4607 net.cpp:425] drop7 <- fc7
I0309 23:09:24.211788  4607 net.cpp:386] drop7 -> fc7 (in-place)
I0309 23:09:24.211827  4607 net.cpp:141] Setting up drop7
I0309 23:09:24.211854  4607 net.cpp:148] Top shape: 256 4096 (1048576)
I0309 23:09:24.211874  4607 net.cpp:156] Memory required for data: 1756196864
I0309 23:09:24.211895  4607 layer_factory.hpp:77] Creating layer fc8_new
I0309 23:09:24.211921  4607 net.cpp:91] Creating Layer fc8_new
I0309 23:09:24.211964  4607 net.cpp:425] fc8_new <- fc7
I0309 23:09:24.212034  4607 net.cpp:399] fc8_new -> fc8_new
I0309 23:09:24.216523  4607 net.cpp:141] Setting up fc8_new
I0309 23:09:24.216567  4607 net.cpp:148] Top shape: 256 25 (6400)
I0309 23:09:24.216593  4607 net.cpp:156] Memory required for data: 1756222464
I0309 23:09:24.216622  4607 layer_factory.hpp:77] Creating layer loss
I0309 23:09:24.216651  4607 net.cpp:91] Creating Layer loss
I0309 23:09:24.216677  4607 net.cpp:425] loss <- fc8_new
I0309 23:09:24.216703  4607 net.cpp:425] loss <- label
I0309 23:09:24.216733  4607 net.cpp:399] loss -> loss
I0309 23:09:24.216809  4607 layer_factory.hpp:77] Creating layer loss
…
I0309 23:09:24.219696  4607 solver.cpp:181] Creating test net (#0) specified by net file: examples/CaffeNet2/train_val.prototxt
I0309 23:09:24.219791  4607 net.cpp:313] The NetState phase (1) differed from the phase (0) specified by a rule in layer data
I0309 23:09:24.220003  4607 net.cpp:49] Initializing net from parameters: 
name: "CaffeNet"
state {
  phase: TEST
}
layer {
  name: "data"
  type: "Data"
  top: "data"
  top: "label"
  include {
    phase: TEST
  }
  transform_param {
    mirror: false
    crop_size: 227
    mean_file: "data/hw2/mean.binaryproto"
  }
  data_param {
    source: "data/hw2/test_lmdb"
    batch_size: 50
    backend: LMDB
  }
}
layer {
  name: "conv1"
  type: "Convolution"
  bottom: "data"
  top: "conv1"
  param {
    lr_mult: 0
    decay_mult: 1
  }
  param {
    lr_mult: 0
    decay_mult: 0
  }
  convolution_param {
    num_output: 96
    kernel_size: 11
    stride: 4
    weight_filler {
      type: "gaussian"
      std: 0.01
    }
    bias_filler {
      type: "constant"
      value: 0
    }
  }
}
layer {
  name: "relu1"
  type: "ReLU"
  bottom: "conv1"
  top: "conv1"
}
layer {
  name: "pool1"
  type: "Pooling"
  bottom: "conv1"
  top: "pool1"
  pooling_param {
    pool: MAX
    kernel_size: 3
    stride: 2
  }
}
layer {
  name: "norm1"
  type: "LRN"
  bottom: "pool1"
  top: "norm1"
  lrn_param {
    local_size: 5
    alpha: 0.0001
    beta: 0.75
  }
}
layer {
  name: "conv2"
  type: "Convolution"
  bottom: "norm1"
  top: "conv2"
  param {
    lr_mult: 0
    decay_mult: 1
  }
  param {
    lr_mult: 0
    decay_mult: 0
  }
  convolution_param {
    num_output: 256
    pad: 2
    kernel_size: 5
    group: 2
    weight_filler {
      type: "gaussian"
      std: 0.01
    }
    bias_filler {
      type: "constant"
      value: 1
    }
  }
}
layer {
  name: "relu2"
  type: "ReLU"
  bottom: "conv2"
  top: "conv2"
}
layer {
  name: "pool2"
  type: "Pooling"
  bottom: "conv2"
  top: "pool2"
  pooling_param {
    pool: MAX
    kernel_size: 3
    stride: 2
  }
}
layer {
  name: "norm2"
  type: "LRN"
  bottom: "pool2"
  top: "norm2"
  lrn_param {
    local_size: 5
    alpha: 0.0001
    beta: 0.75
  }
}
layer {
  name: "conv3"
  type: "Convolution"
  bottom: "norm2"
  top: "conv3"
  param {
    lr_mult: 0
    decay_mult: 1
  }
  param {
    lr_mult: 0
    decay_mult: 0
  }
  convolution_param {
    num_output: 384
    pad: 1
    kernel_size: 3
    weight_filler {
      type: "gaussian"
      std: 0.01
    }
    bias_filler {
      type: "constant"
      value: 0
    }
  }
}
layer {
  name: "relu3"
  type: "ReLU"
  bottom: "conv3"
  top: "conv3"
}
layer {
  name: "conv4"
  type: "Convolution"
  bottom: "conv3"
  top: "conv4"
  param {
    lr_mult: 0
    decay_mult: 1
  }
  param {
    lr_mult: 0
    decay_mult: 0
  }
  convolution_param {
    num_output: 384
    pad: 1
    kernel_size: 3
    group: 2
    weight_filler {
      type: "gaussian"
      std: 0.01
    }
    bias_filler {
      type: "constant"
      value: 1
    }
  }
}
layer {
  name: "relu4"
  type: "ReLU"
  bottom: "conv4"
  top: "conv4"
}
layer {
  name: "conv5"
  type: "Convolution"
  bottom: "conv4"
  top: "conv5"
  param {
    lr_mult: 0
    decay_mult: 1
  }
  param {
    lr_mult: 0
    decay_mult: 0
  }
  convolution_param {
    num_output: 256
    pad: 1
    kernel_size: 3
    group: 2
    weight_filler {
      type: "gaussian"
      std: 0.01
    }
    bias_filler {
      type: "constant"
      value: 1
    }
  }
}
layer {
  name: "relu5"
  type: "ReLU"
  bottom: "conv5"
  top: "conv5"
}
layer {
  name: "pool5"
  type: "Pooling"
  bottom: "conv5"
  top: "pool5"
  pooling_param {
    pool: MAX
    kernel_size: 3
    stride: 2
  }
}
layer {
  name: "fc6"
  type: "InnerProduct"
  bottom: "pool5"
  top: "fc6"
  param {
    lr_mult: 0
    decay_mult: 1
  }
  param {
    lr_mult: 0
    decay_mult: 0
  }
  inner_product_param {
    num_output: 4096
    weight_filler {
      type: "gaussian"
      std: 0.005
    }
    bias_filler {
      type: "constant"
      value: 1
    }
  }
}
layer {
  name: "relu6"
  type: "ReLU"
  bottom: "fc6"
  top: "fc6"
}
layer {
  name: "drop6"
  type: "Dropout"
  bottom: "fc6"
  top: "fc6"
  dropout_param {
    dropout_ratio: 0.5
  }
}
layer {
  name: "fc7"
  type: "InnerProduct"
  bottom: "fc6"
  top: "fc7"
  param {
    lr_mult: 1
    decay_mult: 1
  }
  param {
    lr_mult: 2
    decay_mult: 0
  }
  inner_product_param {
    num_output: 4096
    weight_filler {
      type: "gaussian"
      std: 0.005
    }
    bias_filler {
      type: "constant"
      value: 1
    }
  }
}
layer {
  name: "relu7"
  type: "ReLU"
  bottom: "fc7"
  top: "fc7"
}
layer {
  name: "drop7"
  type: "Dropout"
  bottom: "fc7"
  top: "fc7"
  dropout_param {
    dropout_ratio: 0.5
  }
}
layer {
  name: "fc8_new"
  type: "InnerProduct"
  bottom: "fc7"
  top: "fc8_new"
  param {
    lr_mult: 1
    decay_mult: 1
  }
  param {
    lr_mult: 2
    decay_mult: 0
  }
  inner_product_param {
    num_output: 25
    weight_filler {
      type: "gaussian"
      std: 0.01
    }
    bias_filler {
      type: "constant"
      value: 0
    }
  }
}
layer {
  name: "accuracy"
  type: "Accuracy"
  bottom: "fc8_new"
  bottom: "label"
  top: "accuracy"
  include {
    phase: TEST
  }
}
layer {
  name: "loss"
  type: "SoftmaxWithLoss"
  bottom: "fc8_new"
  bottom: "label"
  top: "loss"
}
I0309 23:09:24.220187  4607 layer_factory.hpp:77] Creating layer data
I0309 23:09:24.220338  4607 net.cpp:91] Creating Layer data
I0309 23:09:24.220388  4607 net.cpp:399] data -> data
I0309 23:09:24.220437  4607 net.cpp:399] data -> label
I0309 23:09:24.220466  4607 data_transformer.cpp:25] Loading mean file from: data/hw2/mean.binaryproto
I0309 23:09:24.292919  4612 db_lmdb.cpp:38] Opened lmdb data/hw2/test_lmdb
I0309 23:09:24.297271  4607 data_layer.cpp:41] output data size: 50,3,227,227
I0309 23:09:24.355072  4607 net.cpp:141] Setting up data
I0309 23:09:24.355191  4607 net.cpp:148] Top shape: 50 3 227 227 (7729350)
I0309 23:09:24.355224  4607 net.cpp:148] Top shape: 50 (50)
I0309 23:09:24.355252  4607 net.cpp:156] Memory required for data: 30917600
I0309 23:09:24.355283  4607 layer_factory.hpp:77] Creating layer label_data_1_split
I0309 23:09:24.355327  4607 net.cpp:91] Creating Layer label_data_1_split
I0309 23:09:24.355355  4607 net.cpp:425] label_data_1_split <- label
I0309 23:09:24.355386  4607 net.cpp:399] label_data_1_split -> label_data_1_split_0
I0309 23:09:24.355420  4607 net.cpp:399] label_data_1_split -> label_data_1_split_1
I0309 23:09:24.355517  4607 net.cpp:141] Setting up label_data_1_split
I0309 23:09:24.355934  4607 net.cpp:148] Top shape: 50 (50)
I0309 23:09:24.355979  4607 net.cpp:148] Top shape: 50 (50)
I0309 23:09:24.356014  4607 net.cpp:156] Memory required for data: 30918000
I0309 23:09:24.356035  4607 layer_factory.hpp:77] Creating layer conv1
I0309 23:09:24.356070  4607 net.cpp:91] Creating Layer conv1
I0309 23:09:24.356096  4607 net.cpp:425] conv1 <- data
I0309 23:09:24.356129  4607 net.cpp:399] conv1 -> conv1
I0309 23:09:24.359560  4607 net.cpp:141] Setting up conv1
I0309 23:09:24.359607  4607 net.cpp:148] Top shape: 50 96 55 55 (14520000)
I0309 23:09:24.359632  4607 net.cpp:156] Memory required for data: 88998000
I0309 23:09:24.359660  4607 layer_factory.hpp:77] Creating layer relu1
I0309 23:09:24.359686  4607 net.cpp:91] Creating Layer relu1
I0309 23:09:24.359709  4607 net.cpp:425] relu1 <- conv1
I0309 23:09:24.359732  4607 net.cpp:386] relu1 -> conv1 (in-place)
I0309 23:09:24.359760  4607 net.cpp:141] Setting up relu1
I0309 23:09:24.359784  4607 net.cpp:148] Top shape: 50 96 55 55 (14520000)
I0309 23:09:24.359804  4607 net.cpp:156] Memory required for data: 147078000
I0309 23:09:24.359824  4607 layer_factory.hpp:77] Creating layer pool1
I0309 23:09:24.359850  4607 net.cpp:91] Creating Layer pool1
I0309 23:09:24.359872  4607 net.cpp:425] pool1 <- conv1
I0309 23:09:24.359896  4607 net.cpp:399] pool1 -> pool1
I0309 23:09:24.359951  4607 net.cpp:141] Setting up pool1
I0309 23:09:24.359980  4607 net.cpp:148] Top shape: 50 96 27 27 (3499200)
I0309 23:09:24.360002  4607 net.cpp:156] Memory required for data: 161074800
I0309 23:09:24.360021  4607 layer_factory.hpp:77] Creating layer norm1
I0309 23:09:24.360047  4607 net.cpp:91] Creating Layer norm1
I0309 23:09:24.360069  4607 net.cpp:425] norm1 <- pool1
I0309 23:09:24.360093  4607 net.cpp:399] norm1 -> norm1
I0309 23:09:24.360149  4607 net.cpp:141] Setting up norm1
I0309 23:09:24.360179  4607 net.cpp:148] Top shape: 50 96 27 27 (3499200)
I0309 23:09:24.360200  4607 net.cpp:156] Memory required for data: 175071600
I0309 23:09:24.360220  4607 layer_factory.hpp:77] Creating layer conv2
I0309 23:09:24.360246  4607 net.cpp:91] Creating Layer conv2
I0309 23:09:24.360270  4607 net.cpp:425] conv2 <- norm1
I0309 23:09:24.360294  4607 net.cpp:399] conv2 -> conv2
I0309 23:09:24.372205  4607 net.cpp:141] Setting up conv2
I0309 23:09:24.372247  4607 net.cpp:148] Top shape: 50 256 27 27 (9331200)
I0309 23:09:24.372274  4607 net.cpp:156] Memory required for data: 212396400
I0309 23:09:24.372305  4607 layer_factory.hpp:77] Creating layer relu2
I0309 23:09:24.372335  4607 net.cpp:91] Creating Layer relu2
I0309 23:09:24.372360  4607 net.cpp:425] relu2 <- conv2
I0309 23:09:24.372411  4607 net.cpp:386] relu2 -> conv2 (in-place)
I0309 23:09:24.372475  4607 net.cpp:141] Setting up relu2
I0309 23:09:24.372505  4607 net.cpp:148] Top shape: 50 256 27 27 (9331200)
I0309 23:09:24.372529  4607 net.cpp:156] Memory required for data: 249721200
I0309 23:09:24.372555  4607 layer_factory.hpp:77] Creating layer pool2
I0309 23:09:24.372586  4607 net.cpp:91] Creating Layer pool2
I0309 23:09:24.372612  4607 net.cpp:425] pool2 <- conv2
I0309 23:09:24.372642  4607 net.cpp:399] pool2 -> pool2
I0309 23:09:24.372701  4607 net.cpp:141] Setting up pool2
I0309 23:09:24.372736  4607 net.cpp:148] Top shape: 50 256 13 13 (2163200)
I0309 23:09:24.372762  4607 net.cpp:156] Memory required for data: 258374000
I0309 23:09:24.372787  4607 layer_factory.hpp:77] Creating layer norm2
I0309 23:09:24.372817  4607 net.cpp:91] Creating Layer norm2
I0309 23:09:24.372844  4607 net.cpp:425] norm2 <- pool2
I0309 23:09:24.372871  4607 net.cpp:399] norm2 -> norm2
I0309 23:09:24.372930  4607 net.cpp:141] Setting up norm2
I0309 23:09:24.372962  4607 net.cpp:148] Top shape: 50 256 13 13 (2163200)
I0309 23:09:24.372987  4607 net.cpp:156] Memory required for data: 267026800
I0309 23:09:24.373013  4607 layer_factory.hpp:77] Creating layer conv3
I0309 23:09:24.373044  4607 net.cpp:91] Creating Layer conv3
I0309 23:09:24.373073  4607 net.cpp:425] conv3 <- norm2
I0309 23:09:24.373103  4607 net.cpp:399] conv3 -> conv3
I0309 23:09:24.408231  4607 net.cpp:141] Setting up conv3
I0309 23:09:24.408305  4607 net.cpp:148] Top shape: 50 384 13 13 (3244800)
I0309 23:09:24.408334  4607 net.cpp:156] Memory required for data: 280006000
I0309 23:09:24.408367  4607 layer_factory.hpp:77] Creating layer relu3
I0309 23:09:24.408398  4607 net.cpp:91] Creating Layer relu3
I0309 23:09:24.408424  4607 net.cpp:425] relu3 <- conv3
I0309 23:09:24.408452  4607 net.cpp:386] relu3 -> conv3 (in-place)
I0309 23:09:24.408484  4607 net.cpp:141] Setting up relu3
I0309 23:09:24.408512  4607 net.cpp:148] Top shape: 50 384 13 13 (3244800)
I0309 23:09:24.408537  4607 net.cpp:156] Memory required for data: 292985200
I0309 23:09:24.408561  4607 layer_factory.hpp:77] Creating layer conv4
I0309 23:09:24.408596  4607 net.cpp:91] Creating Layer conv4
I0309 23:09:24.408635  4607 net.cpp:425] conv4 <- conv3
I0309 23:09:24.408677  4607 net.cpp:399] conv4 -> conv4
I0309 23:09:24.435039  4607 net.cpp:141] Setting up conv4
I0309 23:09:24.435091  4607 net.cpp:148] Top shape: 50 384 13 13 (3244800)
I0309 23:09:24.435120  4607 net.cpp:156] Memory required for data: 305964400
I0309 23:09:24.435150  4607 layer_factory.hpp:77] Creating layer relu4
I0309 23:09:24.435178  4607 net.cpp:91] Creating Layer relu4
I0309 23:09:24.435214  4607 net.cpp:425] relu4 <- conv4
I0309 23:09:24.435243  4607 net.cpp:386] relu4 -> conv4 (in-place)
I0309 23:09:24.435274  4607 net.cpp:141] Setting up relu4
I0309 23:09:24.435303  4607 net.cpp:148] Top shape: 50 384 13 13 (3244800)
I0309 23:09:24.435328  4607 net.cpp:156] Memory required for data: 318943600
I0309 23:09:24.435353  4607 layer_factory.hpp:77] Creating layer conv5
I0309 23:09:24.435384  4607 net.cpp:91] Creating Layer conv5
I0309 23:09:24.435410  4607 net.cpp:425] conv5 <- conv4
I0309 23:09:24.435441  4607 net.cpp:399] conv5 -> conv5
I0309 23:09:24.453035  4607 net.cpp:141] Setting up conv5
I0309 23:09:24.453088  4607 net.cpp:148] Top shape: 50 256 13 13 (2163200)
I0309 23:09:24.453125  4607 net.cpp:156] Memory required for data: 327596400
I0309 23:09:24.453166  4607 layer_factory.hpp:77] Creating layer relu5
I0309 23:09:24.453202  4607 net.cpp:91] Creating Layer relu5
I0309 23:09:24.453234  4607 net.cpp:425] relu5 <- conv5
I0309 23:09:24.453266  4607 net.cpp:386] relu5 -> conv5 (in-place)
I0309 23:09:24.453306  4607 net.cpp:141] Setting up relu5
I0309 23:09:24.453341  4607 net.cpp:148] Top shape: 50 256 13 13 (2163200)
I0309 23:09:24.453371  4607 net.cpp:156] Memory required for data: 336249200
I0309 23:09:24.453400  4607 layer_factory.hpp:77] Creating layer pool5
I0309 23:09:24.453438  4607 net.cpp:91] Creating Layer pool5
I0309 23:09:24.453469  4607 net.cpp:425] pool5 <- conv5
I0309 23:09:24.453526  4607 net.cpp:399] pool5 -> pool5
I0309 23:09:24.453655  4607 net.cpp:141] Setting up pool5
I0309 23:09:24.453696  4607 net.cpp:148] Top shape: 50 256 6 6 (460800)
I0309 23:09:24.453742  4607 net.cpp:156] Memory required for data: 338092400
I0309 23:09:24.453783  4607 layer_factory.hpp:77] Creating layer fc6
I0309 23:09:24.453820  4607 net.cpp:91] Creating Layer fc6
I0309 23:09:24.453855  4607 net.cpp:425] fc6 <- pool5
I0309 23:09:24.453892  4607 net.cpp:399] fc6 -> fc6
I0309 23:09:25.884670  4607 net.cpp:141] Setting up fc6
I0309 23:09:25.884800  4607 net.cpp:148] Top shape: 50 4096 (204800)
I0309 23:09:25.884822  4607 net.cpp:156] Memory required for data: 338911600
I0309 23:09:25.884850  4607 layer_factory.hpp:77] Creating layer relu6
I0309 23:09:25.884881  4607 net.cpp:91] Creating Layer relu6
I0309 23:09:25.884904  4607 net.cpp:425] relu6 <- fc6
I0309 23:09:25.884929  4607 net.cpp:386] relu6 -> fc6 (in-place)
I0309 23:09:25.884959  4607 net.cpp:141] Setting up relu6
I0309 23:09:25.884984  4607 net.cpp:148] Top shape: 50 4096 (204800)
I0309 23:09:25.885002  4607 net.cpp:156] Memory required for data: 339730800
I0309 23:09:25.885021  4607 layer_factory.hpp:77] Creating layer drop6
I0309 23:09:25.885046  4607 net.cpp:91] Creating Layer drop6
I0309 23:09:25.885066  4607 net.cpp:425] drop6 <- fc6
I0309 23:09:25.885090  4607 net.cpp:386] drop6 -> fc6 (in-place)
I0309 23:09:25.885140  4607 net.cpp:141] Setting up drop6
I0309 23:09:25.885169  4607 net.cpp:148] Top shape: 50 4096 (204800)
I0309 23:09:25.885188  4607 net.cpp:156] Memory required for data: 340550000
I0309 23:09:25.885208  4607 layer_factory.hpp:77] Creating layer fc7
I0309 23:09:25.885236  4607 net.cpp:91] Creating Layer fc7
I0309 23:09:25.885259  4607 net.cpp:425] fc7 <- fc6
I0309 23:09:25.885282  4607 net.cpp:399] fc7 -> fc7
I0309 23:09:26.503870  4607 net.cpp:141] Setting up fc7
I0309 23:09:26.503993  4607 net.cpp:148] Top shape: 50 4096 (204800)
I0309 23:09:26.504014  4607 net.cpp:156] Memory required for data: 341369200
I0309 23:09:26.504042  4607 layer_factory.hpp:77] Creating layer relu7
I0309 23:09:26.504070  4607 net.cpp:91] Creating Layer relu7
I0309 23:09:26.504092  4607 net.cpp:425] relu7 <- fc7
I0309 23:09:26.504122  4607 net.cpp:386] relu7 -> fc7 (in-place)
I0309 23:09:26.504154  4607 net.cpp:141] Setting up relu7
I0309 23:09:26.504178  4607 net.cpp:148] Top shape: 50 4096 (204800)
I0309 23:09:26.504197  4607 net.cpp:156] Memory required for data: 342188400
I0309 23:09:26.504216  4607 layer_factory.hpp:77] Creating layer drop7
I0309 23:09:26.504243  4607 net.cpp:91] Creating Layer drop7
I0309 23:09:26.504266  4607 net.cpp:425] drop7 <- fc7
I0309 23:09:26.504287  4607 net.cpp:386] drop7 -> fc7 (in-place)
I0309 23:09:26.504336  4607 net.cpp:141] Setting up drop7
I0309 23:09:26.504364  4607 net.cpp:148] Top shape: 50 4096 (204800)
I0309 23:09:26.504385  4607 net.cpp:156] Memory required for data: 343007600
I0309 23:09:26.504405  4607 layer_factory.hpp:77] Creating layer fc8_new
I0309 23:09:26.504431  4607 net.cpp:91] Creating Layer fc8_new
I0309 23:09:26.504451  4607 net.cpp:425] fc8_new <- fc7
I0309 23:09:26.504477  4607 net.cpp:399] fc8_new -> fc8_new
I0309 23:09:26.508224  4607 net.cpp:141] Setting up fc8_new
I0309 23:09:26.508256  4607 net.cpp:148] Top shape: 50 25 (1250)
I0309 23:09:26.508277  4607 net.cpp:156] Memory required for data: 343012600
I0309 23:09:26.508301  4607 layer_factory.hpp:77] Creating layer fc8_new_fc8_new_0_split
I0309 23:09:26.508325  4607 net.cpp:91] Creating Layer fc8_new_fc8_new_0_split
I0309 23:09:26.508347  4607 net.cpp:425] fc8_new_fc8_new_0_split <- fc8_new
I0309 23:09:26.508369  4607 net.cpp:399] fc8_new_fc8_new_0_split -> fc8_new_fc8_new_0_split_0
I0309 23:09:26.508399  4607 net.cpp:399] fc8_new_fc8_new_0_split -> fc8_new_fc8_new_0_split_1
I0309 23:09:26.508451  4607 net.cpp:141] Setting up fc8_new_fc8_new_0_split
I0309 23:09:26.508481  4607 net.cpp:148] Top shape: 50 25 (1250)
I0309 23:09:26.508502  4607 net.cpp:148] Top shape: 50 25 (1250)
I0309 23:09:26.508522  4607 net.cpp:156] Memory required for data: 343022600
I0309 23:09:26.508597  4607 layer_factory.hpp:77] Creating layer accuracy
I0309 23:09:26.508625  4607 net.cpp:91] Creating Layer accuracy
I0309 23:09:26.508648  4607 net.cpp:425] accuracy <- fc8_new_fc8_new_0_split_0
I0309 23:09:26.508669  4607 net.cpp:425] accuracy <- label_data_1_split_0
I0309 23:09:26.508692  4607 net.cpp:399] accuracy -> accuracy
…
