…
I0306 08:27:48.715252 38680 net.cpp:313] The NetState phase (0) differed from the phase (1) specified by a rule in layer data
I0306 08:27:48.715317 38680 net.cpp:313] The NetState phase (0) differed from the phase (1) specified by a rule in layer accuracy
I0306 08:27:48.715499 38680 net.cpp:49] Initializing net from parameters: 
name: "CaffeNet"
state {
  phase: TRAIN
}
layer {
  name: "data"
  type: "Data"
  top: "data"
  top: "label"
  include {
    phase: TRAIN
  }
  transform_param {
    mirror: true
    crop_size: 227
    mean_file: "data/hw2/mean.binaryproto"
  }
  data_param {
    source: "data/hw2/train_lmdb"
    batch_size: 256
    backend: LMDB
  }
}
layer {
  name: "conv1"
  type: "Convolution"
  bottom: "data"
  top: "conv1"
  param {
    lr_mult: 0
    decay_mult: 1
  }
  param {
    lr_mult: 0
    decay_mult: 0
  }
  convolution_param {
    num_output: 96
    kernel_size: 11
    stride: 4
    weight_filler {
      type: "gaussian"
      std: 0.01
    }
    bias_filler {
      type: "constant"
      value: 0
    }
  }
}
layer {
  name: "relu1"
  type: "ReLU"
  bottom: "conv1"
  top: "conv1"
}
layer {
  name: "pool1"
  type: "Pooling"
  bottom: "conv1"
  top: "pool1"
  pooling_param {
    pool: MAX
    kernel_size: 3
    stride: 2
  }
}
layer {
  name: "norm1"
  type: "LRN"
  bottom: "pool1"
  top: "norm1"
  lrn_param {
    local_size: 5
    alpha: 0.0001
    beta: 0.75
  }
}
layer {
  name: "conv2"
  type: "Convolution"
  bottom: "norm1"
  top: "conv2"
  param {
    lr_mult: 0
    decay_mult: 1
  }
  param {
    lr_mult: 0
    decay_mult: 0
  }
  convolution_param {
    num_output: 256
    pad: 2
    kernel_size: 5
    group: 2
    weight_filler {
      type: "gaussian"
      std: 0.01
    }
    bias_filler {
      type: "constant"
      value: 1
    }
  }
}
layer {
  name: "relu2"
  type: "ReLU"
  bottom: "conv2"
  top: "conv2"
}
layer {
  name: "pool2"
  type: "Pooling"
  bottom: "conv2"
  top: "pool2"
  pooling_param {
    pool: MAX
    kernel_size: 3
    stride: 2
  }
}
layer {
  name: "norm2"
  type: "LRN"
  bottom: "pool2"
  top: "norm2"
  lrn_param {
    local_size: 5
    alpha: 0.0001
    beta: 0.75
  }
}
layer {
  name: "conv3"
  type: "Convolution"
  bottom: "norm2"
  top: "conv3"
  param {
    lr_mult: 0
    decay_mult: 1
  }
  param {
    lr_mult: 0
    decay_mult: 0
  }
  convolution_param {
    num_output: 384
    pad: 1
    kernel_size: 3
    weight_filler {
      type: "gaussian"
      std: 0.01
    }
    bias_filler {
      type: "constant"
      value: 0
    }
  }
}
layer {
  name: "relu3"
  type: "ReLU"
  bottom: "conv3"
  top: "conv3"
}
layer {
  name: "conv4"
  type: "Convolution"
  bottom: "conv3"
  top: "conv4"
  param {
    lr_mult: 0
    decay_mult: 1
  }
  param {
    lr_mult: 0
    decay_mult: 0
  }
  convolution_param {
    num_output: 384
    pad: 1
    kernel_size: 3
    group: 2
    weight_filler {
      type: "gaussian"
      std: 0.01
    }
    bias_filler {
      type: "constant"
      value: 1
    }
  }
}
layer {
  name: "relu4"
  type: "ReLU"
  bottom: "conv4"
  top: "conv4"
}
layer {
  name: "conv5"
  type: "Convolution"
  bottom: "conv4"
  top: "conv5"
  param {
    lr_mult: 0
    decay_mult: 1
  }
  param {
    lr_mult: 0
    decay_mult: 0
  }
  convolution_param {
    num_output: 256
    pad: 1
    kernel_size: 3
    group: 2
    weight_filler {
      type: "gaussian"
      std: 0.01
    }
    bias_filler {
      type: "constant"
      value: 1
    }
  }
}
layer {
  name: "relu5"
  type: "ReLU"
  bottom: "conv5"
  top: "conv5"
}
layer {
  name: "pool5"
  type: "Pooling"
  bottom: "conv5"
  top: "pool5"
  pooling_param {
    pool: MAX
    kernel_size: 3
    stride: 2
  }
}
layer {
  name: "fc6"
  type: "InnerProduct"
  bottom: "pool5"
  top: "fc6"
  param {
    lr_mult: 0
    decay_mult: 1
  }
  param {
    lr_mult: 0
    decay_mult: 0
  }
  inner_product_param {
    num_output: 4096
    weight_filler {
      type: "gaussian"
      std: 0.005
    }
    bias_filler {
      type: "constant"
      value: 1
    }
  }
}
layer {
  name: "relu6"
  type: "ReLU"
  bottom: "fc6"
  top: "fc6"
}
layer {
  name: "drop6"
  type: "Dropout"
  bottom: "fc6"
  top: "fc6"
  dropout_param {
    dropout_ratio: 0.5
  }
}
layer {
  name: "fc7"
  type: "InnerProduct"
  bottom: "fc6"
  top: "fc7"
  param {
    lr_mult: 0
    decay_mult: 1
  }
  param {
    lr_mult: 0
    decay_mult: 0
  }
  inner_product_param {
    num_output: 4096
    weight_filler {
      type: "gaussian"
      std: 0.005
    }
    bias_filler {
      type: "constant"
      value: 1
    }
  }
}
layer {
  name: "relu7"
  type: "ReLU"
  bottom: "fc7"
  top: "fc7"
}
layer {
  name: "drop7"
  type: "Dropout"
  bottom: "fc7"
  top: "fc7"
  dropout_param {
    dropout_ratio: 0.5
  }
}
layer {
  name: "fc8_new"
  type: "InnerProduct"
  bottom: "fc7"
  top: "fc8_new"
  param {
    lr_mult: 1
    decay_mult: 1
  }
  param {
    lr_mult: 2
    decay_mult: 0
  }
  inner_product_param {
    num_output: 25
    weight_filler {
      type: "gaussian"
      std: 0.01
    }
    bias_filler {
      type: "constant"
      value: 0
    }
  }
}
layer {
  name: "loss"
  type: "SoftmaxWithLoss"
  bottom: "fc8_new"
  bottom: "label"
  top: "loss"
}
I0306 08:27:48.715776 38680 layer_factory.hpp:77] Creating layer data
I0306 08:27:48.716632 38680 net.cpp:91] Creating Layer data
I0306 08:27:48.716686 38680 net.cpp:399] data -> data
I0306 08:27:48.716810 38680 net.cpp:399] data -> label
I0306 08:27:48.716881 38680 data_transformer.cpp:25] Loading mean file from: data/hw2/mean.binaryproto
I0306 08:27:48.730948 38682 db_lmdb.cpp:38] Opened lmdb data/hw2/train_lmdb
I0306 08:27:48.779268 38680 data_layer.cpp:41] output data size: 256,3,227,227
I0306 08:27:49.093505 38680 net.cpp:141] Setting up data
I0306 08:27:49.093588 38680 net.cpp:148] Top shape: 256 3 227 227 (39574272)
I0306 08:27:49.093617 38680 net.cpp:148] Top shape: 256 (256)
I0306 08:27:49.093639 38680 net.cpp:156] Memory required for data: 158298112
I0306 08:27:49.093693 38680 layer_factory.hpp:77] Creating layer conv1
I0306 08:27:49.093789 38680 net.cpp:91] Creating Layer conv1
I0306 08:27:49.093822 38680 net.cpp:425] conv1 <- data
I0306 08:27:49.093864 38680 net.cpp:399] conv1 -> conv1
I0306 08:27:49.112221 38680 net.cpp:141] Setting up conv1
I0306 08:27:49.112254 38680 net.cpp:148] Top shape: 256 96 55 55 (74342400)
I0306 08:27:49.112277 38680 net.cpp:156] Memory required for data: 455667712
I0306 08:27:49.112329 38680 layer_factory.hpp:77] Creating layer relu1
I0306 08:27:49.112365 38680 net.cpp:91] Creating Layer relu1
I0306 08:27:49.112393 38680 net.cpp:425] relu1 <- conv1
I0306 08:27:49.112424 38680 net.cpp:386] relu1 -> conv1 (in-place)
I0306 08:27:49.112457 38680 net.cpp:141] Setting up relu1
I0306 08:27:49.112496 38680 net.cpp:148] Top shape: 256 96 55 55 (74342400)
I0306 08:27:49.112522 38680 net.cpp:156] Memory required for data: 753037312
I0306 08:27:49.112548 38680 layer_factory.hpp:77] Creating layer pool1
I0306 08:27:49.112577 38680 net.cpp:91] Creating Layer pool1
I0306 08:27:49.112603 38680 net.cpp:425] pool1 <- conv1
I0306 08:27:49.112632 38680 net.cpp:399] pool1 -> pool1
I0306 08:27:49.112769 38680 net.cpp:141] Setting up pool1
I0306 08:27:49.112809 38680 net.cpp:148] Top shape: 256 96 27 27 (17915904)
I0306 08:27:49.112835 38680 net.cpp:156] Memory required for data: 824700928
I0306 08:27:49.112871 38680 layer_factory.hpp:77] Creating layer norm1
I0306 08:27:49.112907 38680 net.cpp:91] Creating Layer norm1
I0306 08:27:49.112936 38680 net.cpp:425] norm1 <- pool1
I0306 08:27:49.112967 38680 net.cpp:399] norm1 -> norm1
I0306 08:27:49.113093 38680 net.cpp:141] Setting up norm1
I0306 08:27:49.113169 38680 net.cpp:148] Top shape: 256 96 27 27 (17915904)
I0306 08:27:49.113191 38680 net.cpp:156] Memory required for data: 896364544
I0306 08:27:49.113214 38680 layer_factory.hpp:77] Creating layer conv2
I0306 08:27:49.113246 38680 net.cpp:91] Creating Layer conv2
I0306 08:27:49.113276 38680 net.cpp:425] conv2 <- norm1
I0306 08:27:49.113307 38680 net.cpp:399] conv2 -> conv2
I0306 08:27:49.125803 38680 net.cpp:141] Setting up conv2
I0306 08:27:49.125847 38680 net.cpp:148] Top shape: 256 256 27 27 (47775744)
I0306 08:27:49.125874 38680 net.cpp:156] Memory required for data: 1087467520
I0306 08:27:49.125902 38680 layer_factory.hpp:77] Creating layer relu2
I0306 08:27:49.125927 38680 net.cpp:91] Creating Layer relu2
I0306 08:27:49.125951 38680 net.cpp:425] relu2 <- conv2
I0306 08:27:49.125982 38680 net.cpp:386] relu2 -> conv2 (in-place)
I0306 08:27:49.126013 38680 net.cpp:141] Setting up relu2
I0306 08:27:49.126041 38680 net.cpp:148] Top shape: 256 256 27 27 (47775744)
I0306 08:27:49.126067 38680 net.cpp:156] Memory required for data: 1278570496
I0306 08:27:49.126092 38680 layer_factory.hpp:77] Creating layer pool2
I0306 08:27:49.126121 38680 net.cpp:91] Creating Layer pool2
I0306 08:27:49.126148 38680 net.cpp:425] pool2 <- conv2
I0306 08:27:49.126176 38680 net.cpp:399] pool2 -> pool2
I0306 08:27:49.126235 38680 net.cpp:141] Setting up pool2
I0306 08:27:49.126268 38680 net.cpp:148] Top shape: 256 256 13 13 (11075584)
I0306 08:27:49.126293 38680 net.cpp:156] Memory required for data: 1322872832
I0306 08:27:49.126319 38680 layer_factory.hpp:77] Creating layer norm2
I0306 08:27:49.126351 38680 net.cpp:91] Creating Layer norm2
I0306 08:27:49.126379 38680 net.cpp:425] norm2 <- pool2
I0306 08:27:49.126407 38680 net.cpp:399] norm2 -> norm2
I0306 08:27:49.126464 38680 net.cpp:141] Setting up norm2
I0306 08:27:49.126497 38680 net.cpp:148] Top shape: 256 256 13 13 (11075584)
I0306 08:27:49.126523 38680 net.cpp:156] Memory required for data: 1367175168
I0306 08:27:49.126549 38680 layer_factory.hpp:77] Creating layer conv3
I0306 08:27:49.126581 38680 net.cpp:91] Creating Layer conv3
I0306 08:27:49.126610 38680 net.cpp:425] conv3 <- norm2
I0306 08:27:49.126641 38680 net.cpp:399] conv3 -> conv3
I0306 08:27:49.161022 38680 net.cpp:141] Setting up conv3
I0306 08:27:49.161067 38680 net.cpp:148] Top shape: 256 384 13 13 (16613376)
I0306 08:27:49.161094 38680 net.cpp:156] Memory required for data: 1433628672
I0306 08:27:49.161126 38680 layer_factory.hpp:77] Creating layer relu3
I0306 08:27:49.161155 38680 net.cpp:91] Creating Layer relu3
I0306 08:27:49.161183 38680 net.cpp:425] relu3 <- conv3
I0306 08:27:49.161213 38680 net.cpp:386] relu3 -> conv3 (in-place)
I0306 08:27:49.161247 38680 net.cpp:141] Setting up relu3
I0306 08:27:49.161274 38680 net.cpp:148] Top shape: 256 384 13 13 (16613376)
I0306 08:27:49.161299 38680 net.cpp:156] Memory required for data: 1500082176
I0306 08:27:49.161326 38680 layer_factory.hpp:77] Creating layer conv4
I0306 08:27:49.161360 38680 net.cpp:91] Creating Layer conv4
I0306 08:27:49.161388 38680 net.cpp:425] conv4 <- conv3
I0306 08:27:49.161417 38680 net.cpp:399] conv4 -> conv4
I0306 08:27:49.187378 38680 net.cpp:141] Setting up conv4
I0306 08:27:49.187423 38680 net.cpp:148] Top shape: 256 384 13 13 (16613376)
I0306 08:27:49.187471 38680 net.cpp:156] Memory required for data: 1566535680
I0306 08:27:49.187501 38680 layer_factory.hpp:77] Creating layer relu4
I0306 08:27:49.187537 38680 net.cpp:91] Creating Layer relu4
I0306 08:27:49.187566 38680 net.cpp:425] relu4 <- conv4
I0306 08:27:49.187594 38680 net.cpp:386] relu4 -> conv4 (in-place)
I0306 08:27:49.187625 38680 net.cpp:141] Setting up relu4
I0306 08:27:49.187655 38680 net.cpp:148] Top shape: 256 384 13 13 (16613376)
I0306 08:27:49.187703 38680 net.cpp:156] Memory required for data: 1632989184
I0306 08:27:49.187729 38680 layer_factory.hpp:77] Creating layer conv5
I0306 08:27:49.187788 38680 net.cpp:91] Creating Layer conv5
I0306 08:27:49.187829 38680 net.cpp:425] conv5 <- conv4
I0306 08:27:49.187873 38680 net.cpp:399] conv5 -> conv5
I0306 08:27:49.204988 38680 net.cpp:141] Setting up conv5
I0306 08:27:49.205039 38680 net.cpp:148] Top shape: 256 256 13 13 (11075584)
I0306 08:27:49.205067 38680 net.cpp:156] Memory required for data: 1677291520
I0306 08:27:49.205101 38680 layer_factory.hpp:77] Creating layer relu5
I0306 08:27:49.205147 38680 net.cpp:91] Creating Layer relu5
I0306 08:27:49.205174 38680 net.cpp:425] relu5 <- conv5
I0306 08:27:49.205204 38680 net.cpp:386] relu5 -> conv5 (in-place)
I0306 08:27:49.205245 38680 net.cpp:141] Setting up relu5
I0306 08:27:49.205274 38680 net.cpp:148] Top shape: 256 256 13 13 (11075584)
I0306 08:27:49.205299 38680 net.cpp:156] Memory required for data: 1721593856
I0306 08:27:49.205323 38680 layer_factory.hpp:77] Creating layer pool5
I0306 08:27:49.205351 38680 net.cpp:91] Creating Layer pool5
I0306 08:27:49.205379 38680 net.cpp:425] pool5 <- conv5
I0306 08:27:49.205406 38680 net.cpp:399] pool5 -> pool5
I0306 08:27:49.205466 38680 net.cpp:141] Setting up pool5
I0306 08:27:49.205500 38680 net.cpp:148] Top shape: 256 256 6 6 (2359296)
I0306 08:27:49.205526 38680 net.cpp:156] Memory required for data: 1731031040
I0306 08:27:49.205554 38680 layer_factory.hpp:77] Creating layer fc6
I0306 08:27:49.205615 38680 net.cpp:91] Creating Layer fc6
I0306 08:27:49.205646 38680 net.cpp:425] fc6 <- pool5
I0306 08:27:49.205678 38680 net.cpp:399] fc6 -> fc6
I0306 08:27:49.392927 38683 blocking_queue.cpp:50] Waiting for data
I0306 08:27:50.661065 38680 net.cpp:141] Setting up fc6
I0306 08:27:50.661206 38680 net.cpp:148] Top shape: 256 4096 (1048576)
I0306 08:27:50.661238 38680 net.cpp:156] Memory required for data: 1735225344
I0306 08:27:50.661270 38680 layer_factory.hpp:77] Creating layer relu6
I0306 08:27:50.661303 38680 net.cpp:91] Creating Layer relu6
I0306 08:27:50.661329 38680 net.cpp:425] relu6 <- fc6
I0306 08:27:50.661360 38680 net.cpp:386] relu6 -> fc6 (in-place)
I0306 08:27:50.661397 38680 net.cpp:141] Setting up relu6
I0306 08:27:50.661422 38680 net.cpp:148] Top shape: 256 4096 (1048576)
I0306 08:27:50.661444 38680 net.cpp:156] Memory required for data: 1739419648
I0306 08:27:50.661478 38680 layer_factory.hpp:77] Creating layer drop6
I0306 08:27:50.661504 38680 net.cpp:91] Creating Layer drop6
I0306 08:27:50.661538 38680 net.cpp:425] drop6 <- fc6
I0306 08:27:50.661563 38680 net.cpp:386] drop6 -> fc6 (in-place)
I0306 08:27:50.661626 38680 net.cpp:141] Setting up drop6
I0306 08:27:50.661671 38680 net.cpp:148] Top shape: 256 4096 (1048576)
I0306 08:27:50.661695 38680 net.cpp:156] Memory required for data: 1743613952
I0306 08:27:50.661731 38680 layer_factory.hpp:77] Creating layer fc7
I0306 08:27:50.661767 38680 net.cpp:91] Creating Layer fc7
I0306 08:27:50.661813 38680 net.cpp:425] fc7 <- fc6
I0306 08:27:50.661865 38680 net.cpp:399] fc7 -> fc7
I0306 08:27:51.285197 38680 net.cpp:141] Setting up fc7
I0306 08:27:51.285336 38680 net.cpp:148] Top shape: 256 4096 (1048576)
I0306 08:27:51.285359 38680 net.cpp:156] Memory required for data: 1747808256
I0306 08:27:51.285392 38680 layer_factory.hpp:77] Creating layer relu7
I0306 08:27:51.285428 38680 net.cpp:91] Creating Layer relu7
I0306 08:27:51.285451 38680 net.cpp:425] relu7 <- fc7
I0306 08:27:51.285480 38680 net.cpp:386] relu7 -> fc7 (in-place)
I0306 08:27:51.285516 38680 net.cpp:141] Setting up relu7
I0306 08:27:51.285542 38680 net.cpp:148] Top shape: 256 4096 (1048576)
I0306 08:27:51.285562 38680 net.cpp:156] Memory required for data: 1752002560
I0306 08:27:51.285583 38680 layer_factory.hpp:77] Creating layer drop7
I0306 08:27:51.285612 38680 net.cpp:91] Creating Layer drop7
I0306 08:27:51.285635 38680 net.cpp:425] drop7 <- fc7
I0306 08:27:51.285658 38680 net.cpp:386] drop7 -> fc7 (in-place)
I0306 08:27:51.285699 38680 net.cpp:141] Setting up drop7
I0306 08:27:51.285728 38680 net.cpp:148] Top shape: 256 4096 (1048576)
I0306 08:27:51.285749 38680 net.cpp:156] Memory required for data: 1756196864
I0306 08:27:51.285769 38680 layer_factory.hpp:77] Creating layer fc8_new
I0306 08:27:51.285805 38680 net.cpp:91] Creating Layer fc8_new
I0306 08:27:51.285854 38680 net.cpp:425] fc8_new <- fc7
I0306 08:27:51.285923 38680 net.cpp:399] fc8_new -> fc8_new
I0306 08:27:51.290233 38680 net.cpp:141] Setting up fc8_new
I0306 08:27:51.290271 38680 net.cpp:148] Top shape: 256 25 (6400)
I0306 08:27:51.290293 38680 net.cpp:156] Memory required for data: 1756222464
I0306 08:27:51.290318 38680 layer_factory.hpp:77] Creating layer loss
I0306 08:27:51.290344 38680 net.cpp:91] Creating Layer loss
I0306 08:27:51.290366 38680 net.cpp:425] loss <- fc8_new
I0306 08:27:51.290388 38680 net.cpp:425] loss <- label
I0306 08:27:51.290421 38680 net.cpp:399] loss -> loss
I0306 08:27:51.290503 38680 layer_factory.hpp:77] Creating layer loss
…
I0306 08:27:51.293891 38680 solver.cpp:181] Creating test net (#0) specified by net file: examples/hw2/train_val.prototxt
I0306 08:27:51.293975 38680 net.cpp:313] The NetState phase (1) differed from the phase (0) specified by a rule in layer data
I0306 08:27:51.294191 38680 net.cpp:49] Initializing net from parameters: 
name: "CaffeNet"
state {
  phase: TEST
}
layer {
  name: "data"
  type: "Data"
  top: "data"
  top: "label"
  include {
    phase: TEST
  }
  transform_param {
    mirror: false
    crop_size: 227
    mean_file: "data/hw2/mean.binaryproto"
  }
  data_param {
    source: "data/hw2/test_lmdb"
    batch_size: 50
    backend: LMDB
  }
}
layer {
  name: "conv1"
  type: "Convolution"
  bottom: "data"
  top: "conv1"
  param {
    lr_mult: 0
    decay_mult: 1
  }
  param {
    lr_mult: 0
    decay_mult: 0
  }
  convolution_param {
    num_output: 96
    kernel_size: 11
    stride: 4
    weight_filler {
      type: "gaussian"
      std: 0.01
    }
    bias_filler {
      type: "constant"
      value: 0
    }
  }
}
layer {
  name: "relu1"
  type: "ReLU"
  bottom: "conv1"
  top: "conv1"
}
layer {
  name: "pool1"
  type: "Pooling"
  bottom: "conv1"
  top: "pool1"
  pooling_param {
    pool: MAX
    kernel_size: 3
    stride: 2
  }
}
layer {
  name: "norm1"
  type: "LRN"
  bottom: "pool1"
  top: "norm1"
  lrn_param {
    local_size: 5
    alpha: 0.0001
    beta: 0.75
  }
}
layer {
  name: "conv2"
  type: "Convolution"
  bottom: "norm1"
  top: "conv2"
  param {
    lr_mult: 0
    decay_mult: 1
  }
  param {
    lr_mult: 0
    decay_mult: 0
  }
  convolution_param {
    num_output: 256
    pad: 2
    kernel_size: 5
    group: 2
    weight_filler {
      type: "gaussian"
      std: 0.01
    }
    bias_filler {
      type: "constant"
      value: 1
    }
  }
}
layer {
  name: "relu2"
  type: "ReLU"
  bottom: "conv2"
  top: "conv2"
}
layer {
  name: "pool2"
  type: "Pooling"
  bottom: "conv2"
  top: "pool2"
  pooling_param {
    pool: MAX
    kernel_size: 3
    stride: 2
  }
}
layer {
  name: "norm2"
  type: "LRN"
  bottom: "pool2"
  top: "norm2"
  lrn_param {
    local_size: 5
    alpha: 0.0001
    beta: 0.75
  }
}
layer {
  name: "conv3"
  type: "Convolution"
  bottom: "norm2"
  top: "conv3"
  param {
    lr_mult: 0
    decay_mult: 1
  }
  param {
    lr_mult: 0
    decay_mult: 0
  }
  convolution_param {
    num_output: 384
    pad: 1
    kernel_size: 3
    weight_filler {
      type: "gaussian"
      std: 0.01
    }
    bias_filler {
      type: "constant"
      value: 0
    }
  }
}
layer {
  name: "relu3"
  type: "ReLU"
  bottom: "conv3"
  top: "conv3"
}
layer {
  name: "conv4"
  type: "Convolution"
  bottom: "conv3"
  top: "conv4"
  param {
    lr_mult: 0
    decay_mult: 1
  }
  param {
    lr_mult: 0
    decay_mult: 0
  }
  convolution_param {
    num_output: 384
    pad: 1
    kernel_size: 3
    group: 2
    weight_filler {
      type: "gaussian"
      std: 0.01
    }
    bias_filler {
      type: "constant"
      value: 1
    }
  }
}
layer {
  name: "relu4"
  type: "ReLU"
  bottom: "conv4"
  top: "conv4"
}
layer {
  name: "conv5"
  type: "Convolution"
  bottom: "conv4"
  top: "conv5"
  param {
    lr_mult: 0
    decay_mult: 1
  }
  param {
    lr_mult: 0
    decay_mult: 0
  }
  convolution_param {
    num_output: 256
    pad: 1
    kernel_size: 3
    group: 2
    weight_filler {
      type: "gaussian"
      std: 0.01
    }
    bias_filler {
      type: "constant"
      value: 1
    }
  }
}
layer {
  name: "relu5"
  type: "ReLU"
  bottom: "conv5"
  top: "conv5"
}
layer {
  name: "pool5"
  type: "Pooling"
  bottom: "conv5"
  top: "pool5"
  pooling_param {
    pool: MAX
    kernel_size: 3
    stride: 2
  }
}
layer {
  name: "fc6"
  type: "InnerProduct"
  bottom: "pool5"
  top: "fc6"
  param {
    lr_mult: 0
    decay_mult: 1
  }
  param {
    lr_mult: 0
    decay_mult: 0
  }
  inner_product_param {
    num_output: 4096
    weight_filler {
      type: "gaussian"
      std: 0.005
    }
    bias_filler {
      type: "constant"
      value: 1
    }
  }
}
layer {
  name: "relu6"
  type: "ReLU"
  bottom: "fc6"
  top: "fc6"
}
layer {
  name: "drop6"
  type: "Dropout"
  bottom: "fc6"
  top: "fc6"
  dropout_param {
    dropout_ratio: 0.5
  }
}
layer {
  name: "fc7"
  type: "InnerProduct"
  bottom: "fc6"
  top: "fc7"
  param {
    lr_mult: 0
    decay_mult: 1
  }
  param {
    lr_mult: 0
    decay_mult: 0
  }
  inner_product_param {
    num_output: 4096
    weight_filler {
      type: "gaussian"
      std: 0.005
    }
    bias_filler {
      type: "constant"
      value: 1
    }
  }
}
layer {
  name: "relu7"
  type: "ReLU"
  bottom: "fc7"
  top: "fc7"
}
layer {
  name: "drop7"
  type: "Dropout"
  bottom: "fc7"
  top: "fc7"
  dropout_param {
    dropout_ratio: 0.5
  }
}
layer {
  name: "fc8_new"
  type: "InnerProduct"
  bottom: "fc7"
  top: "fc8_new"
  param {
    lr_mult: 1
    decay_mult: 1
  }
  param {
    lr_mult: 2
    decay_mult: 0
  }
  inner_product_param {
    num_output: 25
    weight_filler {
      type: "gaussian"
      std: 0.01
    }
    bias_filler {
      type: "constant"
      value: 0
    }
  }
}
layer {
  name: "accuracy"
  type: "Accuracy"
  bottom: "fc8_new"
  bottom: "label"
  top: "accuracy"
  include {
    phase: TEST
  }
}
layer {
  name: "loss"
  type: "SoftmaxWithLoss"
  bottom: "fc8_new"
  bottom: "label"
  top: "loss"
}
I0306 08:27:51.294385 38680 layer_factory.hpp:77] Creating layer data
I0306 08:27:51.294554 38680 net.cpp:91] Creating Layer data
I0306 08:27:51.294600 38680 net.cpp:399] data -> data
I0306 08:27:51.294633 38680 net.cpp:399] data -> label
I0306 08:27:51.294664 38680 data_transformer.cpp:25] Loading mean file from: data/hw2/mean.binaryproto
I0306 08:27:51.307283 38684 db_lmdb.cpp:38] Opened lmdb data/hw2/test_lmdb
I0306 08:27:51.309250 38680 data_layer.cpp:41] output data size: 50,3,227,227
I0306 08:27:51.366791 38680 net.cpp:141] Setting up data
I0306 08:27:51.366946 38680 net.cpp:148] Top shape: 50 3 227 227 (7729350)
I0306 08:27:51.366977 38680 net.cpp:148] Top shape: 50 (50)
I0306 08:27:51.367015 38680 net.cpp:156] Memory required for data: 30917600
I0306 08:27:51.367044 38680 layer_factory.hpp:77] Creating layer label_data_1_split
I0306 08:27:51.367092 38680 net.cpp:91] Creating Layer label_data_1_split
I0306 08:27:51.367117 38680 net.cpp:425] label_data_1_split <- label
I0306 08:27:51.367159 38680 net.cpp:399] label_data_1_split -> label_data_1_split_0
I0306 08:27:51.367210 38680 net.cpp:399] label_data_1_split -> label_data_1_split_1
I0306 08:27:51.367313 38680 net.cpp:141] Setting up label_data_1_split
I0306 08:27:51.367346 38680 net.cpp:148] Top shape: 50 (50)
I0306 08:27:51.367369 38680 net.cpp:148] Top shape: 50 (50)
I0306 08:27:51.367390 38680 net.cpp:156] Memory required for data: 30918000
I0306 08:27:51.367411 38680 layer_factory.hpp:77] Creating layer conv1
I0306 08:27:51.367450 38680 net.cpp:91] Creating Layer conv1
I0306 08:27:51.367475 38680 net.cpp:425] conv1 <- data
I0306 08:27:51.367499 38680 net.cpp:399] conv1 -> conv1
I0306 08:27:51.371127 38680 net.cpp:141] Setting up conv1
I0306 08:27:51.371187 38680 net.cpp:148] Top shape: 50 96 55 55 (14520000)
I0306 08:27:51.371217 38680 net.cpp:156] Memory required for data: 88998000
I0306 08:27:51.371253 38680 layer_factory.hpp:77] Creating layer relu1
I0306 08:27:51.371286 38680 net.cpp:91] Creating Layer relu1
I0306 08:27:51.371315 38680 net.cpp:425] relu1 <- conv1
I0306 08:27:51.371343 38680 net.cpp:386] relu1 -> conv1 (in-place)
I0306 08:27:51.371376 38680 net.cpp:141] Setting up relu1
I0306 08:27:51.371407 38680 net.cpp:148] Top shape: 50 96 55 55 (14520000)
I0306 08:27:51.371433 38680 net.cpp:156] Memory required for data: 147078000
I0306 08:27:51.371460 38680 layer_factory.hpp:77] Creating layer pool1
I0306 08:27:51.371492 38680 net.cpp:91] Creating Layer pool1
I0306 08:27:51.371520 38680 net.cpp:425] pool1 <- conv1
I0306 08:27:51.371549 38680 net.cpp:399] pool1 -> pool1
I0306 08:27:51.371618 38680 net.cpp:141] Setting up pool1
I0306 08:27:51.371649 38680 net.cpp:148] Top shape: 50 96 27 27 (3499200)
I0306 08:27:51.371675 38680 net.cpp:156] Memory required for data: 161074800
I0306 08:27:51.371702 38680 layer_factory.hpp:77] Creating layer norm1
I0306 08:27:51.371734 38680 net.cpp:91] Creating Layer norm1
I0306 08:27:51.371762 38680 net.cpp:425] norm1 <- pool1
I0306 08:27:51.371795 38680 net.cpp:399] norm1 -> norm1
I0306 08:27:51.371855 38680 net.cpp:141] Setting up norm1
I0306 08:27:51.371893 38680 net.cpp:148] Top shape: 50 96 27 27 (3499200)
I0306 08:27:51.371919 38680 net.cpp:156] Memory required for data: 175071600
I0306 08:27:51.371948 38680 layer_factory.hpp:77] Creating layer conv2
I0306 08:27:51.371980 38680 net.cpp:91] Creating Layer conv2
I0306 08:27:51.372009 38680 net.cpp:425] conv2 <- norm1
I0306 08:27:51.372040 38680 net.cpp:399] conv2 -> conv2
I0306 08:27:51.384465 38680 net.cpp:141] Setting up conv2
I0306 08:27:51.384527 38680 net.cpp:148] Top shape: 50 256 27 27 (9331200)
I0306 08:27:51.384552 38680 net.cpp:156] Memory required for data: 212396400
I0306 08:27:51.384595 38680 layer_factory.hpp:77] Creating layer relu2
I0306 08:27:51.384635 38680 net.cpp:91] Creating Layer relu2
I0306 08:27:51.384662 38680 net.cpp:425] relu2 <- conv2
I0306 08:27:51.384713 38680 net.cpp:386] relu2 -> conv2 (in-place)
I0306 08:27:51.384793 38680 net.cpp:141] Setting up relu2
I0306 08:27:51.384824 38680 net.cpp:148] Top shape: 50 256 27 27 (9331200)
I0306 08:27:51.384868 38680 net.cpp:156] Memory required for data: 249721200
I0306 08:27:51.384891 38680 layer_factory.hpp:77] Creating layer pool2
I0306 08:27:51.384930 38680 net.cpp:91] Creating Layer pool2
I0306 08:27:51.384953 38680 net.cpp:425] pool2 <- conv2
I0306 08:27:51.384992 38680 net.cpp:399] pool2 -> pool2
I0306 08:27:51.385058 38680 net.cpp:141] Setting up pool2
I0306 08:27:51.385097 38680 net.cpp:148] Top shape: 50 256 13 13 (2163200)
I0306 08:27:51.385118 38680 net.cpp:156] Memory required for data: 258374000
I0306 08:27:51.385140 38680 layer_factory.hpp:77] Creating layer norm2
I0306 08:27:51.385169 38680 net.cpp:91] Creating Layer norm2
I0306 08:27:51.385191 38680 net.cpp:425] norm2 <- pool2
I0306 08:27:51.385229 38680 net.cpp:399] norm2 -> norm2
I0306 08:27:51.385285 38680 net.cpp:141] Setting up norm2
I0306 08:27:51.385318 38680 net.cpp:148] Top shape: 50 256 13 13 (2163200)
I0306 08:27:51.385341 38680 net.cpp:156] Memory required for data: 267026800
I0306 08:27:51.385365 38680 layer_factory.hpp:77] Creating layer conv3
I0306 08:27:51.385396 38680 net.cpp:91] Creating Layer conv3
I0306 08:27:51.385421 38680 net.cpp:425] conv3 <- norm2
I0306 08:27:51.385447 38680 net.cpp:399] conv3 -> conv3
I0306 08:27:51.420836 38680 net.cpp:141] Setting up conv3
I0306 08:27:51.420938 38680 net.cpp:148] Top shape: 50 384 13 13 (3244800)
I0306 08:27:51.420963 38680 net.cpp:156] Memory required for data: 280006000
I0306 08:27:51.420999 38680 layer_factory.hpp:77] Creating layer relu3
I0306 08:27:51.421046 38680 net.cpp:91] Creating Layer relu3
I0306 08:27:51.421072 38680 net.cpp:425] relu3 <- conv3
I0306 08:27:51.421115 38680 net.cpp:386] relu3 -> conv3 (in-place)
I0306 08:27:51.421164 38680 net.cpp:141] Setting up relu3
I0306 08:27:51.421191 38680 net.cpp:148] Top shape: 50 384 13 13 (3244800)
I0306 08:27:51.421216 38680 net.cpp:156] Memory required for data: 292985200
I0306 08:27:51.421239 38680 layer_factory.hpp:77] Creating layer conv4
I0306 08:27:51.421288 38680 net.cpp:91] Creating Layer conv4
I0306 08:27:51.421316 38680 net.cpp:425] conv4 <- conv3
I0306 08:27:51.421365 38680 net.cpp:399] conv4 -> conv4
I0306 08:27:51.447677 38680 net.cpp:141] Setting up conv4
I0306 08:27:51.447746 38680 net.cpp:148] Top shape: 50 384 13 13 (3244800)
I0306 08:27:51.447775 38680 net.cpp:156] Memory required for data: 305964400
I0306 08:27:51.447814 38680 layer_factory.hpp:77] Creating layer relu4
I0306 08:27:51.447847 38680 net.cpp:91] Creating Layer relu4
I0306 08:27:51.447875 38680 net.cpp:425] relu4 <- conv4
I0306 08:27:51.447906 38680 net.cpp:386] relu4 -> conv4 (in-place)
I0306 08:27:51.447939 38680 net.cpp:141] Setting up relu4
I0306 08:27:51.447968 38680 net.cpp:148] Top shape: 50 384 13 13 (3244800)
I0306 08:27:51.447994 38680 net.cpp:156] Memory required for data: 318943600
I0306 08:27:51.448021 38680 layer_factory.hpp:77] Creating layer conv5
I0306 08:27:51.448058 38680 net.cpp:91] Creating Layer conv5
I0306 08:27:51.448088 38680 net.cpp:425] conv5 <- conv4
I0306 08:27:51.448120 38680 net.cpp:399] conv5 -> conv5
I0306 08:27:51.465831 38680 net.cpp:141] Setting up conv5
I0306 08:27:51.465884 38680 net.cpp:148] Top shape: 50 256 13 13 (2163200)
I0306 08:27:51.465920 38680 net.cpp:156] Memory required for data: 327596400
I0306 08:27:51.465965 38680 layer_factory.hpp:77] Creating layer relu5
I0306 08:27:51.465993 38680 net.cpp:91] Creating Layer relu5
I0306 08:27:51.466018 38680 net.cpp:425] relu5 <- conv5
I0306 08:27:51.466043 38680 net.cpp:386] relu5 -> conv5 (in-place)
I0306 08:27:51.466073 38680 net.cpp:141] Setting up relu5
I0306 08:27:51.466099 38680 net.cpp:148] Top shape: 50 256 13 13 (2163200)
I0306 08:27:51.466121 38680 net.cpp:156] Memory required for data: 336249200
I0306 08:27:51.466145 38680 layer_factory.hpp:77] Creating layer pool5
I0306 08:27:51.466178 38680 net.cpp:91] Creating Layer pool5
I0306 08:27:51.466215 38680 net.cpp:425] pool5 <- conv5
I0306 08:27:51.466275 38680 net.cpp:399] pool5 -> pool5
I0306 08:27:51.466409 38680 net.cpp:141] Setting up pool5
I0306 08:27:51.466444 38680 net.cpp:148] Top shape: 50 256 6 6 (460800)
I0306 08:27:51.466469 38680 net.cpp:156] Memory required for data: 338092400
I0306 08:27:51.466495 38680 layer_factory.hpp:77] Creating layer fc6
I0306 08:27:51.466541 38680 net.cpp:91] Creating Layer fc6
I0306 08:27:51.466572 38680 net.cpp:425] fc6 <- pool5
I0306 08:27:51.466604 38680 net.cpp:399] fc6 -> fc6
I0306 08:27:52.863435 38680 net.cpp:141] Setting up fc6
I0306 08:27:52.863571 38680 net.cpp:148] Top shape: 50 4096 (204800)
I0306 08:27:52.863595 38680 net.cpp:156] Memory required for data: 338911600
I0306 08:27:52.863627 38680 layer_factory.hpp:77] Creating layer relu6
I0306 08:27:52.863662 38680 net.cpp:91] Creating Layer relu6
I0306 08:27:52.863687 38680 net.cpp:425] relu6 <- fc6
I0306 08:27:52.863714 38680 net.cpp:386] relu6 -> fc6 (in-place)
I0306 08:27:52.863752 38680 net.cpp:141] Setting up relu6
I0306 08:27:52.863775 38680 net.cpp:148] Top shape: 50 4096 (204800)
I0306 08:27:52.863801 38680 net.cpp:156] Memory required for data: 339730800
I0306 08:27:52.863823 38680 layer_factory.hpp:77] Creating layer drop6
I0306 08:27:52.863853 38680 net.cpp:91] Creating Layer drop6
I0306 08:27:52.863876 38680 net.cpp:425] drop6 <- fc6
I0306 08:27:52.863899 38680 net.cpp:386] drop6 -> fc6 (in-place)
I0306 08:27:52.863950 38680 net.cpp:141] Setting up drop6
I0306 08:27:52.863978 38680 net.cpp:148] Top shape: 50 4096 (204800)
I0306 08:27:52.863999 38680 net.cpp:156] Memory required for data: 340550000
I0306 08:27:52.864020 38680 layer_factory.hpp:77] Creating layer fc7
I0306 08:27:52.864051 38680 net.cpp:91] Creating Layer fc7
I0306 08:27:52.864073 38680 net.cpp:425] fc7 <- fc6
I0306 08:27:52.864099 38680 net.cpp:399] fc7 -> fc7
I0306 08:27:53.478802 38680 net.cpp:141] Setting up fc7
I0306 08:27:53.478931 38680 net.cpp:148] Top shape: 50 4096 (204800)
I0306 08:27:53.478955 38680 net.cpp:156] Memory required for data: 341369200
I0306 08:27:53.478987 38680 layer_factory.hpp:77] Creating layer relu7
I0306 08:27:53.479022 38680 net.cpp:91] Creating Layer relu7
I0306 08:27:53.479046 38680 net.cpp:425] relu7 <- fc7
I0306 08:27:53.479079 38680 net.cpp:386] relu7 -> fc7 (in-place)
I0306 08:27:53.479116 38680 net.cpp:141] Setting up relu7
I0306 08:27:53.479140 38680 net.cpp:148] Top shape: 50 4096 (204800)
I0306 08:27:53.479161 38680 net.cpp:156] Memory required for data: 342188400
I0306 08:27:53.479182 38680 layer_factory.hpp:77] Creating layer drop7
I0306 08:27:53.479209 38680 net.cpp:91] Creating Layer drop7
I0306 08:27:53.479231 38680 net.cpp:425] drop7 <- fc7
I0306 08:27:53.479254 38680 net.cpp:386] drop7 -> fc7 (in-place)
I0306 08:27:53.479305 38680 net.cpp:141] Setting up drop7
I0306 08:27:53.479334 38680 net.cpp:148] Top shape: 50 4096 (204800)
I0306 08:27:53.479356 38680 net.cpp:156] Memory required for data: 343007600
I0306 08:27:53.479377 38680 layer_factory.hpp:77] Creating layer fc8_new
I0306 08:27:53.479409 38680 net.cpp:91] Creating Layer fc8_new
I0306 08:27:53.479434 38680 net.cpp:425] fc8_new <- fc7
I0306 08:27:53.479457 38680 net.cpp:399] fc8_new -> fc8_new
I0306 08:27:53.483161 38680 net.cpp:141] Setting up fc8_new
I0306 08:27:53.483196 38680 net.cpp:148] Top shape: 50 25 (1250)
I0306 08:27:53.483217 38680 net.cpp:156] Memory required for data: 343012600
I0306 08:27:53.483242 38680 layer_factory.hpp:77] Creating layer fc8_new_fc8_new_0_split
I0306 08:27:53.483268 38680 net.cpp:91] Creating Layer fc8_new_fc8_new_0_split
I0306 08:27:53.483289 38680 net.cpp:425] fc8_new_fc8_new_0_split <- fc8_new
I0306 08:27:53.483315 38680 net.cpp:399] fc8_new_fc8_new_0_split -> fc8_new_fc8_new_0_split_0
I0306 08:27:53.483342 38680 net.cpp:399] fc8_new_fc8_new_0_split -> fc8_new_fc8_new_0_split_1
I0306 08:27:53.483397 38680 net.cpp:141] Setting up fc8_new_fc8_new_0_split
I0306 08:27:53.483425 38680 net.cpp:148] Top shape: 50 25 (1250)
I0306 08:27:53.483448 38680 net.cpp:148] Top shape: 50 25 (1250)
I0306 08:27:53.483469 38680 net.cpp:156] Memory required for data: 343022600
I0306 08:27:53.483549 38680 layer_factory.hpp:77] Creating layer accuracy
I0306 08:27:53.483579 38680 net.cpp:91] Creating Layer accuracy
I0306 08:27:53.483603 38680 net.cpp:425] accuracy <- fc8_new_fc8_new_0_split_0
I0306 08:27:53.483625 38680 net.cpp:425] accuracy <- label_data_1_split_0
I0306 08:27:53.483651 38680 net.cpp:399] accuracy -> accuracy
…
