…
I0309 23:15:38.689272  7980 net.cpp:313] The NetState phase (0) differed from the phase (1) specified by a rule in layer data
I0309 23:15:38.689338  7980 net.cpp:313] The NetState phase (0) differed from the phase (1) specified by a rule in layer accuracy
I0309 23:15:38.689512  7980 net.cpp:49] Initializing net from parameters: 
name: "CaffeNet"
state {
  phase: TRAIN
}
layer {
  name: "data"
  type: "Data"
  top: "data"
  top: "label"
  include {
    phase: TRAIN
  }
  transform_param {
    mirror: true
    crop_size: 227
    mean_file: "data/hw2/mean.binaryproto"
  }
  data_param {
    source: "data/hw2/train_lmdb"
    batch_size: 256
    backend: LMDB
  }
}
layer {
  name: "conv1"
  type: "Convolution"
  bottom: "data"
  top: "conv1"
  param {
    lr_mult: 0
    decay_mult: 1
  }
  param {
    lr_mult: 0
    decay_mult: 0
  }
  convolution_param {
    num_output: 96
    kernel_size: 11
    stride: 4
    weight_filler {
      type: "gaussian"
      std: 0.01
    }
    bias_filler {
      type: "constant"
      value: 0
    }
  }
}
layer {
  name: "relu1"
  type: "ReLU"
  bottom: "conv1"
  top: "conv1"
}
layer {
  name: "pool1"
  type: "Pooling"
  bottom: "conv1"
  top: "pool1"
  pooling_param {
    pool: MAX
    kernel_size: 3
    stride: 2
  }
}
layer {
  name: "norm1"
  type: "LRN"
  bottom: "pool1"
  top: "norm1"
  lrn_param {
    local_size: 5
    alpha: 0.0001
    beta: 0.75
  }
}
layer {
  name: "conv2"
  type: "Convolution"
  bottom: "norm1"
  top: "conv2"
  param {
    lr_mult: 0
    decay_mult: 1
  }
  param {
    lr_mult: 0
    decay_mult: 0
  }
  convolution_param {
    num_output: 256
    pad: 2
    kernel_size: 5
    group: 2
    weight_filler {
      type: "gaussian"
      std: 0.01
    }
    bias_filler {
      type: "constant"
      value: 1
    }
  }
}
layer {
  name: "relu2"
  type: "ReLU"
  bottom: "conv2"
  top: "conv2"
}
layer {
  name: "pool2"
  type: "Pooling"
  bottom: "conv2"
  top: "pool2"
  pooling_param {
    pool: MAX
    kernel_size: 3
    stride: 2
  }
}
layer {
  name: "norm2"
  type: "LRN"
  bottom: "pool2"
  top: "norm2"
  lrn_param {
    local_size: 5
    alpha: 0.0001
    beta: 0.75
  }
}
layer {
  name: "conv3"
  type: "Convolution"
  bottom: "norm2"
  top: "conv3"
  param {
    lr_mult: 0
    decay_mult: 1
  }
  param {
    lr_mult: 0
    decay_mult: 0
  }
  convolution_param {
    num_output: 384
    pad: 1
    kernel_size: 3
    weight_filler {
      type: "gaussian"
      std: 0.01
    }
    bias_filler {
      type: "constant"
      value: 0
    }
  }
}
layer {
  name: "relu3"
  type: "ReLU"
  bottom: "conv3"
  top: "conv3"
}
layer {
  name: "conv4"
  type: "Convolution"
  bottom: "conv3"
  top: "conv4"
  param {
    lr_mult: 0
    decay_mult: 1
  }
  param {
    lr_mult: 0
    decay_mult: 0
  }
  convolution_param {
    num_output: 384
    pad: 1
    kernel_size: 3
    group: 2
    weight_filler {
      type: "gaussian"
      std: 0.01
    }
    bias_filler {
      type: "constant"
      value: 1
    }
  }
}
layer {
  name: "relu4"
  type: "ReLU"
  bottom: "conv4"
  top: "conv4"
}
layer {
  name: "conv5"
  type: "Convolution"
  bottom: "conv4"
  top: "conv5"
  param {
    lr_mult: 0
    decay_mult: 1
  }
  param {
    lr_mult: 0
    decay_mult: 0
  }
  convolution_param {
    num_output: 256
    pad: 1
    kernel_size: 3
    group: 2
    weight_filler {
      type: "gaussian"
      std: 0.01
    }
    bias_filler {
      type: "constant"
      value: 1
    }
  }
}
layer {
  name: "relu5"
  type: "ReLU"
  bottom: "conv5"
  top: "conv5"
}
layer {
  name: "pool5"
  type: "Pooling"
  bottom: "conv5"
  top: "pool5"
  pooling_param {
    pool: MAX
    kernel_size: 3
    stride: 2
  }
}
layer {
  name: "fc6"
  type: "InnerProduct"
  bottom: "pool5"
  top: "fc6"
  param {
    lr_mult: 0
    decay_mult: 1
  }
  param {
    lr_mult: 0
    decay_mult: 0
  }
  inner_product_param {
    num_output: 4096
    weight_filler {
      type: "gaussian"
      std: 0.005
    }
    bias_filler {
      type: "constant"
      value: 1
    }
  }
}
layer {
  name: "relu6"
  type: "ReLU"
  bottom: "fc6"
  top: "fc6"
}
layer {
  name: "drop6"
  type: "Dropout"
  bottom: "fc6"
  top: "fc6"
  dropout_param {
    dropout_ratio: 0.5
  }
}
layer {
  name: "fc7"
  type: "InnerProduct"
  bottom: "fc6"
  top: "fc7"
  param {
    lr_mult: 1
    decay_mult: 1
  }
  param {
    lr_mult: 2
    decay_mult: 0
  }
  inner_product_param {
    num_output: 4096
    weight_filler {
      type: "gaussian"
      std: 0.005
    }
    bias_filler {
      type: "constant"
      value: 1
    }
  }
}
layer {
  name: "relu7"
  type: "ReLU"
  bottom: "fc7"
  top: "fc7"
}
layer {
  name: "drop7"
  type: "Dropout"
  bottom: "fc7"
  top: "fc7"
  dropout_param {
    dropout_ratio: 0.5
  }
}
layer {
  name: "fc8_new"
  type: "InnerProduct"
  bottom: "fc7"
  top: "fc8_new"
  param {
    lr_mult: 10
    decay_mult: 1
  }
  param {
    lr_mult: 20
    decay_mult: 0
  }
  inner_product_param {
    num_output: 25
    weight_filler {
      type: "gaussian"
      std: 0.01
    }
    bias_filler {
      type: "constant"
      value: 0
    }
  }
}
layer {
  name: "loss"
  type: "SoftmaxWithLoss"
  bottom: "fc8_new"
  bottom: "label"
  top: "loss"
}
I0309 23:15:38.689775  7980 layer_factory.hpp:77] Creating layer data
I0309 23:15:38.690587  7980 net.cpp:91] Creating Layer data
I0309 23:15:38.690630  7980 net.cpp:399] data -> data
I0309 23:15:38.690747  7980 net.cpp:399] data -> label
I0309 23:15:38.690812  7980 data_transformer.cpp:25] Loading mean file from: data/hw2/mean.binaryproto
I0309 23:15:38.760625  7982 db_lmdb.cpp:38] Opened lmdb data/hw2/train_lmdb
I0309 23:15:38.765524  7980 data_layer.cpp:41] output data size: 256,3,227,227
I0309 23:15:39.083207  7980 net.cpp:141] Setting up data
I0309 23:15:39.083322  7980 net.cpp:148] Top shape: 256 3 227 227 (39574272)
I0309 23:15:39.083353  7980 net.cpp:148] Top shape: 256 (256)
I0309 23:15:39.083389  7980 net.cpp:156] Memory required for data: 158298112
I0309 23:15:39.083427  7980 layer_factory.hpp:77] Creating layer conv1
I0309 23:15:39.083519  7980 net.cpp:91] Creating Layer conv1
I0309 23:15:39.083562  7980 net.cpp:425] conv1 <- data
I0309 23:15:39.083626  7980 net.cpp:399] conv1 -> conv1
I0309 23:15:39.102110  7980 net.cpp:141] Setting up conv1
I0309 23:15:39.102151  7980 net.cpp:148] Top shape: 256 96 55 55 (74342400)
I0309 23:15:39.102176  7980 net.cpp:156] Memory required for data: 455667712
I0309 23:15:39.102232  7980 layer_factory.hpp:77] Creating layer relu1
I0309 23:15:39.102267  7980 net.cpp:91] Creating Layer relu1
I0309 23:15:39.102298  7980 net.cpp:425] relu1 <- conv1
I0309 23:15:39.102327  7980 net.cpp:386] relu1 -> conv1 (in-place)
I0309 23:15:39.102362  7980 net.cpp:141] Setting up relu1
I0309 23:15:39.102393  7980 net.cpp:148] Top shape: 256 96 55 55 (74342400)
I0309 23:15:39.102419  7980 net.cpp:156] Memory required for data: 753037312
I0309 23:15:39.102447  7980 layer_factory.hpp:77] Creating layer pool1
I0309 23:15:39.102480  7980 net.cpp:91] Creating Layer pool1
I0309 23:15:39.102510  7980 net.cpp:425] pool1 <- conv1
I0309 23:15:39.102540  7980 net.cpp:399] pool1 -> pool1
I0309 23:15:39.102685  7980 net.cpp:141] Setting up pool1
I0309 23:15:39.102721  7980 net.cpp:148] Top shape: 256 96 27 27 (17915904)
I0309 23:15:39.102751  7980 net.cpp:156] Memory required for data: 824700928
I0309 23:15:39.102777  7980 layer_factory.hpp:77] Creating layer norm1
I0309 23:15:39.102813  7980 net.cpp:91] Creating Layer norm1
I0309 23:15:39.102843  7980 net.cpp:425] norm1 <- pool1
I0309 23:15:39.102874  7980 net.cpp:399] norm1 -> norm1
I0309 23:15:39.103011  7980 net.cpp:141] Setting up norm1
I0309 23:15:39.103080  7980 net.cpp:148] Top shape: 256 96 27 27 (17915904)
I0309 23:15:39.103108  7980 net.cpp:156] Memory required for data: 896364544
I0309 23:15:39.103135  7980 layer_factory.hpp:77] Creating layer conv2
I0309 23:15:39.103169  7980 net.cpp:91] Creating Layer conv2
I0309 23:15:39.103199  7980 net.cpp:425] conv2 <- norm1
I0309 23:15:39.103229  7980 net.cpp:399] conv2 -> conv2
I0309 23:15:39.115988  7980 net.cpp:141] Setting up conv2
I0309 23:15:39.116076  7980 net.cpp:148] Top shape: 256 256 27 27 (47775744)
I0309 23:15:39.116107  7980 net.cpp:156] Memory required for data: 1087467520
I0309 23:15:39.116142  7980 layer_factory.hpp:77] Creating layer relu2
I0309 23:15:39.116176  7980 net.cpp:91] Creating Layer relu2
I0309 23:15:39.116201  7980 net.cpp:425] relu2 <- conv2
I0309 23:15:39.116226  7980 net.cpp:386] relu2 -> conv2 (in-place)
I0309 23:15:39.116255  7980 net.cpp:141] Setting up relu2
I0309 23:15:39.116287  7980 net.cpp:148] Top shape: 256 256 27 27 (47775744)
I0309 23:15:39.116314  7980 net.cpp:156] Memory required for data: 1278570496
I0309 23:15:39.116340  7980 layer_factory.hpp:77] Creating layer pool2
I0309 23:15:39.116369  7980 net.cpp:91] Creating Layer pool2
I0309 23:15:39.116394  7980 net.cpp:425] pool2 <- conv2
I0309 23:15:39.116425  7980 net.cpp:399] pool2 -> pool2
I0309 23:15:39.116484  7980 net.cpp:141] Setting up pool2
I0309 23:15:39.116518  7980 net.cpp:148] Top shape: 256 256 13 13 (11075584)
I0309 23:15:39.116544  7980 net.cpp:156] Memory required for data: 1322872832
I0309 23:15:39.116569  7980 layer_factory.hpp:77] Creating layer norm2
I0309 23:15:39.116610  7980 net.cpp:91] Creating Layer norm2
I0309 23:15:39.116638  7980 net.cpp:425] norm2 <- pool2
I0309 23:15:39.116667  7980 net.cpp:399] norm2 -> norm2
I0309 23:15:39.116722  7980 net.cpp:141] Setting up norm2
I0309 23:15:39.116753  7980 net.cpp:148] Top shape: 256 256 13 13 (11075584)
I0309 23:15:39.116788  7980 net.cpp:156] Memory required for data: 1367175168
I0309 23:15:39.116811  7980 layer_factory.hpp:77] Creating layer conv3
I0309 23:15:39.116842  7980 net.cpp:91] Creating Layer conv3
I0309 23:15:39.116868  7980 net.cpp:425] conv3 <- norm2
I0309 23:15:39.116894  7980 net.cpp:399] conv3 -> conv3
I0309 23:15:39.151888  7980 net.cpp:141] Setting up conv3
I0309 23:15:39.152004  7980 net.cpp:148] Top shape: 256 384 13 13 (16613376)
I0309 23:15:39.152032  7980 net.cpp:156] Memory required for data: 1433628672
I0309 23:15:39.152070  7980 layer_factory.hpp:77] Creating layer relu3
I0309 23:15:39.152107  7980 net.cpp:91] Creating Layer relu3
I0309 23:15:39.152137  7980 net.cpp:425] relu3 <- conv3
I0309 23:15:39.152169  7980 net.cpp:386] relu3 -> conv3 (in-place)
I0309 23:15:39.152206  7980 net.cpp:141] Setting up relu3
I0309 23:15:39.152237  7980 net.cpp:148] Top shape: 256 384 13 13 (16613376)
I0309 23:15:39.152264  7980 net.cpp:156] Memory required for data: 1500082176
I0309 23:15:39.152292  7980 layer_factory.hpp:77] Creating layer conv4
I0309 23:15:39.152329  7980 net.cpp:91] Creating Layer conv4
I0309 23:15:39.152359  7980 net.cpp:425] conv4 <- conv3
I0309 23:15:39.152390  7980 net.cpp:399] conv4 -> conv4
I0309 23:15:39.179016  7980 net.cpp:141] Setting up conv4
I0309 23:15:39.179121  7980 net.cpp:148] Top shape: 256 384 13 13 (16613376)
I0309 23:15:39.179148  7980 net.cpp:156] Memory required for data: 1566535680
I0309 23:15:39.179180  7980 layer_factory.hpp:77] Creating layer relu4
I0309 23:15:39.179216  7980 net.cpp:91] Creating Layer relu4
I0309 23:15:39.179244  7980 net.cpp:425] relu4 <- conv4
I0309 23:15:39.179297  7980 net.cpp:386] relu4 -> conv4 (in-place)
I0309 23:15:39.179337  7980 net.cpp:141] Setting up relu4
I0309 23:15:39.179368  7980 net.cpp:148] Top shape: 256 384 13 13 (16613376)
I0309 23:15:39.179395  7980 net.cpp:156] Memory required for data: 1632989184
I0309 23:15:39.179420  7980 layer_factory.hpp:77] Creating layer conv5
I0309 23:15:39.179458  7980 net.cpp:91] Creating Layer conv5
I0309 23:15:39.179489  7980 net.cpp:425] conv5 <- conv4
I0309 23:15:39.179545  7980 net.cpp:399] conv5 -> conv5
I0309 23:15:39.197692  7980 net.cpp:141] Setting up conv5
I0309 23:15:39.197779  7980 net.cpp:148] Top shape: 256 256 13 13 (11075584)
I0309 23:15:39.197808  7980 net.cpp:156] Memory required for data: 1677291520
I0309 23:15:39.197845  7980 layer_factory.hpp:77] Creating layer relu5
I0309 23:15:39.197878  7980 net.cpp:91] Creating Layer relu5
I0309 23:15:39.197909  7980 net.cpp:425] relu5 <- conv5
I0309 23:15:39.197939  7980 net.cpp:386] relu5 -> conv5 (in-place)
I0309 23:15:39.197976  7980 net.cpp:141] Setting up relu5
I0309 23:15:39.198007  7980 net.cpp:148] Top shape: 256 256 13 13 (11075584)
I0309 23:15:39.198032  7980 net.cpp:156] Memory required for data: 1721593856
I0309 23:15:39.198060  7980 layer_factory.hpp:77] Creating layer pool5
I0309 23:15:39.198094  7980 net.cpp:91] Creating Layer pool5
I0309 23:15:39.198123  7980 net.cpp:425] pool5 <- conv5
I0309 23:15:39.198153  7980 net.cpp:399] pool5 -> pool5
I0309 23:15:39.198220  7980 net.cpp:141] Setting up pool5
I0309 23:15:39.198257  7980 net.cpp:148] Top shape: 256 256 6 6 (2359296)
I0309 23:15:39.198285  7980 net.cpp:156] Memory required for data: 1731031040
I0309 23:15:39.198310  7980 layer_factory.hpp:77] Creating layer fc6
I0309 23:15:39.198385  7980 net.cpp:91] Creating Layer fc6
I0309 23:15:39.198421  7980 net.cpp:425] fc6 <- pool5
I0309 23:15:39.198449  7980 net.cpp:399] fc6 -> fc6
I0309 23:15:39.379555  7983 blocking_queue.cpp:50] Waiting for data
I0309 23:15:40.670295  7980 net.cpp:141] Setting up fc6
I0309 23:15:40.670406  7980 net.cpp:148] Top shape: 256 4096 (1048576)
I0309 23:15:40.670436  7980 net.cpp:156] Memory required for data: 1735225344
I0309 23:15:40.670469  7980 layer_factory.hpp:77] Creating layer relu6
I0309 23:15:40.670505  7980 net.cpp:91] Creating Layer relu6
I0309 23:15:40.670532  7980 net.cpp:425] relu6 <- fc6
I0309 23:15:40.670564  7980 net.cpp:386] relu6 -> fc6 (in-place)
I0309 23:15:40.670605  7980 net.cpp:141] Setting up relu6
I0309 23:15:40.670635  7980 net.cpp:148] Top shape: 256 4096 (1048576)
I0309 23:15:40.670661  7980 net.cpp:156] Memory required for data: 1739419648
I0309 23:15:40.670696  7980 layer_factory.hpp:77] Creating layer drop6
I0309 23:15:40.670727  7980 net.cpp:91] Creating Layer drop6
I0309 23:15:40.670753  7980 net.cpp:425] drop6 <- fc6
I0309 23:15:40.670783  7980 net.cpp:386] drop6 -> fc6 (in-place)
I0309 23:15:40.670838  7980 net.cpp:141] Setting up drop6
I0309 23:15:40.670871  7980 net.cpp:148] Top shape: 256 4096 (1048576)
I0309 23:15:40.670898  7980 net.cpp:156] Memory required for data: 1743613952
I0309 23:15:40.670925  7980 layer_factory.hpp:77] Creating layer fc7
I0309 23:15:40.670960  7980 net.cpp:91] Creating Layer fc7
I0309 23:15:40.670987  7980 net.cpp:425] fc7 <- fc6
I0309 23:15:40.671021  7980 net.cpp:399] fc7 -> fc7
I0309 23:15:41.291157  7980 net.cpp:141] Setting up fc7
I0309 23:15:41.291277  7980 net.cpp:148] Top shape: 256 4096 (1048576)
I0309 23:15:41.291301  7980 net.cpp:156] Memory required for data: 1747808256
I0309 23:15:41.291331  7980 layer_factory.hpp:77] Creating layer relu7
I0309 23:15:41.291360  7980 net.cpp:91] Creating Layer relu7
I0309 23:15:41.291384  7980 net.cpp:425] relu7 <- fc7
I0309 23:15:41.291414  7980 net.cpp:386] relu7 -> fc7 (in-place)
I0309 23:15:41.291445  7980 net.cpp:141] Setting up relu7
I0309 23:15:41.291471  7980 net.cpp:148] Top shape: 256 4096 (1048576)
I0309 23:15:41.291492  7980 net.cpp:156] Memory required for data: 1752002560
I0309 23:15:41.291514  7980 layer_factory.hpp:77] Creating layer drop7
I0309 23:15:41.291540  7980 net.cpp:91] Creating Layer drop7
I0309 23:15:41.291563  7980 net.cpp:425] drop7 <- fc7
I0309 23:15:41.291586  7980 net.cpp:386] drop7 -> fc7 (in-place)
I0309 23:15:41.291630  7980 net.cpp:141] Setting up drop7
I0309 23:15:41.291659  7980 net.cpp:148] Top shape: 256 4096 (1048576)
I0309 23:15:41.291682  7980 net.cpp:156] Memory required for data: 1756196864
I0309 23:15:41.291702  7980 layer_factory.hpp:77] Creating layer fc8_new
I0309 23:15:41.291730  7980 net.cpp:91] Creating Layer fc8_new
I0309 23:15:41.291779  7980 net.cpp:425] fc8_new <- fc7
I0309 23:15:41.291844  7980 net.cpp:399] fc8_new -> fc8_new
I0309 23:15:41.296154  7980 net.cpp:141] Setting up fc8_new
I0309 23:15:41.296190  7980 net.cpp:148] Top shape: 256 25 (6400)
I0309 23:15:41.296213  7980 net.cpp:156] Memory required for data: 1756222464
I0309 23:15:41.296238  7980 layer_factory.hpp:77] Creating layer loss
I0309 23:15:41.296264  7980 net.cpp:91] Creating Layer loss
I0309 23:15:41.296286  7980 net.cpp:425] loss <- fc8_new
I0309 23:15:41.296309  7980 net.cpp:425] loss <- label
I0309 23:15:41.296337  7980 net.cpp:399] loss -> loss
I0309 23:15:41.296406  7980 layer_factory.hpp:77] Creating layer loss
…
I0309 23:15:41.299186  7980 solver.cpp:181] Creating test net (#0) specified by net file: examples/CaffeNet3/train_val.prototxt
I0309 23:15:41.299266  7980 net.cpp:313] The NetState phase (1) differed from the phase (0) specified by a rule in layer data
I0309 23:15:41.299484  7980 net.cpp:49] Initializing net from parameters: 
name: "CaffeNet"
state {
  phase: TEST
}
layer {
  name: "data"
  type: "Data"
  top: "data"
  top: "label"
  include {
    phase: TEST
  }
  transform_param {
    mirror: false
    crop_size: 227
    mean_file: "data/hw2/mean.binaryproto"
  }
  data_param {
    source: "data/hw2/test_lmdb"
    batch_size: 50
    backend: LMDB
  }
}
layer {
  name: "conv1"
  type: "Convolution"
  bottom: "data"
  top: "conv1"
  param {
    lr_mult: 0
    decay_mult: 1
  }
  param {
    lr_mult: 0
    decay_mult: 0
  }
  convolution_param {
    num_output: 96
    kernel_size: 11
    stride: 4
    weight_filler {
      type: "gaussian"
      std: 0.01
    }
    bias_filler {
      type: "constant"
      value: 0
    }
  }
}
layer {
  name: "relu1"
  type: "ReLU"
  bottom: "conv1"
  top: "conv1"
}
layer {
  name: "pool1"
  type: "Pooling"
  bottom: "conv1"
  top: "pool1"
  pooling_param {
    pool: MAX
    kernel_size: 3
    stride: 2
  }
}
layer {
  name: "norm1"
  type: "LRN"
  bottom: "pool1"
  top: "norm1"
  lrn_param {
    local_size: 5
    alpha: 0.0001
    beta: 0.75
  }
}
layer {
  name: "conv2"
  type: "Convolution"
  bottom: "norm1"
  top: "conv2"
  param {
    lr_mult: 0
    decay_mult: 1
  }
  param {
    lr_mult: 0
    decay_mult: 0
  }
  convolution_param {
    num_output: 256
    pad: 2
    kernel_size: 5
    group: 2
    weight_filler {
      type: "gaussian"
      std: 0.01
    }
    bias_filler {
      type: "constant"
      value: 1
    }
  }
}
layer {
  name: "relu2"
  type: "ReLU"
  bottom: "conv2"
  top: "conv2"
}
layer {
  name: "pool2"
  type: "Pooling"
  bottom: "conv2"
  top: "pool2"
  pooling_param {
    pool: MAX
    kernel_size: 3
    stride: 2
  }
}
layer {
  name: "norm2"
  type: "LRN"
  bottom: "pool2"
  top: "norm2"
  lrn_param {
    local_size: 5
    alpha: 0.0001
    beta: 0.75
  }
}
layer {
  name: "conv3"
  type: "Convolution"
  bottom: "norm2"
  top: "conv3"
  param {
    lr_mult: 0
    decay_mult: 1
  }
  param {
    lr_mult: 0
    decay_mult: 0
  }
  convolution_param {
    num_output: 384
    pad: 1
    kernel_size: 3
    weight_filler {
      type: "gaussian"
      std: 0.01
    }
    bias_filler {
      type: "constant"
      value: 0
    }
  }
}
layer {
  name: "relu3"
  type: "ReLU"
  bottom: "conv3"
  top: "conv3"
}
layer {
  name: "conv4"
  type: "Convolution"
  bottom: "conv3"
  top: "conv4"
  param {
    lr_mult: 0
    decay_mult: 1
  }
  param {
    lr_mult: 0
    decay_mult: 0
  }
  convolution_param {
    num_output: 384
    pad: 1
    kernel_size: 3
    group: 2
    weight_filler {
      type: "gaussian"
      std: 0.01
    }
    bias_filler {
      type: "constant"
      value: 1
    }
  }
}
layer {
  name: "relu4"
  type: "ReLU"
  bottom: "conv4"
  top: "conv4"
}
layer {
  name: "conv5"
  type: "Convolution"
  bottom: "conv4"
  top: "conv5"
  param {
    lr_mult: 0
    decay_mult: 1
  }
  param {
    lr_mult: 0
    decay_mult: 0
  }
  convolution_param {
    num_output: 256
    pad: 1
    kernel_size: 3
    group: 2
    weight_filler {
      type: "gaussian"
      std: 0.01
    }
    bias_filler {
      type: "constant"
      value: 1
    }
  }
}
layer {
  name: "relu5"
  type: "ReLU"
  bottom: "conv5"
  top: "conv5"
}
layer {
  name: "pool5"
  type: "Pooling"
  bottom: "conv5"
  top: "pool5"
  pooling_param {
    pool: MAX
    kernel_size: 3
    stride: 2
  }
}
layer {
  name: "fc6"
  type: "InnerProduct"
  bottom: "pool5"
  top: "fc6"
  param {
    lr_mult: 0
    decay_mult: 1
  }
  param {
    lr_mult: 0
    decay_mult: 0
  }
  inner_product_param {
    num_output: 4096
    weight_filler {
      type: "gaussian"
      std: 0.005
    }
    bias_filler {
      type: "constant"
      value: 1
    }
  }
}
layer {
  name: "relu6"
  type: "ReLU"
  bottom: "fc6"
  top: "fc6"
}
layer {
  name: "drop6"
  type: "Dropout"
  bottom: "fc6"
  top: "fc6"
  dropout_param {
    dropout_ratio: 0.5
  }
}
layer {
  name: "fc7"
  type: "InnerProduct"
  bottom: "fc6"
  top: "fc7"
  param {
    lr_mult: 1
    decay_mult: 1
  }
  param {
    lr_mult: 2
    decay_mult: 0
  }
  inner_product_param {
    num_output: 4096
    weight_filler {
      type: "gaussian"
      std: 0.005
    }
    bias_filler {
      type: "constant"
      value: 1
    }
  }
}
layer {
  name: "relu7"
  type: "ReLU"
  bottom: "fc7"
  top: "fc7"
}
layer {
  name: "drop7"
  type: "Dropout"
  bottom: "fc7"
  top: "fc7"
  dropout_param {
    dropout_ratio: 0.5
  }
}
layer {
  name: "fc8_new"
  type: "InnerProduct"
  bottom: "fc7"
  top: "fc8_new"
  param {
    lr_mult: 10
    decay_mult: 1
  }
  param {
    lr_mult: 20
    decay_mult: 0
  }
  inner_product_param {
    num_output: 25
    weight_filler {
      type: "gaussian"
      std: 0.01
    }
    bias_filler {
      type: "constant"
      value: 0
    }
  }
}
layer {
  name: "accuracy"
  type: "Accuracy"
  bottom: "fc8_new"
  bottom: "label"
  top: "accuracy"
  include {
    phase: TEST
  }
}
layer {
  name: "loss"
  type: "SoftmaxWithLoss"
  bottom: "fc8_new"
  bottom: "label"
  top: "loss"
}
I0309 23:15:41.299664  7980 layer_factory.hpp:77] Creating layer data
I0309 23:15:41.299821  7980 net.cpp:91] Creating Layer data
I0309 23:15:41.299870  7980 net.cpp:399] data -> data
I0309 23:15:41.299902  7980 net.cpp:399] data -> label
I0309 23:15:41.299933  7980 data_transformer.cpp:25] Loading mean file from: data/hw2/mean.binaryproto
I0309 23:15:41.313249  7984 db_lmdb.cpp:38] Opened lmdb data/hw2/test_lmdb
I0309 23:15:41.315201  7980 data_layer.cpp:41] output data size: 50,3,227,227
I0309 23:15:41.373549  7980 net.cpp:141] Setting up data
I0309 23:15:41.373679  7980 net.cpp:148] Top shape: 50 3 227 227 (7729350)
I0309 23:15:41.373716  7980 net.cpp:148] Top shape: 50 (50)
I0309 23:15:41.373761  7980 net.cpp:156] Memory required for data: 30917600
I0309 23:15:41.373787  7980 layer_factory.hpp:77] Creating layer label_data_1_split
I0309 23:15:41.373832  7980 net.cpp:91] Creating Layer label_data_1_split
I0309 23:15:41.373857  7980 net.cpp:425] label_data_1_split <- label
I0309 23:15:41.373895  7980 net.cpp:399] label_data_1_split -> label_data_1_split_0
I0309 23:15:41.373927  7980 net.cpp:399] label_data_1_split -> label_data_1_split_1
I0309 23:15:41.374068  7980 net.cpp:141] Setting up label_data_1_split
I0309 23:15:41.374101  7980 net.cpp:148] Top shape: 50 (50)
I0309 23:15:41.374126  7980 net.cpp:148] Top shape: 50 (50)
I0309 23:15:41.374148  7980 net.cpp:156] Memory required for data: 30918000
I0309 23:15:41.374171  7980 layer_factory.hpp:77] Creating layer conv1
I0309 23:15:41.374205  7980 net.cpp:91] Creating Layer conv1
I0309 23:15:41.374230  7980 net.cpp:425] conv1 <- data
I0309 23:15:41.374258  7980 net.cpp:399] conv1 -> conv1
I0309 23:15:41.377879  7980 net.cpp:141] Setting up conv1
I0309 23:15:41.377933  7980 net.cpp:148] Top shape: 50 96 55 55 (14520000)
I0309 23:15:41.377962  7980 net.cpp:156] Memory required for data: 88998000
I0309 23:15:41.378005  7980 layer_factory.hpp:77] Creating layer relu1
I0309 23:15:41.378037  7980 net.cpp:91] Creating Layer relu1
I0309 23:15:41.378064  7980 net.cpp:425] relu1 <- conv1
I0309 23:15:41.378094  7980 net.cpp:386] relu1 -> conv1 (in-place)
I0309 23:15:41.378139  7980 net.cpp:141] Setting up relu1
I0309 23:15:41.378166  7980 net.cpp:148] Top shape: 50 96 55 55 (14520000)
I0309 23:15:41.378188  7980 net.cpp:156] Memory required for data: 147078000
I0309 23:15:41.378211  7980 layer_factory.hpp:77] Creating layer pool1
I0309 23:15:41.378239  7980 net.cpp:91] Creating Layer pool1
I0309 23:15:41.378268  7980 net.cpp:425] pool1 <- conv1
I0309 23:15:41.378299  7980 net.cpp:399] pool1 -> pool1
I0309 23:15:41.378362  7980 net.cpp:141] Setting up pool1
I0309 23:15:41.378399  7980 net.cpp:148] Top shape: 50 96 27 27 (3499200)
I0309 23:15:41.378437  7980 net.cpp:156] Memory required for data: 161074800
I0309 23:15:41.378465  7980 layer_factory.hpp:77] Creating layer norm1
I0309 23:15:41.378494  7980 net.cpp:91] Creating Layer norm1
I0309 23:15:41.378520  7980 net.cpp:425] norm1 <- pool1
I0309 23:15:41.378548  7980 net.cpp:399] norm1 -> norm1
I0309 23:15:41.378607  7980 net.cpp:141] Setting up norm1
I0309 23:15:41.378641  7980 net.cpp:148] Top shape: 50 96 27 27 (3499200)
I0309 23:15:41.378666  7980 net.cpp:156] Memory required for data: 175071600
I0309 23:15:41.378690  7980 layer_factory.hpp:77] Creating layer conv2
I0309 23:15:41.378721  7980 net.cpp:91] Creating Layer conv2
I0309 23:15:41.378747  7980 net.cpp:425] conv2 <- norm1
I0309 23:15:41.378775  7980 net.cpp:399] conv2 -> conv2
I0309 23:15:41.390878  7980 net.cpp:141] Setting up conv2
I0309 23:15:41.390933  7980 net.cpp:148] Top shape: 50 256 27 27 (9331200)
I0309 23:15:41.390959  7980 net.cpp:156] Memory required for data: 212396400
I0309 23:15:41.390988  7980 layer_factory.hpp:77] Creating layer relu2
I0309 23:15:41.391016  7980 net.cpp:91] Creating Layer relu2
I0309 23:15:41.391041  7980 net.cpp:425] relu2 <- conv2
I0309 23:15:41.391111  7980 net.cpp:386] relu2 -> conv2 (in-place)
I0309 23:15:41.391180  7980 net.cpp:141] Setting up relu2
I0309 23:15:41.391209  7980 net.cpp:148] Top shape: 50 256 27 27 (9331200)
I0309 23:15:41.391233  7980 net.cpp:156] Memory required for data: 249721200
I0309 23:15:41.391258  7980 layer_factory.hpp:77] Creating layer pool2
I0309 23:15:41.391301  7980 net.cpp:91] Creating Layer pool2
I0309 23:15:41.391330  7980 net.cpp:425] pool2 <- conv2
I0309 23:15:41.391379  7980 net.cpp:399] pool2 -> pool2
I0309 23:15:41.391456  7980 net.cpp:141] Setting up pool2
I0309 23:15:41.391492  7980 net.cpp:148] Top shape: 50 256 13 13 (2163200)
I0309 23:15:41.391520  7980 net.cpp:156] Memory required for data: 258374000
I0309 23:15:41.391548  7980 layer_factory.hpp:77] Creating layer norm2
I0309 23:15:41.391580  7980 net.cpp:91] Creating Layer norm2
I0309 23:15:41.391624  7980 net.cpp:425] norm2 <- pool2
I0309 23:15:41.391661  7980 net.cpp:399] norm2 -> norm2
I0309 23:15:41.391722  7980 net.cpp:141] Setting up norm2
I0309 23:15:41.391754  7980 net.cpp:148] Top shape: 50 256 13 13 (2163200)
I0309 23:15:41.391782  7980 net.cpp:156] Memory required for data: 267026800
I0309 23:15:41.391809  7980 layer_factory.hpp:77] Creating layer conv3
I0309 23:15:41.391844  7980 net.cpp:91] Creating Layer conv3
I0309 23:15:41.391875  7980 net.cpp:425] conv3 <- norm2
I0309 23:15:41.391918  7980 net.cpp:399] conv3 -> conv3
I0309 23:15:41.426587  7980 net.cpp:141] Setting up conv3
I0309 23:15:41.426636  7980 net.cpp:148] Top shape: 50 384 13 13 (3244800)
I0309 23:15:41.426663  7980 net.cpp:156] Memory required for data: 280006000
I0309 23:15:41.426697  7980 layer_factory.hpp:77] Creating layer relu3
I0309 23:15:41.426729  7980 net.cpp:91] Creating Layer relu3
I0309 23:15:41.426758  7980 net.cpp:425] relu3 <- conv3
I0309 23:15:41.426790  7980 net.cpp:386] relu3 -> conv3 (in-place)
I0309 23:15:41.426831  7980 net.cpp:141] Setting up relu3
I0309 23:15:41.426857  7980 net.cpp:148] Top shape: 50 384 13 13 (3244800)
I0309 23:15:41.426879  7980 net.cpp:156] Memory required for data: 292985200
I0309 23:15:41.426901  7980 layer_factory.hpp:77] Creating layer conv4
I0309 23:15:41.426933  7980 net.cpp:91] Creating Layer conv4
I0309 23:15:41.426960  7980 net.cpp:425] conv4 <- conv3
I0309 23:15:41.426992  7980 net.cpp:399] conv4 -> conv4
I0309 23:15:41.453006  7980 net.cpp:141] Setting up conv4
I0309 23:15:41.453048  7980 net.cpp:148] Top shape: 50 384 13 13 (3244800)
I0309 23:15:41.453074  7980 net.cpp:156] Memory required for data: 305964400
I0309 23:15:41.453104  7980 layer_factory.hpp:77] Creating layer relu4
I0309 23:15:41.453135  7980 net.cpp:91] Creating Layer relu4
I0309 23:15:41.453163  7980 net.cpp:425] relu4 <- conv4
I0309 23:15:41.453189  7980 net.cpp:386] relu4 -> conv4 (in-place)
I0309 23:15:41.453220  7980 net.cpp:141] Setting up relu4
I0309 23:15:41.453248  7980 net.cpp:148] Top shape: 50 384 13 13 (3244800)
I0309 23:15:41.453272  7980 net.cpp:156] Memory required for data: 318943600
I0309 23:15:41.453299  7980 layer_factory.hpp:77] Creating layer conv5
I0309 23:15:41.453330  7980 net.cpp:91] Creating Layer conv5
I0309 23:15:41.453356  7980 net.cpp:425] conv5 <- conv4
I0309 23:15:41.453394  7980 net.cpp:399] conv5 -> conv5
I0309 23:15:41.471103  7980 net.cpp:141] Setting up conv5
I0309 23:15:41.471149  7980 net.cpp:148] Top shape: 50 256 13 13 (2163200)
I0309 23:15:41.471175  7980 net.cpp:156] Memory required for data: 327596400
I0309 23:15:41.471217  7980 layer_factory.hpp:77] Creating layer relu5
I0309 23:15:41.471249  7980 net.cpp:91] Creating Layer relu5
I0309 23:15:41.471272  7980 net.cpp:425] relu5 <- conv5
I0309 23:15:41.471303  7980 net.cpp:386] relu5 -> conv5 (in-place)
I0309 23:15:41.471338  7980 net.cpp:141] Setting up relu5
I0309 23:15:41.471369  7980 net.cpp:148] Top shape: 50 256 13 13 (2163200)
I0309 23:15:41.471395  7980 net.cpp:156] Memory required for data: 336249200
I0309 23:15:41.471429  7980 layer_factory.hpp:77] Creating layer pool5
I0309 23:15:41.471460  7980 net.cpp:91] Creating Layer pool5
I0309 23:15:41.471488  7980 net.cpp:425] pool5 <- conv5
I0309 23:15:41.471534  7980 net.cpp:399] pool5 -> pool5
I0309 23:15:41.471618  7980 net.cpp:141] Setting up pool5
I0309 23:15:41.471657  7980 net.cpp:148] Top shape: 50 256 6 6 (460800)
I0309 23:15:41.471695  7980 net.cpp:156] Memory required for data: 338092400
I0309 23:15:41.471724  7980 layer_factory.hpp:77] Creating layer fc6
I0309 23:15:41.471755  7980 net.cpp:91] Creating Layer fc6
I0309 23:15:41.471782  7980 net.cpp:425] fc6 <- pool5
I0309 23:15:41.471814  7980 net.cpp:399] fc6 -> fc6
I0309 23:15:42.872709  7980 net.cpp:141] Setting up fc6
I0309 23:15:42.872839  7980 net.cpp:148] Top shape: 50 4096 (204800)
I0309 23:15:42.872864  7980 net.cpp:156] Memory required for data: 338911600
I0309 23:15:42.872892  7980 layer_factory.hpp:77] Creating layer relu6
I0309 23:15:42.872925  7980 net.cpp:91] Creating Layer relu6
I0309 23:15:42.872949  7980 net.cpp:425] relu6 <- fc6
I0309 23:15:42.872977  7980 net.cpp:386] relu6 -> fc6 (in-place)
I0309 23:15:42.873009  7980 net.cpp:141] Setting up relu6
I0309 23:15:42.873034  7980 net.cpp:148] Top shape: 50 4096 (204800)
I0309 23:15:42.873056  7980 net.cpp:156] Memory required for data: 339730800
I0309 23:15:42.873077  7980 layer_factory.hpp:77] Creating layer drop6
I0309 23:15:42.873103  7980 net.cpp:91] Creating Layer drop6
I0309 23:15:42.873126  7980 net.cpp:425] drop6 <- fc6
I0309 23:15:42.873152  7980 net.cpp:386] drop6 -> fc6 (in-place)
I0309 23:15:42.873199  7980 net.cpp:141] Setting up drop6
I0309 23:15:42.873229  7980 net.cpp:148] Top shape: 50 4096 (204800)
I0309 23:15:42.873250  7980 net.cpp:156] Memory required for data: 340550000
I0309 23:15:42.873272  7980 layer_factory.hpp:77] Creating layer fc7
I0309 23:15:42.873302  7980 net.cpp:91] Creating Layer fc7
I0309 23:15:42.873327  7980 net.cpp:425] fc7 <- fc6
I0309 23:15:42.873352  7980 net.cpp:399] fc7 -> fc7
I0309 23:15:43.489270  7980 net.cpp:141] Setting up fc7
I0309 23:15:43.489399  7980 net.cpp:148] Top shape: 50 4096 (204800)
I0309 23:15:43.489423  7980 net.cpp:156] Memory required for data: 341369200
I0309 23:15:43.489452  7980 layer_factory.hpp:77] Creating layer relu7
I0309 23:15:43.489482  7980 net.cpp:91] Creating Layer relu7
I0309 23:15:43.489506  7980 net.cpp:425] relu7 <- fc7
I0309 23:15:43.489533  7980 net.cpp:386] relu7 -> fc7 (in-place)
I0309 23:15:43.489565  7980 net.cpp:141] Setting up relu7
I0309 23:15:43.489591  7980 net.cpp:148] Top shape: 50 4096 (204800)
I0309 23:15:43.489617  7980 net.cpp:156] Memory required for data: 342188400
I0309 23:15:43.489639  7980 layer_factory.hpp:77] Creating layer drop7
I0309 23:15:43.489668  7980 net.cpp:91] Creating Layer drop7
I0309 23:15:43.489691  7980 net.cpp:425] drop7 <- fc7
I0309 23:15:43.489717  7980 net.cpp:386] drop7 -> fc7 (in-place)
I0309 23:15:43.489765  7980 net.cpp:141] Setting up drop7
I0309 23:15:43.489796  7980 net.cpp:148] Top shape: 50 4096 (204800)
I0309 23:15:43.489817  7980 net.cpp:156] Memory required for data: 343007600
I0309 23:15:43.489840  7980 layer_factory.hpp:77] Creating layer fc8_new
I0309 23:15:43.489866  7980 net.cpp:91] Creating Layer fc8_new
I0309 23:15:43.489889  7980 net.cpp:425] fc8_new <- fc7
I0309 23:15:43.489917  7980 net.cpp:399] fc8_new -> fc8_new
I0309 23:15:43.493626  7980 net.cpp:141] Setting up fc8_new
I0309 23:15:43.493661  7980 net.cpp:148] Top shape: 50 25 (1250)
I0309 23:15:43.493683  7980 net.cpp:156] Memory required for data: 343012600
I0309 23:15:43.493708  7980 layer_factory.hpp:77] Creating layer fc8_new_fc8_new_0_split
I0309 23:15:43.493734  7980 net.cpp:91] Creating Layer fc8_new_fc8_new_0_split
I0309 23:15:43.493757  7980 net.cpp:425] fc8_new_fc8_new_0_split <- fc8_new
I0309 23:15:43.493783  7980 net.cpp:399] fc8_new_fc8_new_0_split -> fc8_new_fc8_new_0_split_0
I0309 23:15:43.493813  7980 net.cpp:399] fc8_new_fc8_new_0_split -> fc8_new_fc8_new_0_split_1
I0309 23:15:43.493865  7980 net.cpp:141] Setting up fc8_new_fc8_new_0_split
I0309 23:15:43.493896  7980 net.cpp:148] Top shape: 50 25 (1250)
I0309 23:15:43.493919  7980 net.cpp:148] Top shape: 50 25 (1250)
I0309 23:15:43.493940  7980 net.cpp:156] Memory required for data: 343022600
I0309 23:15:43.494026  7980 layer_factory.hpp:77] Creating layer accuracy
I0309 23:15:43.494055  7980 net.cpp:91] Creating Layer accuracy
I0309 23:15:43.494079  7980 net.cpp:425] accuracy <- fc8_new_fc8_new_0_split_0
I0309 23:15:43.494102  7980 net.cpp:425] accuracy <- label_data_1_split_0
I0309 23:15:43.494127  7980 net.cpp:399] accuracy -> accuracy
…
