…
I0309 05:03:58.673146  9646 net.cpp:313] The NetState phase (0) differed from the phase (1) specified by a rule in layer loss3/top-5
I0309 05:03:58.673972  9646 net.cpp:49] Initializing net from parameters: 
name: "GoogleNet"
state {
  phase: TRAIN
}
layer {
  name: "data"
  type: "Data"
  top: "data"
  top: "label"
  include {
    phase: TRAIN
  }
  transform_param {
    mirror: true
    crop_size: 224
    mean_value: 104
    mean_value: 117
    mean_value: 123
  }
  data_param {
    source: "data/hw2/train_lmdb"
    batch_size: 32
    backend: LMDB
  }
}
layer {
  name: "conv1/7x7_s2"
  type: "Convolution"
  bottom: "data"
  top: "conv1/7x7_s2"
  param {
    lr_mult: 0
    decay_mult: 1
  }
  param {
    lr_mult: 0
    decay_mult: 0
  }
  convolution_param {
    num_output: 64
    pad: 3
    kernel_size: 7
    stride: 2
    weight_filler {
      type: "xavier"
    }
    bias_filler {
      type: "constant"
      value: 0.2
    }
  }
}
layer {
  name: "conv1/relu_7x7"
  type: "ReLU"
  bottom: "conv1/7x7_s2"
  top: "conv1/7x7_s2"
}
layer {
  name: "pool1/3x3_s2"
  type: "Pooling"
  bottom: "conv1/7x7_s2"
  top: "pool1/3x3_s2"
  pooling_param {
    pool: MAX
    kernel_size: 3
    stride: 2
  }
}
layer {
  name: "pool1/norm1"
  type: "LRN"
  bottom: "pool1/3x3_s2"
  top: "pool1/norm1"
  lrn_param {
    local_size: 5
    alpha: 0.0001
    beta: 0.75
  }
}
layer {
  name: "conv2/3x3_reduce"
  type: "Convolution"
  bottom: "pool1/norm1"
  top: "conv2/3x3_reduce"
  param {
    lr_mult: 0
    decay_mult: 1
  }
  param {
    lr_mult: 0
    decay_mult: 0
  }
  convolution_param {
    num_output: 64
    kernel_size: 1
    weight_filler {
      type: "xavier"
    }
    bias_filler {
      type: "constant"
      value: 0.2
    }
  }
}
layer {
  name: "conv2/relu_3x3_reduce"
  type: "ReLU"
  bottom: "conv2/3x3_reduce"
  top: "conv2/3x3_reduce"
}
layer {
  name: "conv2/3x3"
  type: "Convolution"
  bottom: "conv2/3x3_reduce"
  top: "conv2/3x3"
  param {
    lr_mult: 0
    decay_mult: 1
  }
  param {
    lr_mult: 0
    decay_mult: 0
  }
  convolution_param {
    num_output: 192
    pad: 1
    kernel_size: 3
    weight_filler {
      type: "xavier"
    }
    bias_filler {
      type: "constant"
      value: 0.2
    }
  }
}
layer {
  name: "conv2/relu_3x3"
  type: "ReLU"
  bottom: "conv2/3x3"
  top: "conv2/3x3"
}
layer {
  name: "conv2/norm2"
  type: "LRN"
  bottom: "conv2/3x3"
  top: "conv2/norm2"
  lrn_param {
    local_size: 5
    alpha: 0.0001
    beta: 0.75
  }
}
layer {
  name: "pool2/3x3_s2"
  type: "Pooling"
  bottom: "conv2/norm2"
  top: "pool2/3x3_s2"
  pooling_param {
    pool: MAX
    kernel_size: 3
    stride: 2
  }
}
layer {
  name: "inception_3a/1x1"
  type: "Convolution"
  bottom: "pool2/3x3_s2"
  top: "inception_3a/1x1"
  param {
    lr_mult: 0
    decay_mult: 1
  }
  param {
    lr_mult: 0
    decay_mult: 0
  }
  convolution_param {
    num_output: 64
    kernel_size: 1
    weight_filler {
      type: "xavier"
    }
    bias_filler {
      type: "constant"
      value: 0.2
    }
  }
}
layer {
  name: "inception_3a/relu_1x1"
  type: "ReLU"
  bottom: "inception_3a/1x1"
  top: "inception_3a/1x1"
}
layer {
  name: "inception_3a/3x3_reduce"
  type: "Convolution"
  bottom: "pool2/3x3_s2"
  top: "inception_3a/3x3_reduce"
  param {
    lr_mult: 0
    decay_mult: 1
  }
  param {
    lr_mult: 0
    decay_mult: 0
  }
  convolution_param {
    num_output: 96
    kernel_size: 1
    weight_filler {
      type: "xavier"
    }
    bias_filler {
      type: "constant"
      value: 0.2
    }
  }
}
layer {
  name: "inception_3a/relu_3x3_reduce"
  type: "ReLU"
  bottom: "inception_3a/3x3_reduce"
  top: "inception_3a/3x3_reduce"
}
layer {
  name: "inception_3a/3x3"
  type: "Convolution"
  bottom: "inception_3a/3x3_reduce"
  top: "inception_3a/3x3"
  param {
    lr_mult: 0
    decay_mult: 1
  }
  param {
    lr_mult: 0
    decay_mult: 0
  }
  convolution_param {
    num_output: 128
    pad: 1
    kernel_size: 3
    weight_filler {
      type: "xavier"
    }
    bias_filler {
      type: "constant"
      value: 0.2
    }
  }
}
layer {
  name: "inception_3a/relu_3x3"
  type: "ReLU"
  bottom: "inception_3a/3x3"
  top: "inception_3a/3x3"
}
layer {
  name: "inception_3a/5x5_reduce"
  type: "Convolution"
  bottom: "pool2/3x3_s2"
  top: "inception_3a/5x5_reduce"
  param {
    lr_mult: 0
    decay_mult: 1
  }
  param {
    lr_mult: 0
    decay_mult: 0
  }
  convolution_param {
    num_output: 16
    kernel_size: 1
    weight_filler {
      type: "xavier"
    }
    bias_filler {
      type: "constant"
      value: 0.2
    }
  }
}
layer {
  name: "inception_3a/relu_5x5_reduce"
  type: "ReLU"
  bottom: "inception_3a/5x5_reduce"
  top: "inception_3a/5x5_reduce"
}
layer {
  name: "inception_3a/5x5"
  type: "Convolution"
  bottom: "inception_3a/5x5_reduce"
  top: "inception_3a/5x5"
  param {
    lr_mult: 0
    decay_mult: 1
  }
  param {
    lr_mult: 0
    decay_mult: 0
  }
  convolution_param {
    num_output: 32
    pad: 2
    kernel_size: 5
    weight_filler {
      type: "xavier"
    }
    bias_filler {
      type: "constant"
      value: 0.2
    }
  }
}
layer {
  name: "inception_3a/relu_5x5"
  type: "ReLU"
  bottom: "inception_3a/5x5"
  top: "inception_3a/5x5"
}
layer {
  name: "inception_3a/pool"
  type: "Pooling"
  bottom: "pool2/3x3_s2"
  top: "inception_3a/pool"
  pooling_param {
    pool: MAX
    kernel_size: 3
    stride: 1
    pad: 1
  }
}
layer {
  name: "inception_3a/pool_proj"
  type: "Convolution"
  bottom: "inception_3a/pool"
  top: "inception_3a/pool_proj"
  param {
    lr_mult: 0
    decay_mult: 1
  }
  param {
    lr_mult: 0
    decay_mult: 0
  }
  convolution_param {
    num_output: 32
    kernel_size: 1
    weight_filler {
      type: "xavier"
    }
    bias_filler {
      type: "constant"
      value: 0.2
    }
  }
}
layer {
  name: "inception_3a/relu_pool_proj"
  type: "ReLU"
  bottom: "inception_3a/pool_proj"
  top: "inception_3a/pool_proj"
}
layer {
  name: "inception_3a/output"
  type: "Concat"
  bottom: "inception_3a/1x1"
  bottom: "inception_3a/3x3"
  bottom: "inception_3a/5x5"
  bottom: "inception_3a/pool_proj"
  top: "inception_3a/output"
}
layer {
  name: "inception_3b/1x1"
  type: "Convolution"
  bottom: "inception_3a/output"
  top: "inception_3b/1x1"
  param {
    lr_mult: 0
    decay_mult: 1
  }
  param {
    lr_mult: 0
    decay_mult: 0
  }
  convolution_param {
    num_output: 128
    kernel_size: 1
    weight_filler {
      type: "xavier"
    }
    bias_filler {
      type: "constant"
      value: 0.2
    }
  }
}
layer {
  name: "inception_3b/relu_1x1"
  type: "ReLU"
  bottom: "inception_3b/1x1"
  top: "inception_3b/1x1"
}
layer {
  name: "inception_3b/3x3_reduce"
  type: "Convolution"
  bottom: "inception_3a/output"
  top: "inception_3b/3x3_reduce"
  param {
    lr_mult: 0
    decay_mult: 1
  }
  param {
    lr_mult: 0
    decay_mult: 0
  }
  convolution_param {
    num_output: 128
    kernel_size: 1
    weight_filler {
      type: "xavier"
    }
    bias_filler {
      type: "constant"
      value: 0.2
    }
  }
}
layer {
  name: "inception_3b/relu_3x3_reduce"
  type: "ReLU"
  bottom: "inception_3b/3x3_reduce"
  top: "inception_3b/3x3_reduce"
}
layer {
  name: "inception_3b/3x3"
  type: "Convolution"
  bottom: "inception_3b/3x3_reduce"
  top: "inception_3b/3x3"
  param {
    lr_mult: 0
    decay_mult: 1
  }
  param {
    lr_mult: 0
    decay_mult: 0
  }
  convolution_param {
    num_output: 192
    pad: 1
    kernel_size: 3
    weight_filler {
      type: "xavier"
    }
    bias_filler {
      type: "constant"
      value: 0.2
    }
  }
}
layer {
  name: "inception_3b/relu_3x3"
  type: "ReLU"
  bottom: "inception_3b/3x3"
  top: "inception_3b/3x3"
}
layer {
  name: "inception_3b/5x5_reduce"
  type: "Convolution"
  bottom: "inception_3a/output"
  top: "inception_3b/5x5_reduce"
  param {
    lr_mult: 0
    decay_mult: 1
  }
  param {
    lr_mult: 0
    decay_mult: 0
  }
  convolution_param {
    num_output: 32
    kernel_size: 1
    weight_filler {
      type: "xavier"
    }
    bias_filler {
      type: "constant"
      value: 0.2
    }
  }
}
layer {
  name: "inception_3b/relu_5x5_reduce"
  type: "ReLU"
  bottom: "inception_3b/5x5_reduce"
  top: "inception_3b/5x5_reduce"
}
layer {
  name: "inception_3b/5x5"
  type: "Convolution"
  bottom: "inception_3b/5x5_reduce"
  top: "inception_3b/5x5"
  param {
    lr_mult: 0
    decay_mult: 1
  }
  param {
    lr_mult: 0
    decay_mult: 0
  }
  convolution_param {
    num_output: 96
    pad: 2
    kernel_size: 5
    weight_filler {
      type: "xavier"
    }
    bias_filler {
      type: "constant"
      value: 0.2
    }
  }
}
layer {
  name: "inception_3b/relu_5x5"
  type: "ReLU"
  bottom: "inception_3b/5x5"
  top: "inception_3b/5x5"
}
layer {
  name: "inception_3b/pool"
  type: "Pooling"
  bottom: "inception_3a/output"
  top: "inception_3b/pool"
  pooling_param {
    pool: MAX
    kernel_size: 3
    stride: 1
    pad: 1
  }
}
layer {
  name: "inception_3b/pool_proj"
  type: "Convolution"
  bottom: "inception_3b/pool"
  top: "inception_3b/pool_proj"
  param {
    lr_mult: 0
    decay_mult: 1
  }
  param {
    lr_mult: 0
    decay_mult: 0
  }
  convolution_param {
    num_output: 64
    kernel_size: 1
    weight_filler {
      type: "xavier"
    }
    bias_filler {
      type: "constant"
      value: 0.2
    }
  }
}
layer {
  name: "inception_3b/relu_pool_proj"
  type: "ReLU"
  bottom: "inception_3b/pool_proj"
  top: "inception_3b/pool_proj"
}
layer {
  name: "inception_3b/output"
  type: "Concat"
  bottom: "inception_3b/1x1"
  bottom: "inception_3b/3x3"
  bottom: "inception_3b/5x5"
  bottom: "inception_3b/pool_proj"
  top: "inception_3b/output"
}
layer {
  name: "pool3/3x3_s2"
  type: "Pooling"
  bottom: "inception_3b/output"
  top: "pool3/3x3_s2"
  pooling_param {
    pool: MAX
    kernel_size: 3
    stride: 2
  }
}
layer {
  name: "inception_4a/1x1"
  type: "Convolution"
  bottom: "pool3/3x3_s2"
  top: "inception_4a/1x1"
  param {
    lr_mult: 0
    decay_mult: 1
  }
  param {
    lr_mult: 0
    decay_mult: 0
  }
  convolution_param {
    num_output: 192
    kernel_size: 1
    weight_filler {
      type: "xavier"
    }
    bias_filler {
      type: "constant"
      value: 0.2
    }
  }
}
layer {
  name: "inception_4a/relu_1x1"
  type: "ReLU"
  bottom: "inception_4a/1x1"
  top: "inception_4a/1x1"
}
layer {
  name: "inception_4a/3x3_reduce"
  type: "Convolution"
  bottom: "pool3/3x3_s2"
  top: "inception_4a/3x3_reduce"
  param {
    lr_mult: 0
    decay_mult: 1
  }
  param {
    lr_mult: 0
    decay_mult: 0
  }
  convolution_param {
    num_output: 96
    kernel_size: 1
    weight_filler {
      type: "xavier"
    }
    bias_filler {
      type: "constant"
      value: 0.2
    }
  }
}
layer {
  name: "inception_4a/relu_3x3_reduce"
  type: "ReLU"
  bottom: "inception_4a/3x3_reduce"
  top: "inception_4a/3x3_reduce"
}
layer {
  name: "inception_4a/3x3"
  type: "Convolution"
  bottom: "inception_4a/3x3_reduce"
  top: "inception_4a/3x3"
  param {
    lr_mult: 0
    decay_mult: 1
  }
  param {
    lr_mult: 0
    decay_mult: 0
  }
  convolution_param {
    num_output: 208
    pad: 1
    kernel_size: 3
    weight_filler {
      type: "xavier"
    }
    bias_filler {
      type: "constant"
      value: 0.2
    }
  }
}
layer {
  name: "inception_4a/relu_3x3"
  type: "ReLU"
  bottom: "inception_4a/3x3"
  top: "inception_4a/3x3"
}
layer {
  name: "inception_4a/5x5_reduce"
  type: "Convolution"
  bottom: "pool3/3x3_s2"
  top: "inception_4a/5x5_reduce"
  param {
    lr_mult: 0
    decay_mult: 1
  }
  param {
    lr_mult: 0
    decay_mult: 0
  }
  convolution_param {
    num_output: 16
    kernel_size: 1
    weight_filler {
      type: "xavier"
    }
    bias_filler {
      type: "constant"
      value: 0.2
    }
  }
}
layer {
  name: "inception_4a/relu_5x5_reduce"
  type: "ReLU"
  bottom: "inception_4a/5x5_reduce"
  top: "inception_4a/5x5_reduce"
}
layer {
  name: "inception_4a/5x5"
  type: "Convolution"
  bottom: "inception_4a/5x5_reduce"
  top: "inception_4a/5x5"
  param {
    lr_mult: 0
    decay_mult: 1
  }
  param {
    lr_mult: 0
    decay_mult: 0
  }
  convolution_param {
    num_output: 48
    pad: 2
    kernel_size: 5
    weight_filler {
      type: "xavier"
    }
    bias_filler {
      type: "constant"
      value: 0.2
    }
  }
}
layer {
  name: "inception_4a/relu_5x5"
  type: "ReLU"
  bottom: "inception_4a/5x5"
  top: "inception_4a/5x5"
}
layer {
  name: "inception_4a/pool"
  type: "Pooling"
  bottom: "pool3/3x3_s2"
  top: "inception_4a/pool"
  pooling_param {
    pool: MAX
    kernel_size: 3
    stride: 1
    pad: 1
  }
}
layer {
  name: "inception_4a/pool_proj"
  type: "Convolution"
  bottom: "inception_4a/pool"
  top: "inception_4a/pool_proj"
  param {
    lr_mult: 0
    decay_mult: 1
  }
  param {
    lr_mult: 0
    decay_mult: 0
  }
  convolution_param {
    num_output: 64
    kernel_size: 1
    weight_filler {
      type: "xavier"
    }
    bias_filler {
      type: "constant"
      value: 0.2
    }
  }
}
layer {
  name: "inception_4a/relu_pool_proj"
  type: "ReLU"
  bottom: "inception_4a/pool_proj"
  top: "inception_4a/pool_proj"
}
layer {
  name: "inception_4a/output"
  type: "Concat"
  bottom: "inception_4a/1x1"
  bottom: "inception_4a/3x3"
  bottom: "inception_4a/5x5"
  bottom: "inception_4a/pool_proj"
  top: "inception_4a/output"
}
layer {
  name: "loss1/ave_pool"
  type: "Pooling"
  bottom: "inception_4a/output"
  top: "loss1/ave_pool"
  pooling_param {
    pool: AVE
    kernel_size: 5
    stride: 3
  }
}
layer {
  name: "loss1/conv"
  type: "Convolution"
  bottom: "loss1/ave_pool"
  top: "loss1/conv"
  param {
    lr_mult: 0
    decay_mult: 1
  }
  param {
    lr_mult: 0
    decay_mult: 0
  }
  convolution_param {
    num_output: 128
    kernel_size: 1
    weight_filler {
      type: "xavier"
    }
    bias_filler {
      type: "constant"
      value: 0.2
    }
  }
}
layer {
  name: "loss1/relu_conv"
  type: "ReLU"
  bottom: "loss1/conv"
  top: "loss1/conv"
}
layer {
  name: "loss1/fc"
  type: "InnerProduct"
  bottom: "loss1/conv"
  top: "loss1/fc"
  param {
    lr_mult: 0
    decay_mult: 1
  }
  param {
    lr_mult: 0
    decay_mult: 0
  }
  inner_product_param {
    num_output: 1024
    weight_filler {
      type: "xavier"
    }
    bias_filler {
      type: "constant"
      value: 0.2
    }
  }
}
layer {
  name: "loss1/relu_fc"
  type: "ReLU"
  bottom: "loss1/fc"
  top: "loss1/fc"
}
layer {
  name: "loss1/drop_fc"
  type: "Dropout"
  bottom: "loss1/fc"
  top: "loss1/fc"
  dropout_param {
    dropout_ratio: 0.7
  }
}
layer {
  name: "loss1/classifier"
  type: "InnerProduct"
  bottom: "loss1/fc"
  top: "loss1/classifier"
  param {
    lr_mult: 0
    decay_mult: 1
  }
  param {
    lr_mult: 0
    decay_mult: 0
  }
  inner_product_param {
    num_output: 1000
    weight_filler {
      type: "xavier"
    }
    bias_filler {
      type: "constant"
      value: 0
    }
  }
}
layer {
  name: "loss1/loss"
  type: "SoftmaxWithLoss"
  bottom: "loss1/classifier"
  bottom: "label"
  top: "loss1/loss1"
  loss_weight: 0.3
}
layer {
  name: "inception_4b/1x1"
  type: "Convolution"
  bottom: "inception_4a/output"
  top: "inception_4b/1x1"
  param {
    lr_mult: 0
    decay_mult: 1
  }
  param {
    lr_mult: 0
    decay_mult: 0
  }
  convolution_param {
    num_output: 160
    kernel_size: 1
    weight_filler {
      type: "xavier"
    }
    bias_filler {
      type: "constant"
      value: 0.2
    }
  }
}
layer {
  name: "inception_4b/relu_1x1"
  type: "ReLU"
  bottom: "inception_4b/1x1"
  top: "inception_4b/1x1"
}
layer {
  name: "inception_4b/3x3_reduce"
  type: "Convolution"
  bottom: "inception_4a/output"
  top: "inception_4b/3x3_reduce"
  param {
    lr_mult: 0
    decay_mult: 1
  }
  param {
    lr_mult: 0
    decay_mult: 0
  }
  convolution_param {
    num_output: 112
    kernel_size: 1
    weight_filler {
      type: "xavier"
    }
    bias_filler {
      type: "constant"
      value: 0.2
    }
  }
}
layer {
  name: "inception_4b/relu_3x3_reduce"
  type: "ReLU"
  bottom: "inception_4b/3x3_reduce"
  top: "inception_4b/3x3_reduce"
}
layer {
  name: "inception_4b/3x3"
  type: "Convolution"
  bottom: "inception_4b/3x3_reduce"
  top: "inception_4b/3x3"
  param {
    lr_mult: 0
    decay_mult: 1
  }
  param {
    lr_mult: 0
    decay_mult: 0
  }
  convolution_param {
    num_output: 224
    pad: 1
    kernel_size: 3
    weight_filler {
      type: "xavier"
    }
    bias_filler {
      type: "constant"
      value: 0.2
    }
  }
}
layer {
  name: "inception_4b/relu_3x3"
  type: "ReLU"
  bottom: "inception_4b/3x3"
  top: "inception_4b/3x3"
}
layer {
  name: "inception_4b/5x5_reduce"
  type: "Convolution"
  bottom: "inception_4a/output"
  top: "inception_4b/5x5_reduce"
  param {
    lr_mult: 0
    decay_mult: 1
  }
  param {
    lr_mult: 0
    decay_mult: 0
  }
  convolution_param {
    num_output: 24
    kernel_size: 1
    weight_filler {
      type: "xavier"
    }
    bias_filler {
      type: "constant"
      value: 0.2
    }
  }
}
layer {
  name: "inception_4b/relu_5x5_reduce"
  type: "ReLU"
  bottom: "inception_4b/5x5_reduce"
  top: "inception_4b/5x5_reduce"
}
layer {
  name: "inception_4b/5x5"
  type: "Convolution"
  bottom: "inception_4b/5x5_reduce"
  top: "inception_4b/5x5"
  param {
    lr_mult: 0
    decay_mult: 1
  }
  param {
    lr_mult: 0
    decay_mult: 0
  }
  convolution_param {
    num_output: 64
    pad: 2
    kernel_size: 5
    weight_filler {
      type: "xavier"
    }
    bias_filler {
      type: "constant"
      value: 0.2
    }
  }
}
layer {
  name: "inception_4b/relu_5x5"
  type: "ReLU"
  bottom: "inception_4b/5x5"
  top: "inception_4b/5x5"
}
layer {
  name: "inception_4b/pool"
  type: "Pooling"
  bottom: "inception_4a/output"
  top: "inception_4b/pool"
  pooling_param {
    pool: MAX
    kernel_size: 3
    stride: 1
    pad: 1
  }
}
layer {
  name: "inception_4b/pool_proj"
  type: "Convolution"
  bottom: "inception_4b/pool"
  top: "inception_4b/pool_proj"
  param {
    lr_mult: 0
    decay_mult: 1
  }
  param {
    lr_mult: 0
    decay_mult: 0
  }
  convolution_param {
    num_output: 64
    kernel_size: 1
    weight_filler {
      type: "xavier"
    }
    bias_filler {
      type: "constant"
      value: 0.2
    }
  }
}
layer {
  name: "inception_4b/relu_pool_proj"
  type: "ReLU"
  bottom: "inception_4b/pool_proj"
  top: "inception_4b/pool_proj"
}
layer {
  name: "inception_4b/output"
  type: "Concat"
  bottom: "inception_4b/1x1"
  bottom: "inception_4b/3x3"
  bottom: "inception_4b/5x5"
  bottom: "inception_4b/pool_proj"
  top: "inception_4b/output"
}
layer {
  name: "inception_4c/1x1"
  type: "Convolution"
  bottom: "inception_4b/output"
  top: "inception_4c/1x1"
  param {
    lr_mult: 0
    decay_mult: 1
  }
  param {
    lr_mult: 0
    decay_mult: 0
  }
  convolution_param {
    num_output: 128
    kernel_size: 1
    weight_filler {
      type: "xavier"
    }
    bias_filler {
      type: "constant"
      value: 0.2
    }
  }
}
layer {
  name: "inception_4c/relu_1x1"
  type: "ReLU"
  bottom: "inception_4c/1x1"
  top: "inception_4c/1x1"
}
layer {
  name: "inception_4c/3x3_reduce"
  type: "Convolution"
  bottom: "inception_4b/output"
  top: "inception_4c/3x3_reduce"
  param {
    lr_mult: 0
    decay_mult: 1
  }
  param {
    lr_mult: 0
    decay_mult: 0
  }
  convolution_param {
    num_output: 128
    kernel_size: 1
    weight_filler {
      type: "xavier"
    }
    bias_filler {
      type: "constant"
      value: 0.2
    }
  }
}
layer {
  name: "inception_4c/relu_3x3_reduce"
  type: "ReLU"
  bottom: "inception_4c/3x3_reduce"
  top: "inception_4c/3x3_reduce"
}
layer {
  name: "inception_4c/3x3"
  type: "Convolution"
  bottom: "inception_4c/3x3_reduce"
  top: "inception_4c/3x3"
  param {
    lr_mult: 0
    decay_mult: 1
  }
  param {
    lr_mult: 0
    decay_mult: 0
  }
  convolution_param {
    num_output: 256
    pad: 1
    kernel_size: 3
    weight_filler {
      type: "xavier"
    }
    bias_filler {
      type: "constant"
      value: 0.2
    }
  }
}
layer {
  name: "inception_4c/relu_3x3"
  type: "ReLU"
  bottom: "inception_4c/3x3"
  top: "inception_4c/3x3"
}
layer {
  name: "inception_4c/5x5_reduce"
  type: "Convolution"
  bottom: "inception_4b/output"
  top: "inception_4c/5x5_reduce"
  param {
    lr_mult: 0
    decay_mult: 1
  }
  param {
    lr_mult: 0
    decay_mult: 0
  }
  convolution_param {
    num_output: 24
    kernel_size: 1
    weight_filler {
      type: "xavier"
    }
    bias_filler {
      type: "constant"
      value: 0.2
    }
  }
}
layer {
  name: "inception_4c/relu_5x5_reduce"
  type: "ReLU"
  bottom: "inception_4c/5x5_reduce"
  top: "inception_4c/5x5_reduce"
}
layer {
  name: "inception_4c/5x5"
  type: "Convolution"
  bottom: "inception_4c/5x5_reduce"
  top: "inception_4c/5x5"
  param {
    lr_mult: 0
    decay_mult: 1
  }
  param {
    lr_mult: 0
    decay_mult: 0
  }
  convolution_param {
    num_output: 64
    pad: 2
    kernel_size: 5
    weight_filler {
      type: "xavier"
    }
    bias_filler {
      type: "constant"
      value: 0.2
    }
  }
}
layer {
  name: "inception_4c/relu_5x5"
  type: "ReLU"
  bottom: "inception_4c/5x5"
  top: "inception_4c/5x5"
}
layer {
  name: "inception_4c/pool"
  type: "Pooling"
  bottom: "inception_4b/output"
  top: "inception_4c/pool"
  pooling_param {
    pool: MAX
    kernel_size: 3
    stride: 1
    pad: 1
  }
}
layer {
  name: "inception_4c/pool_proj"
  type: "Convolution"
  bottom: "inception_4c/pool"
  top: "inception_4c/pool_proj"
  param {
    lr_mult: 0
    decay_mult: 1
  }
  param {
    lr_mult: 0
    decay_mult: 0
  }
  convolution_param {
    num_output: 64
    kernel_size: 1
    weight_filler {
      type: "xavier"
    }
    bias_filler {
      type: "constant"
      value: 0.2
    }
  }
}
layer {
  name: "inception_4c/relu_pool_proj"
  type: "ReLU"
  bottom: "inception_4c/pool_proj"
  top: "inception_4c/pool_proj"
}
layer {
  name: "inception_4c/output"
  type: "Concat"
  bottom: "inception_4c/1x1"
  bottom: "inception_4c/3x3"
  bottom: "inception_4c/5x5"
  bottom: "inception_4c/pool_proj"
  top: "inception_4c/output"
}
layer {
  name: "inception_4d/1x1"
  type: "Convolution"
  bottom: "inception_4c/output"
  top: "inception_4d/1x1"
  param {
    lr_mult: 0
    decay_mult: 1
  }
  param {
    lr_mult: 0
    decay_mult: 0
  }
  convolution_param {
    num_output: 112
    kernel_size: 1
    weight_filler {
      type: "xavier"
    }
    bias_filler {
      type: "constant"
      value: 0.2
    }
  }
}
layer {
  name: "inception_4d/relu_1x1"
  type: "ReLU"
  bottom: "inception_4d/1x1"
  top: "inception_4d/1x1"
}
layer {
  name: "inception_4d/3x3_reduce"
  type: "Convolution"
  bottom: "inception_4c/output"
  top: "inception_4d/3x3_reduce"
  param {
    lr_mult: 0
    decay_mult: 1
  }
  param {
    lr_mult: 0
    decay_mult: 0
  }
  convolution_param {
    num_output: 144
    kernel_size: 1
    weight_filler {
      type: "xavier"
    }
    bias_filler {
      type: "constant"
      value: 0.2
    }
  }
}
layer {
  name: "inception_4d/relu_3x3_reduce"
  type: "ReLU"
  bottom: "inception_4d/3x3_reduce"
  top: "inception_4d/3x3_reduce"
}
layer {
  name: "inception_4d/3x3"
  type: "Convolution"
  bottom: "inception_4d/3x3_reduce"
  top: "inception_4d/3x3"
  param {
    lr_mult: 0
    decay_mult: 1
  }
  param {
    lr_mult: 0
    decay_mult: 0
  }
  convolution_param {
    num_output: 288
    pad: 1
    kernel_size: 3
    weight_filler {
      type: "xavier"
    }
    bias_filler {
      type: "constant"
      value: 0.2
    }
  }
}
layer {
  name: "inception_4d/relu_3x3"
  type: "ReLU"
  bottom: "inception_4d/3x3"
  top: "inception_4d/3x3"
}
layer {
  name: "inception_4d/5x5_reduce"
  type: "Convolution"
  bottom: "inception_4c/output"
  top: "inception_4d/5x5_reduce"
  param {
    lr_mult: 0
    decay_mult: 1
  }
  param {
    lr_mult: 0
    decay_mult: 0
  }
  convolution_param {
    num_output: 32
    kernel_size: 1
    weight_filler {
      type: "xavier"
    }
    bias_filler {
      type: "constant"
      value: 0.2
    }
  }
}
layer {
  name: "inception_4d/relu_5x5_reduce"
  type: "ReLU"
  bottom: "inception_4d/5x5_reduce"
  top: "inception_4d/5x5_reduce"
}
layer {
  name: "inception_4d/5x5"
  type: "Convolution"
  bottom: "inception_4d/5x5_reduce"
  top: "inception_4d/5x5"
  param {
    lr_mult: 0
    decay_mult: 1
  }
  param {
    lr_mult: 0
    decay_mult: 0
  }
  convolution_param {
    num_output: 64
    pad: 2
    kernel_size: 5
    weight_filler {
      type: "xavier"
    }
    bias_filler {
      type: "constant"
      value: 0.2
    }
  }
}
layer {
  name: "inception_4d/relu_5x5"
  type: "ReLU"
  bottom: "inception_4d/5x5"
  top: "inception_4d/5x5"
}
layer {
  name: "inception_4d/pool"
  type: "Pooling"
  bottom: "inception_4c/output"
  top: "inception_4d/pool"
  pooling_param {
    pool: MAX
    kernel_size: 3
    stride: 1
    pad: 1
  }
}
layer {
  name: "inception_4d/pool_proj"
  type: "Convolution"
  bottom: "inception_4d/pool"
  top: "inception_4d/pool_proj"
  param {
    lr_mult: 0
    decay_mult: 1
  }
  param {
    lr_mult: 0
    decay_mult: 0
  }
  convolution_param {
    num_output: 64
    kernel_size: 1
    weight_filler {
      type: "xavier"
    }
    bias_filler {
      type: "constant"
      value: 0.2
    }
  }
}
layer {
  name: "inception_4d/relu_pool_proj"
  type: "ReLU"
  bottom: "inception_4d/pool_proj"
  top: "inception_4d/pool_proj"
}
layer {
  name: "inception_4d/output"
  type: "Concat"
  bottom: "inception_4d/1x1"
  bottom: "inception_4d/3x3"
  bottom: "inception_4d/5x5"
  bottom: "inception_4d/pool_proj"
  top: "inception_4d/output"
}
layer {
  name: "loss2/ave_pool"
  type: "Pooling"
  bottom: "inception_4d/output"
  top: "loss2/ave_pool"
  pooling_param {
    pool: AVE
    kernel_size: 5
    stride: 3
  }
}
layer {
  name: "loss2/conv"
  type: "Convolution"
  bottom: "loss2/ave_pool"
  top: "loss2/conv"
  param {
    lr_mult: 0
    decay_mult: 1
  }
  param {
    lr_mult: 0
    decay_mult: 0
  }
  convolution_param {
    num_output: 128
    kernel_size: 1
    weight_filler {
      type: "xavier"
    }
    bias_filler {
      type: "constant"
      value: 0.2
    }
  }
}
layer {
  name: "loss2/relu_conv"
  type: "ReLU"
  bottom: "loss2/conv"
  top: "loss2/conv"
}
layer {
  name: "loss2/fc"
  type: "InnerProduct"
  bottom: "loss2/conv"
  top: "loss2/fc"
  param {
    lr_mult: 0
    decay_mult: 1
  }
  param {
    lr_mult: 0
    decay_mult: 0
  }
  inner_product_param {
    num_output: 1024
    weight_filler {
      type: "xavier"
    }
    bias_filler {
      type: "constant"
      value: 0.2
    }
  }
}
layer {
  name: "loss2/relu_fc"
  type: "ReLU"
  bottom: "loss2/fc"
  top: "loss2/fc"
}
layer {
  name: "loss2/drop_fc"
  type: "Dropout"
  bottom: "loss2/fc"
  top: "loss2/fc"
  dropout_param {
    dropout_ratio: 0.7
  }
}
layer {
  name: "loss2/classifier"
  type: "InnerProduct"
  bottom: "loss2/fc"
  top: "loss2/classifier"
  param {
    lr_mult: 0
    decay_mult: 1
  }
  param {
    lr_mult: 0
    decay_mult: 0
  }
  inner_product_param {
    num_output: 1000
    weight_filler {
      type: "xavier"
    }
    bias_filler {
      type: "constant"
      value: 0
    }
  }
}
layer {
  name: "loss2/loss"
  type: "SoftmaxWithLoss"
  bottom: "loss2/classifier"
  bottom: "label"
  top: "loss2/loss1"
  loss_weight: 0.3
}
layer {
  name: "inception_4e/1x1"
  type: "Convolution"
  bottom: "inception_4d/output"
  top: "inception_4e/1x1"
  param {
    lr_mult: 0
    decay_mult: 1
  }
  param {
    lr_mult: 0
    decay_mult: 0
  }
  convolution_param {
    num_output: 256
    kernel_size: 1
    weight_filler {
      type: "xavier"
    }
    bias_filler {
      type: "constant"
      value: 0.2
    }
  }
}
layer {
  name: "inception_4e/relu_1x1"
  type: "ReLU"
  bottom: "inception_4e/1x1"
  top: "inception_4e/1x1"
}
layer {
  name: "inception_4e/3x3_reduce"
  type: "Convolution"
  bottom: "inception_4d/output"
  top: "inception_4e/3x3_reduce"
  param {
    lr_mult: 0
    decay_mult: 1
  }
  param {
    lr_mult: 0
    decay_mult: 0
  }
  convolution_param {
    num_output: 160
    kernel_size: 1
    weight_filler {
      type: "xavier"
    }
    bias_filler {
      type: "constant"
      value: 0.2
    }
  }
}
layer {
  name: "inception_4e/relu_3x3_reduce"
  type: "ReLU"
  bottom: "inception_4e/3x3_reduce"
  top: "inception_4e/3x3_reduce"
}
layer {
  name: "inception_4e/3x3"
  type: "Convolution"
  bottom: "inception_4e/3x3_reduce"
  top: "inception_4e/3x3"
  param {
    lr_mult: 0
    decay_mult: 1
  }
  param {
    lr_mult: 0
    decay_mult: 0
  }
  convolution_param {
    num_output: 320
    pad: 1
    kernel_size: 3
    weight_filler {
      type: "xavier"
    }
    bias_filler {
      type: "constant"
      value: 0.2
    }
  }
}
layer {
  name: "inception_4e/relu_3x3"
  type: "ReLU"
  bottom: "inception_4e/3x3"
  top: "inception_4e/3x3"
}
layer {
  name: "inception_4e/5x5_reduce"
  type: "Convolution"
  bottom: "inception_4d/output"
  top: "inception_4e/5x5_reduce"
  param {
    lr_mult: 0
    decay_mult: 1
  }
  param {
    lr_mult: 0
    decay_mult: 0
  }
  convolution_param {
    num_output: 32
    kernel_size: 1
    weight_filler {
      type: "xavier"
    }
    bias_filler {
      type: "constant"
      value: 0.2
    }
  }
}
layer {
  name: "inception_4e/relu_5x5_reduce"
  type: "ReLU"
  bottom: "inception_4e/5x5_reduce"
  top: "inception_4e/5x5_reduce"
}
layer {
  name: "inception_4e/5x5"
  type: "Convolution"
  bottom: "inception_4e/5x5_reduce"
  top: "inception_4e/5x5"
  param {
    lr_mult: 0
    decay_mult: 1
  }
  param {
    lr_mult: 0
    decay_mult: 0
  }
  convolution_param {
    num_output: 128
    pad: 2
    kernel_size: 5
    weight_filler {
      type: "xavier"
    }
    bias_filler {
      type: "constant"
      value: 0.2
    }
  }
}
layer {
  name: "inception_4e/relu_5x5"
  type: "ReLU"
  bottom: "inception_4e/5x5"
  top: "inception_4e/5x5"
}
layer {
  name: "inception_4e/pool"
  type: "Pooling"
  bottom: "inception_4d/output"
  top: "inception_4e/pool"
  pooling_param {
    pool: MAX
    kernel_size: 3
    stride: 1
    pad: 1
  }
}
l
I0309 05:03:58.674871  9646 layer_factory.hpp:77] Creating layer data
I0309 05:03:58.675593  9646 net.cpp:91] Creating Layer data
I0309 05:03:58.675626  9646 net.cpp:399] data -> data
I0309 05:03:58.675752  9646 net.cpp:399] data -> label
I0309 05:03:58.762418  9649 db_lmdb.cpp:38] Opened lmdb data/hw2/train_lmdb
I0309 05:03:59.436214  9646 data_layer.cpp:41] output data size: 32,3,224,224
I0309 05:03:59.473480  9646 net.cpp:141] Setting up data
I0309 05:03:59.473554  9646 net.cpp:148] Top shape: 32 3 224 224 (4816896)
I0309 05:03:59.473582  9646 net.cpp:148] Top shape: 32 (32)
I0309 05:03:59.473604  9646 net.cpp:156] Memory required for data: 19267712
I0309 05:03:59.473640  9646 layer_factory.hpp:77] Creating layer label_data_1_split
I0309 05:03:59.473675  9646 net.cpp:91] Creating Layer label_data_1_split
I0309 05:03:59.473711  9646 net.cpp:425] label_data_1_split <- label
I0309 05:03:59.473747  9646 net.cpp:399] label_data_1_split -> label_data_1_split_0
I0309 05:03:59.473780  9646 net.cpp:399] label_data_1_split -> label_data_1_split_1
I0309 05:03:59.473806  9646 net.cpp:399] label_data_1_split -> label_data_1_split_2
I0309 05:03:59.473923  9646 net.cpp:141] Setting up label_data_1_split
I0309 05:03:59.473975  9646 net.cpp:148] Top shape: 32 (32)
I0309 05:03:59.474040  9646 net.cpp:148] Top shape: 32 (32)
I0309 05:03:59.474063  9646 net.cpp:148] Top shape: 32 (32)
I0309 05:03:59.474083  9646 net.cpp:156] Memory required for data: 19268096
I0309 05:03:59.474104  9646 layer_factory.hpp:77] Creating layer conv1/7x7_s2
I0309 05:03:59.474160  9646 net.cpp:91] Creating Layer conv1/7x7_s2
I0309 05:03:59.474195  9646 net.cpp:425] conv1/7x7_s2 <- data
I0309 05:03:59.474221  9646 net.cpp:399] conv1/7x7_s2 -> conv1/7x7_s2
I0309 05:03:59.477434  9646 net.cpp:141] Setting up conv1/7x7_s2
I0309 05:03:59.477473  9646 net.cpp:148] Top shape: 32 64 112 112 (25690112)
I0309 05:03:59.477499  9646 net.cpp:156] Memory required for data: 122028544
I0309 05:03:59.477551  9646 layer_factory.hpp:77] Creating layer conv1/relu_7x7
I0309 05:03:59.477581  9646 net.cpp:91] Creating Layer conv1/relu_7x7
I0309 05:03:59.477605  9646 net.cpp:425] conv1/relu_7x7 <- conv1/7x7_s2
I0309 05:03:59.477632  9646 net.cpp:386] conv1/relu_7x7 -> conv1/7x7_s2 (in-place)
I0309 05:03:59.477663  9646 net.cpp:141] Setting up conv1/relu_7x7
I0309 05:03:59.477687  9646 net.cpp:148] Top shape: 32 64 112 112 (25690112)
I0309 05:03:59.477710  9646 net.cpp:156] Memory required for data: 224788992
I0309 05:03:59.477732  9646 layer_factory.hpp:77] Creating layer pool1/3x3_s2
I0309 05:03:59.477758  9646 net.cpp:91] Creating Layer pool1/3x3_s2
I0309 05:03:59.477782  9646 net.cpp:425] pool1/3x3_s2 <- conv1/7x7_s2
I0309 05:03:59.477807  9646 net.cpp:399] pool1/3x3_s2 -> pool1/3x3_s2
I0309 05:03:59.477929  9646 net.cpp:141] Setting up pool1/3x3_s2
I0309 05:03:59.477962  9646 net.cpp:148] Top shape: 32 64 56 56 (6422528)
I0309 05:03:59.477982  9646 net.cpp:156] Memory required for data: 250479104
I0309 05:03:59.478008  9646 layer_factory.hpp:77] Creating layer pool1/norm1
I0309 05:03:59.478039  9646 net.cpp:91] Creating Layer pool1/norm1
I0309 05:03:59.478063  9646 net.cpp:425] pool1/norm1 <- pool1/3x3_s2
I0309 05:03:59.478088  9646 net.cpp:399] pool1/norm1 -> pool1/norm1
I0309 05:03:59.478196  9646 net.cpp:141] Setting up pool1/norm1
I0309 05:03:59.478229  9646 net.cpp:148] Top shape: 32 64 56 56 (6422528)
I0309 05:03:59.478253  9646 net.cpp:156] Memory required for data: 276169216
I0309 05:03:59.478276  9646 layer_factory.hpp:77] Creating layer conv2/3x3_reduce
I0309 05:03:59.478307  9646 net.cpp:91] Creating Layer conv2/3x3_reduce
I0309 05:03:59.478332  9646 net.cpp:425] conv2/3x3_reduce <- pool1/norm1
I0309 05:03:59.478359  9646 net.cpp:399] conv2/3x3_reduce -> conv2/3x3_reduce
I0309 05:03:59.479090  9646 net.cpp:141] Setting up conv2/3x3_reduce
I0309 05:03:59.479128  9646 net.cpp:148] Top shape: 32 64 56 56 (6422528)
I0309 05:03:59.479151  9646 net.cpp:156] Memory required for data: 301859328
I0309 05:03:59.479179  9646 layer_factory.hpp:77] Creating layer conv2/relu_3x3_reduce
I0309 05:03:59.479207  9646 net.cpp:91] Creating Layer conv2/relu_3x3_reduce
I0309 05:03:59.479230  9646 net.cpp:425] conv2/relu_3x3_reduce <- conv2/3x3_reduce
I0309 05:03:59.479254  9646 net.cpp:386] conv2/relu_3x3_reduce -> conv2/3x3_reduce (in-place)
I0309 05:03:59.479280  9646 net.cpp:141] Setting up conv2/relu_3x3_reduce
I0309 05:03:59.479305  9646 net.cpp:148] Top shape: 32 64 56 56 (6422528)
I0309 05:03:59.479326  9646 net.cpp:156] Memory required for data: 327549440
I0309 05:03:59.479347  9646 layer_factory.hpp:77] Creating layer conv2/3x3
I0309 05:03:59.479377  9646 net.cpp:91] Creating Layer conv2/3x3
I0309 05:03:59.479401  9646 net.cpp:425] conv2/3x3 <- conv2/3x3_reduce
I0309 05:03:59.479429  9646 net.cpp:399] conv2/3x3 -> conv2/3x3
I0309 05:03:59.480916  9646 net.cpp:141] Setting up conv2/3x3
I0309 05:03:59.480952  9646 net.cpp:148] Top shape: 32 192 56 56 (19267584)
I0309 05:03:59.480975  9646 net.cpp:156] Memory required for data: 404619776
I0309 05:03:59.481006  9646 layer_factory.hpp:77] Creating layer conv2/relu_3x3
I0309 05:03:59.481035  9646 net.cpp:91] Creating Layer conv2/relu_3x3
I0309 05:03:59.481060  9646 net.cpp:425] conv2/relu_3x3 <- conv2/3x3
I0309 05:03:59.481096  9646 net.cpp:386] conv2/relu_3x3 -> conv2/3x3 (in-place)
I0309 05:03:59.481140  9646 net.cpp:141] Setting up conv2/relu_3x3
I0309 05:03:59.481165  9646 net.cpp:148] Top shape: 32 192 56 56 (19267584)
I0309 05:03:59.481186  9646 net.cpp:156] Memory required for data: 481690112
I0309 05:03:59.481207  9646 layer_factory.hpp:77] Creating layer conv2/norm2
I0309 05:03:59.481233  9646 net.cpp:91] Creating Layer conv2/norm2
I0309 05:03:59.481256  9646 net.cpp:425] conv2/norm2 <- conv2/3x3
I0309 05:03:59.481281  9646 net.cpp:399] conv2/norm2 -> conv2/norm2
I0309 05:03:59.481335  9646 net.cpp:141] Setting up conv2/norm2
I0309 05:03:59.481365  9646 net.cpp:148] Top shape: 32 192 56 56 (19267584)
I0309 05:03:59.481386  9646 net.cpp:156] Memory required for data: 558760448
I0309 05:03:59.481408  9646 layer_factory.hpp:77] Creating layer pool2/3x3_s2
I0309 05:03:59.481431  9646 net.cpp:91] Creating Layer pool2/3x3_s2
I0309 05:03:59.481453  9646 net.cpp:425] pool2/3x3_s2 <- conv2/norm2
I0309 05:03:59.481479  9646 net.cpp:399] pool2/3x3_s2 -> pool2/3x3_s2
I0309 05:03:59.481531  9646 net.cpp:141] Setting up pool2/3x3_s2
I0309 05:03:59.481561  9646 net.cpp:148] Top shape: 32 192 28 28 (4816896)
I0309 05:03:59.481582  9646 net.cpp:156] Memory required for data: 578028032
I0309 05:03:59.481603  9646 layer_factory.hpp:77] Creating layer pool2/3x3_s2_pool2/3x3_s2_0_split
I0309 05:03:59.481632  9646 net.cpp:91] Creating Layer pool2/3x3_s2_pool2/3x3_s2_0_split
I0309 05:03:59.481655  9646 net.cpp:425] pool2/3x3_s2_pool2/3x3_s2_0_split <- pool2/3x3_s2
I0309 05:03:59.481679  9646 net.cpp:399] pool2/3x3_s2_pool2/3x3_s2_0_split -> pool2/3x3_s2_pool2/3x3_s2_0_split_0
I0309 05:03:59.481708  9646 net.cpp:399] pool2/3x3_s2_pool2/3x3_s2_0_split -> pool2/3x3_s2_pool2/3x3_s2_0_split_1
I0309 05:03:59.481734  9646 net.cpp:399] pool2/3x3_s2_pool2/3x3_s2_0_split -> pool2/3x3_s2_pool2/3x3_s2_0_split_2
I0309 05:03:59.481760  9646 net.cpp:399] pool2/3x3_s2_pool2/3x3_s2_0_split -> pool2/3x3_s2_pool2/3x3_s2_0_split_3
I0309 05:03:59.481827  9646 net.cpp:141] Setting up pool2/3x3_s2_pool2/3x3_s2_0_split
I0309 05:03:59.481855  9646 net.cpp:148] Top shape: 32 192 28 28 (4816896)
I0309 05:03:59.481878  9646 net.cpp:148] Top shape: 32 192 28 28 (4816896)
I0309 05:03:59.481901  9646 net.cpp:148] Top shape: 32 192 28 28 (4816896)
I0309 05:03:59.481923  9646 net.cpp:148] Top shape: 32 192 28 28 (4816896)
I0309 05:03:59.481943  9646 net.cpp:156] Memory required for data: 655098368
I0309 05:03:59.481964  9646 layer_factory.hpp:77] Creating layer inception_3a/1x1
I0309 05:03:59.481997  9646 net.cpp:91] Creating Layer inception_3a/1x1
I0309 05:03:59.482022  9646 net.cpp:425] inception_3a/1x1 <- pool2/3x3_s2_pool2/3x3_s2_0_split_0
I0309 05:03:59.482050  9646 net.cpp:399] inception_3a/1x1 -> inception_3a/1x1
I0309 05:03:59.482802  9646 net.cpp:141] Setting up inception_3a/1x1
I0309 05:03:59.482839  9646 net.cpp:148] Top shape: 32 64 28 28 (1605632)
I0309 05:03:59.482862  9646 net.cpp:156] Memory required for data: 661520896
I0309 05:03:59.482887  9646 layer_factory.hpp:77] Creating layer inception_3a/relu_1x1
I0309 05:03:59.482914  9646 net.cpp:91] Creating Layer inception_3a/relu_1x1
I0309 05:03:59.482938  9646 net.cpp:425] inception_3a/relu_1x1 <- inception_3a/1x1
I0309 05:03:59.482961  9646 net.cpp:386] inception_3a/relu_1x1 -> inception_3a/1x1 (in-place)
I0309 05:03:59.482987  9646 net.cpp:141] Setting up inception_3a/relu_1x1
I0309 05:03:59.483017  9646 net.cpp:148] Top shape: 32 64 28 28 (1605632)
I0309 05:03:59.483038  9646 net.cpp:156] Memory required for data: 667943424
I0309 05:03:59.483059  9646 layer_factory.hpp:77] Creating layer inception_3a/3x3_reduce
I0309 05:03:59.483088  9646 net.cpp:91] Creating Layer inception_3a/3x3_reduce
I0309 05:03:59.483113  9646 net.cpp:425] inception_3a/3x3_reduce <- pool2/3x3_s2_pool2/3x3_s2_0_split_1
I0309 05:03:59.483141  9646 net.cpp:399] inception_3a/3x3_reduce -> inception_3a/3x3_reduce
I0309 05:03:59.483952  9646 net.cpp:141] Setting up inception_3a/3x3_reduce
I0309 05:03:59.483989  9646 net.cpp:148] Top shape: 32 96 28 28 (2408448)
I0309 05:03:59.484040  9646 net.cpp:156] Memory required for data: 677577216
I0309 05:03:59.484073  9646 layer_factory.hpp:77] Creating layer inception_3a/relu_3x3_reduce
I0309 05:03:59.484102  9646 net.cpp:91] Creating Layer inception_3a/relu_3x3_reduce
I0309 05:03:59.484124  9646 net.cpp:425] inception_3a/relu_3x3_reduce <- inception_3a/3x3_reduce
I0309 05:03:59.484149  9646 net.cpp:386] inception_3a/relu_3x3_reduce -> inception_3a/3x3_reduce (in-place)
I0309 05:03:59.484177  9646 net.cpp:141] Setting up inception_3a/relu_3x3_reduce
I0309 05:03:59.484202  9646 net.cpp:148] Top shape: 32 96 28 28 (2408448)
I0309 05:03:59.484222  9646 net.cpp:156] Memory required for data: 687211008
I0309 05:03:59.484243  9646 layer_factory.hpp:77] Creating layer inception_3a/3x3
I0309 05:03:59.484280  9646 net.cpp:91] Creating Layer inception_3a/3x3
I0309 05:03:59.484304  9646 net.cpp:425] inception_3a/3x3 <- inception_3a/3x3_reduce
I0309 05:03:59.484331  9646 net.cpp:399] inception_3a/3x3 -> inception_3a/3x3
I0309 05:03:59.485291  9646 net.cpp:141] Setting up inception_3a/3x3
I0309 05:03:59.485326  9646 net.cpp:148] Top shape: 32 128 28 28 (3211264)
I0309 05:03:59.485348  9646 net.cpp:156] Memory required for data: 700056064
I0309 05:03:59.485375  9646 layer_factory.hpp:77] Creating layer inception_3a/relu_3x3
I0309 05:03:59.485400  9646 net.cpp:91] Creating Layer inception_3a/relu_3x3
I0309 05:03:59.485424  9646 net.cpp:425] inception_3a/relu_3x3 <- inception_3a/3x3
I0309 05:03:59.485448  9646 net.cpp:386] inception_3a/relu_3x3 -> inception_3a/3x3 (in-place)
I0309 05:03:59.485476  9646 net.cpp:141] Setting up inception_3a/relu_3x3
I0309 05:03:59.485501  9646 net.cpp:148] Top shape: 32 128 28 28 (3211264)
I0309 05:03:59.485523  9646 net.cpp:156] Memory required for data: 712901120
I0309 05:03:59.485545  9646 layer_factory.hpp:77] Creating layer inception_3a/5x5_reduce
I0309 05:03:59.485574  9646 net.cpp:91] Creating Layer inception_3a/5x5_reduce
I0309 05:03:59.485600  9646 net.cpp:425] inception_3a/5x5_reduce <- pool2/3x3_s2_pool2/3x3_s2_0_split_2
I0309 05:03:59.485628  9646 net.cpp:399] inception_3a/5x5_reduce -> inception_3a/5x5_reduce
I0309 05:03:59.485851  9646 net.cpp:141] Setting up inception_3a/5x5_reduce
I0309 05:03:59.485884  9646 net.cpp:148] Top shape: 32 16 28 28 (401408)
I0309 05:03:59.485908  9646 net.cpp:156] Memory required for data: 714506752
I0309 05:03:59.485934  9646 layer_factory.hpp:77] Creating layer inception_3a/relu_5x5_reduce
I0309 05:03:59.485959  9646 net.cpp:91] Creating Layer inception_3a/relu_5x5_reduce
I0309 05:03:59.485980  9646 net.cpp:425] inception_3a/relu_5x5_reduce <- inception_3a/5x5_reduce
I0309 05:03:59.486011  9646 net.cpp:386] inception_3a/relu_5x5_reduce -> inception_3a/5x5_reduce (in-place)
I0309 05:03:59.486040  9646 net.cpp:141] Setting up inception_3a/relu_5x5_reduce
I0309 05:03:59.486066  9646 net.cpp:148] Top shape: 32 16 28 28 (401408)
I0309 05:03:59.486088  9646 net.cpp:156] Memory required for data: 716112384
I0309 05:03:59.486110  9646 layer_factory.hpp:77] Creating layer inception_3a/5x5
I0309 05:03:59.486138  9646 net.cpp:91] Creating Layer inception_3a/5x5
I0309 05:03:59.486162  9646 net.cpp:425] inception_3a/5x5 <- inception_3a/5x5_reduce
I0309 05:03:59.486191  9646 net.cpp:399] inception_3a/5x5 -> inception_3a/5x5
I0309 05:03:59.486479  9646 net.cpp:141] Setting up inception_3a/5x5
I0309 05:03:59.486513  9646 net.cpp:148] Top shape: 32 32 28 28 (802816)
I0309 05:03:59.486536  9646 net.cpp:156] Memory required for data: 719323648
I0309 05:03:59.486562  9646 layer_factory.hpp:77] Creating layer inception_3a/relu_5x5
I0309 05:03:59.486588  9646 net.cpp:91] Creating Layer inception_3a/relu_5x5
I0309 05:03:59.486611  9646 net.cpp:425] inception_3a/relu_5x5 <- inception_3a/5x5
I0309 05:03:59.486635  9646 net.cpp:386] inception_3a/relu_5x5 -> inception_3a/5x5 (in-place)
I0309 05:03:59.486662  9646 net.cpp:141] Setting up inception_3a/relu_5x5
I0309 05:03:59.486688  9646 net.cpp:148] Top shape: 32 32 28 28 (802816)
I0309 05:03:59.486709  9646 net.cpp:156] Memory required for data: 722534912
I0309 05:03:59.486763  9646 layer_factory.hpp:77] Creating layer inception_3a/pool
I0309 05:03:59.486793  9646 net.cpp:91] Creating Layer inception_3a/pool
I0309 05:03:59.486819  9646 net.cpp:425] inception_3a/pool <- pool2/3x3_s2_pool2/3x3_s2_0_split_3
I0309 05:03:59.486843  9646 net.cpp:399] inception_3a/pool -> inception_3a/pool
I0309 05:03:59.486901  9646 net.cpp:141] Setting up inception_3a/pool
I0309 05:03:59.486932  9646 net.cpp:148] Top shape: 32 192 28 28 (4816896)
I0309 05:03:59.486955  9646 net.cpp:156] Memory required for data: 741802496
I0309 05:03:59.486977  9646 layer_factory.hpp:77] Creating layer inception_3a/pool_proj
I0309 05:03:59.487011  9646 net.cpp:91] Creating Layer inception_3a/pool_proj
I0309 05:03:59.487036  9646 net.cpp:425] inception_3a/pool_proj <- inception_3a/pool
I0309 05:03:59.487066  9646 net.cpp:399] inception_3a/pool_proj -> inception_3a/pool_proj
I0309 05:03:59.487293  9646 net.cpp:141] Setting up inception_3a/pool_proj
I0309 05:03:59.487326  9646 net.cpp:148] Top shape: 32 32 28 28 (802816)
I0309 05:03:59.487349  9646 net.cpp:156] Memory required for data: 745013760
I0309 05:03:59.487377  9646 layer_factory.hpp:77] Creating layer inception_3a/relu_pool_proj
I0309 05:03:59.487403  9646 net.cpp:91] Creating Layer inception_3a/relu_pool_proj
I0309 05:03:59.487427  9646 net.cpp:425] inception_3a/relu_pool_proj <- inception_3a/pool_proj
I0309 05:03:59.487454  9646 net.cpp:386] inception_3a/relu_pool_proj -> inception_3a/pool_proj (in-place)
I0309 05:03:59.487483  9646 net.cpp:141] Setting up inception_3a/relu_pool_proj
I0309 05:03:59.487509  9646 net.cpp:148] Top shape: 32 32 28 28 (802816)
I0309 05:03:59.487530  9646 net.cpp:156] Memory required for data: 748225024
I0309 05:03:59.487552  9646 layer_factory.hpp:77] Creating layer inception_3a/output
I0309 05:03:59.487578  9646 net.cpp:91] Creating Layer inception_3a/output
I0309 05:03:59.487601  9646 net.cpp:425] inception_3a/output <- inception_3a/1x1
I0309 05:03:59.487624  9646 net.cpp:425] inception_3a/output <- inception_3a/3x3
I0309 05:03:59.487648  9646 net.cpp:425] inception_3a/output <- inception_3a/5x5
I0309 05:03:59.487671  9646 net.cpp:425] inception_3a/output <- inception_3a/pool_proj
I0309 05:03:59.487696  9646 net.cpp:399] inception_3a/output -> inception_3a/output
I0309 05:03:59.487764  9646 net.cpp:141] Setting up inception_3a/output
I0309 05:03:59.487795  9646 net.cpp:148] Top shape: 32 256 28 28 (6422528)
I0309 05:03:59.487818  9646 net.cpp:156] Memory required for data: 773915136
I0309 05:03:59.487840  9646 layer_factory.hpp:77] Creating layer inception_3a/output_inception_3a/output_0_split
I0309 05:03:59.487865  9646 net.cpp:91] Creating Layer inception_3a/output_inception_3a/output_0_split
I0309 05:03:59.487889  9646 net.cpp:425] inception_3a/output_inception_3a/output_0_split <- inception_3a/output
I0309 05:03:59.487915  9646 net.cpp:399] inception_3a/output_inception_3a/output_0_split -> inception_3a/output_inception_3a/output_0_split_0
I0309 05:03:59.487944  9646 net.cpp:399] inception_3a/output_inception_3a/output_0_split -> inception_3a/output_inception_3a/output_0_split_1
I0309 05:03:59.487972  9646 net.cpp:399] inception_3a/output_inception_3a/output_0_split -> inception_3a/output_inception_3a/output_0_split_2
I0309 05:03:59.488003  9646 net.cpp:399] inception_3a/output_inception_3a/output_0_split -> inception_3a/output_inception_3a/output_0_split_3
I0309 05:03:59.488075  9646 net.cpp:141] Setting up inception_3a/output_inception_3a/output_0_split
I0309 05:03:59.488106  9646 net.cpp:148] Top shape: 32 256 28 28 (6422528)
I0309 05:03:59.488129  9646 net.cpp:148] Top shape: 32 256 28 28 (6422528)
I0309 05:03:59.488153  9646 net.cpp:148] Top shape: 32 256 28 28 (6422528)
I0309 05:03:59.488176  9646 net.cpp:148] Top shape: 32 256 28 28 (6422528)
I0309 05:03:59.488198  9646 net.cpp:156] Memory required for data: 876675584
I0309 05:03:59.488220  9646 layer_factory.hpp:77] Creating layer inception_3b/1x1
I0309 05:03:59.488251  9646 net.cpp:91] Creating Layer inception_3b/1x1
I0309 05:03:59.488286  9646 net.cpp:425] inception_3b/1x1 <- inception_3a/output_inception_3a/output_0_split_0
I0309 05:03:59.488332  9646 net.cpp:399] inception_3b/1x1 -> inception_3b/1x1
I0309 05:03:59.488713  9646 net.cpp:141] Setting up inception_3b/1x1
I0309 05:03:59.488745  9646 net.cpp:148] Top shape: 32 128 28 28 (3211264)
I0309 05:03:59.488767  9646 net.cpp:156] Memory required for data: 889520640
I0309 05:03:59.488791  9646 layer_factory.hpp:77] Creating layer inception_3b/relu_1x1
I0309 05:03:59.488816  9646 net.cpp:91] Creating Layer inception_3b/relu_1x1
I0309 05:03:59.488838  9646 net.cpp:425] inception_3b/relu_1x1 <- inception_3b/1x1
I0309 05:03:59.488864  9646 net.cpp:386] inception_3b/relu_1x1 -> inception_3b/1x1 (in-place)
I0309 05:03:59.488891  9646 net.cpp:141] Setting up inception_3b/relu_1x1
I0309 05:03:59.488915  9646 net.cpp:148] Top shape: 32 128 28 28 (3211264)
I0309 05:03:59.488935  9646 net.cpp:156] Memory required for data: 902365696
I0309 05:03:59.488968  9646 layer_factory.hpp:77] Creating layer inception_3b/3x3_reduce
I0309 05:03:59.488999  9646 net.cpp:91] Creating Layer inception_3b/3x3_reduce
I0309 05:03:59.489025  9646 net.cpp:425] inception_3b/3x3_reduce <- inception_3a/output_inception_3a/output_0_split_1
I0309 05:03:59.489054  9646 net.cpp:399] inception_3b/3x3_reduce -> inception_3b/3x3_reduce
I0309 05:03:59.489514  9646 net.cpp:141] Setting up inception_3b/3x3_reduce
I0309 05:03:59.489548  9646 net.cpp:148] Top shape: 32 128 28 28 (3211264)
I0309 05:03:59.489569  9646 net.cpp:156] Memory required for data: 915210752
I0309 05:03:59.489593  9646 layer_factory.hpp:77] Creating layer inception_3b/relu_3x3_reduce
I0309 05:03:59.489617  9646 net.cpp:91] Creating Layer inception_3b/relu_3x3_reduce
I0309 05:03:59.489639  9646 net.cpp:425] inception_3b/relu_3x3_reduce <- inception_3b/3x3_reduce
I0309 05:03:59.489663  9646 net.cpp:386] inception_3b/relu_3x3_reduce -> inception_3b/3x3_reduce (in-place)
I0309 05:03:59.489689  9646 net.cpp:141] Setting up inception_3b/relu_3x3_reduce
I0309 05:03:59.489713  9646 net.cpp:148] Top shape: 32 128 28 28 (3211264)
I0309 05:03:59.489733  9646 net.cpp:156] Memory required for data: 928055808
I0309 05:03:59.489754  9646 layer_factory.hpp:77] Creating layer inception_3b/3x3
I0309 05:03:59.489785  9646 net.cpp:91] Creating Layer inception_3b/3x3
I0309 05:03:59.489809  9646 net.cpp:425] inception_3b/3x3 <- inception_3b/3x3_reduce
I0309 05:03:59.489835  9646 net.cpp:399] inception_3b/3x3 -> inception_3b/3x3
I0309 05:03:59.491844  9646 net.cpp:141] Setting up inception_3b/3x3
I0309 05:03:59.491881  9646 net.cpp:148] Top shape: 32 192 28 28 (4816896)
I0309 05:03:59.491904  9646 net.cpp:156] Memory required for data: 947323392
I0309 05:03:59.491928  9646 layer_factory.hpp:77] Creating layer inception_3b/relu_3x3
I0309 05:03:59.491953  9646 net.cpp:91] Creating Layer inception_3b/relu_3x3
I0309 05:03:59.491976  9646 net.cpp:425] inception_3b/relu_3x3 <- inception_3b/3x3
I0309 05:03:59.492002  9646 net.cpp:386] inception_3b/relu_3x3 -> inception_3b/3x3 (in-place)
I0309 05:03:59.492030  9646 net.cpp:141] Setting up inception_3b/relu_3x3
I0309 05:03:59.492055  9646 net.cpp:148] Top shape: 32 192 28 28 (4816896)
I0309 05:03:59.492075  9646 net.cpp:156] Memory required for data: 966590976
I0309 05:03:59.492096  9646 layer_factory.hpp:77] Creating layer inception_3b/5x5_reduce
I0309 05:03:59.492125  9646 net.cpp:91] Creating Layer inception_3b/5x5_reduce
I0309 05:03:59.492151  9646 net.cpp:425] inception_3b/5x5_reduce <- inception_3a/output_inception_3a/output_0_split_2
I0309 05:03:59.492174  9646 net.cpp:399] inception_3b/5x5_reduce -> inception_3b/5x5_reduce
I0309 05:03:59.492414  9646 net.cpp:141] Setting up inception_3b/5x5_reduce
I0309 05:03:59.492447  9646 net.cpp:148] Top shape: 32 32 28 28 (802816)
I0309 05:03:59.492468  9646 net.cpp:156] Memory required for data: 969802240
I0309 05:03:59.492493  9646 layer_factory.hpp:77] Creating layer inception_3b/relu_5x5_reduce
I0309 05:03:59.492517  9646 net.cpp:91] Creating Layer inception_3b/relu_5x5_reduce
I0309 05:03:59.492552  9646 net.cpp:425] inception_3b/relu_5x5_reduce <- inception_3b/5x5_reduce
I0309 05:03:59.492594  9646 net.cpp:386] inception_3b/relu_5x5_reduce -> inception_3b/5x5_reduce (in-place)
I0309 05:03:59.492622  9646 net.cpp:141] Setting up inception_3b/relu_5x5_reduce
I0309 05:03:59.492646  9646 net.cpp:148] Top shape: 32 32 28 28 (802816)
I0309 05:03:59.492666  9646 net.cpp:156] Memory required for data: 973013504
I0309 05:03:59.492687  9646 layer_factory.hpp:77] Creating layer inception_3b/5x5
I0309 05:03:59.492714  9646 net.cpp:91] Creating Layer inception_3b/5x5
I0309 05:03:59.492738  9646 net.cpp:425] inception_3b/5x5 <- inception_3b/5x5_reduce
I0309 05:03:59.492764  9646 net.cpp:399] inception_3b/5x5 -> inception_3b/5x5
I0309 05:03:59.493937  9646 net.cpp:141] Setting up inception_3b/5x5
I0309 05:03:59.493975  9646 net.cpp:148] Top shape: 32 96 28 28 (2408448)
I0309 05:03:59.494001  9646 net.cpp:156] Memory required for data: 982647296
I0309 05:03:59.494029  9646 layer_factory.hpp:77] Creating layer inception_3b/relu_5x5
I0309 05:03:59.494055  9646 net.cpp:91] Creating Layer inception_3b/relu_5x5
I0309 05:03:59.494078  9646 net.cpp:425] inception_3b/relu_5x5 <- inception_3b/5x5
I0309 05:03:59.494102  9646 net.cpp:386] inception_3b/relu_5x5 -> inception_3b/5x5 (in-place)
I0309 05:03:59.494128  9646 net.cpp:141] Setting up inception_3b/relu_5x5
I0309 05:03:59.494153  9646 net.cpp:148] Top shape: 32 96 28 28 (2408448)
I0309 05:03:59.494173  9646 net.cpp:156] Memory required for data: 992281088
I0309 05:03:59.494194  9646 layer_factory.hpp:77] Creating layer inception_3b/pool
I0309 05:03:59.494217  9646 net.cpp:91] Creating Layer inception_3b/pool
I0309 05:03:59.494240  9646 net.cpp:425] inception_3b/pool <- inception_3a/output_inception_3a/output_0_split_3
I0309 05:03:59.494278  9646 net.cpp:399] inception_3b/pool -> inception_3b/pool
I0309 05:03:59.494335  9646 net.cpp:141] Setting up inception_3b/pool
I0309 05:03:59.494366  9646 net.cpp:148] Top shape: 32 256 28 28 (6422528)
I0309 05:03:59.494388  9646 net.cpp:156] Memory required for data: 1017971200
I0309 05:03:59.494410  9646 layer_factory.hpp:77] Creating layer inception_3b/pool_proj
I0309 05:03:59.494441  9646 net.cpp:91] Creating Layer inception_3b/pool_proj
I0309 05:03:59.494468  9646 net.cpp:425] inception_3b/pool_proj <- inception_3b/pool
I0309 05:03:59.494495  9646 net.cpp:399] inception_3b/pool_proj -> inception_3b/pool_proj
I0309 05:03:59.494809  9646 net.cpp:141] Setting up inception_3b/pool_proj
I0309 05:03:59.494843  9646 net.cpp:148] Top shape: 32 64 28 28 (1605632)
I0309 05:03:59.494866  9646 net.cpp:156] Memory required for data: 1024393728
I0309 05:03:59.494892  9646 layer_factory.hpp:77] Creating layer inception_3b/relu_pool_proj
I0309 05:03:59.494917  9646 net.cpp:91] Creating Layer inception_3b/relu_pool_proj
I0309 05:03:59.494941  9646 net.cpp:425] inception_3b/relu_pool_proj <- inception_3b/pool_proj
I0309 05:03:59.494969  9646 net.cpp:386] inception_3b/relu_pool_proj -> inception_3b/pool_proj (in-place)
I0309 05:03:59.495002  9646 net.cpp:141] Setting up inception_3b/relu_pool_proj
I0309 05:03:59.495029  9646 net.cpp:148] Top shape: 32 64 28 28 (1605632)
I0309 05:03:59.495051  9646 net.cpp:156] Memory required for data: 1030816256
I0309 05:03:59.495074  9646 layer_factory.hpp:77] Creating layer inception_3b/output
I0309 05:03:59.495100  9646 net.cpp:91] Creating Layer inception_3b/output
I0309 05:03:59.495123  9646 net.cpp:425] inception_3b/output <- inception_3b/1x1
I0309 05:03:59.495147  9646 net.cpp:425] inception_3b/output <- inception_3b/3x3
I0309 05:03:59.495172  9646 net.cpp:425] inception_3b/output <- inception_3b/5x5
I0309 05:03:59.495195  9646 net.cpp:425] inception_3b/output <- inception_3b/pool_proj
I0309 05:03:59.495220  9646 net.cpp:399] inception_3b/output -> inception_3b/output
I0309 05:03:59.495265  9646 net.cpp:141] Setting up inception_3b/output
I0309 05:03:59.495296  9646 net.cpp:148] Top shape: 32 480 28 28 (12042240)
I0309 05:03:59.495318  9646 net.cpp:156] Memory required for data: 1078985216
I0309 05:03:59.495352  9646 layer_factory.hpp:77] Creating layer pool3/3x3_s2
I0309 05:03:59.495393  9646 net.cpp:91] Creating Layer pool3/3x3_s2
I0309 05:03:59.495419  9646 net.cpp:425] pool3/3x3_s2 <- inception_3b/output
I0309 05:03:59.495446  9646 net.cpp:399] pool3/3x3_s2 -> pool3/3x3_s2
I0309 05:03:59.495501  9646 net.cpp:141] Setting up pool3/3x3_s2
I0309 05:03:59.495539  9646 net.cpp:148] Top shape: 32 480 14 14 (3010560)
I0309 05:03:59.495563  9646 net.cpp:156] Memory required for data: 1091027456
I0309 05:03:59.495584  9646 layer_factory.hpp:77] Creating layer pool3/3x3_s2_pool3/3x3_s2_0_split
I0309 05:03:59.495609  9646 net.cpp:91] Creating Layer pool3/3x3_s2_pool3/3x3_s2_0_split
I0309 05:03:59.495632  9646 net.cpp:425] pool3/3x3_s2_pool3/3x3_s2_0_split <- pool3/3x3_s2
I0309 05:03:59.495657  9646 net.cpp:399] pool3/3x3_s2_pool3/3x3_s2_0_split -> pool3/3x3_s2_pool3/3x3_s2_0_split_0
I0309 05:03:59.495684  9646 net.cpp:399] pool3/3x3_s2_pool3/3x3_s2_0_split -> pool3/3x3_s2_pool3/3x3_s2_0_split_1
I0309 05:03:59.495715  9646 net.cpp:399] pool3/3x3_s2_pool3/3x3_s2_0_split -> pool3/3x3_s2_pool3/3x3_s2_0_split_2
I0309 05:03:59.495743  9646 net.cpp:399] pool3/3x3_s2_pool3/3x3_s2_0_split -> pool3/3x3_s2_pool3/3x3_s2_0_split_3
I0309 05:03:59.495815  9646 net.cpp:141] Setting up pool3/3x3_s2_pool3/3x3_s2_0_split
I0309 05:03:59.495846  9646 net.cpp:148] Top shape: 32 480 14 14 (3010560)
I0309 05:03:59.495872  9646 net.cpp:148] Top shape: 32 480 14 14 (3010560)
I0309 05:03:59.495895  9646 net.cpp:148] Top shape: 32 480 14 14 (3010560)
I0309 05:03:59.495918  9646 net.cpp:148] Top shape: 32 480 14 14 (3010560)
I0309 05:03:59.495940  9646 net.cpp:156] Memory required for data: 1139196416
I0309 05:03:59.495962  9646 layer_factory.hpp:77] Creating layer inception_4a/1x1
I0309 05:03:59.496006  9646 net.cpp:91] Creating Layer inception_4a/1x1
I0309 05:03:59.496034  9646 net.cpp:425] inception_4a/1x1 <- pool3/3x3_s2_pool3/3x3_s2_0_split_0
I0309 05:03:59.496064  9646 net.cpp:399] inception_4a/1x1 -> inception_4a/1x1
I0309 05:03:59.496803  9646 net.cpp:141] Setting up inception_4a/1x1
I0309 05:03:59.496836  9646 net.cpp:148] Top shape: 32 192 14 14 (1204224)
I0309 05:03:59.496860  9646 net.cpp:156] Memory required for data: 1144013312
I0309 05:03:59.496886  9646 layer_factory.hpp:77] Creating layer inception_4a/relu_1x1
I0309 05:03:59.496912  9646 net.cpp:91] Creating Layer inception_4a/relu_1x1
I0309 05:03:59.496935  9646 net.cpp:425] inception_4a/relu_1x1 <- inception_4a/1x1
I0309 05:03:59.496959  9646 net.cpp:386] inception_4a/relu_1x1 -> inception_4a/1x1 (in-place)
I0309 05:03:59.496986  9646 net.cpp:141] Setting up inception_4a/relu_1x1
I0309 05:03:59.497015  9646 net.cpp:148] Top shape: 32 192 14 14 (1204224)
I0309 05:03:59.497038  9646 net.cpp:156] Memory required for data: 1148830208
I0309 05:03:59.497061  9646 layer_factory.hpp:77] Creating layer inception_4a/3x3_reduce
I0309 05:03:59.497092  9646 net.cpp:91] Creating Layer inception_4a/3x3_reduce
I0309 05:03:59.497117  9646 net.cpp:425] inception_4a/3x3_reduce <- pool3/3x3_s2_pool3/3x3_s2_0_split_1
I0309 05:03:59.497145  9646 net.cpp:399] inception_4a/3x3_reduce -> inception_4a/3x3_reduce
I0309 05:03:59.497625  9646 net.cpp:141] Setting up inception_4a/3x3_reduce
I0309 05:03:59.497659  9646 net.cpp:148] Top shape: 32 96 14 14 (602112)
I0309 05:03:59.497683  9646 net.cpp:156] Memory required for data: 1151238656
I0309 05:03:59.497714  9646 layer_factory.hpp:77] Creating layer inception_4a/relu_3x3_reduce
I0309 05:03:59.497741  9646 net.cpp:91] Creating Layer inception_4a/relu_3x3_reduce
I0309 05:03:59.497766  9646 net.cpp:425] inception_4a/relu_3x3_reduce <- inception_4a/3x3_reduce
I0309 05:03:59.497791  9646 net.cpp:386] inception_4a/relu_3x3_reduce -> inception_4a/3x3_reduce (in-place)
I0309 05:03:59.497822  9646 net.cpp:141] Setting up inception_4a/relu_3x3_reduce
I0309 05:03:59.497848  9646 net.cpp:148] Top shape: 32 96 14 14 (602112)
I0309 05:03:59.497869  9646 net.cpp:156] Memory required for data: 1153647104
I0309 05:03:59.497891  9646 layer_factory.hpp:77] Creating layer inception_4a/3x3
I0309 05:03:59.497931  9646 net.cpp:91] Creating Layer inception_4a/3x3
I0309 05:03:59.497970  9646 net.cpp:425] inception_4a/3x3 <- inception_4a/3x3_reduce
I0309 05:03:59.498004  9646 net.cpp:399] inception_4a/3x3 -> inception_4a/3x3
I0309 05:03:59.501531  9646 net.cpp:141] Setting up inception_4a/3x3
I0309 05:03:59.501569  9646 net.cpp:148] Top shape: 32 208 14 14 (1304576)
I0309 05:03:59.501591  9646 net.cpp:156] Memory required for data: 1158865408
I0309 05:03:59.501616  9646 layer_factory.hpp:77] Creating layer inception_4a/relu_3x3
I0309 05:03:59.501643  9646 net.cpp:91] Creating Layer inception_4a/relu_3x3
I0309 05:03:59.501667  9646 net.cpp:425] inception_4a/relu_3x3 <- inception_4a/3x3
I0309 05:03:59.501690  9646 net.cpp:386] inception_4a/relu_3x3 -> inception_4a/3x3 (in-place)
I0309 05:03:59.501718  9646 net.cpp:141] Setting up inception_4a/relu_3x3
I0309 05:03:59.501741  9646 net.cpp:148] Top shape: 32 208 14 14 (1304576)
I0309 05:03:59.501762  9646 net.cpp:156] Memory required for data: 1164083712
I0309 05:03:59.501783  9646 layer_factory.hpp:77] Creating layer inception_4a/5x5_reduce
I0309 05:03:59.501811  9646 net.cpp:91] Creating Layer inception_4a/5x5_reduce
I0309 05:03:59.501835  9646 net.cpp:425] inception_4a/5x5_reduce <- pool3/3x3_s2_pool3/3x3_s2_0_split_2
I0309 05:03:59.501862  9646 net.cpp:399] inception_4a/5x5_reduce -> inception_4a/5x5_reduce
I0309 05:03:59.502109  9646 net.cpp:141] Setting up inception_4a/5x5_reduce
I0309 05:03:59.502140  9646 net.cpp:148] Top shape: 32 16 14 14 (100352)
I0309 05:03:59.502162  9646 net.cpp:156] Memory required for data: 1164485120
I0309 05:03:59.502187  9646 layer_factory.hpp:77] Creating layer inception_4a/relu_5x5_reduce
I0309 05:03:59.502212  9646 net.cpp:91] Creating Layer inception_4a/relu_5x5_reduce
I0309 05:03:59.502233  9646 net.cpp:425] inception_4a/relu_5x5_reduce <- inception_4a/5x5_reduce
I0309 05:03:59.502256  9646 net.cpp:386] inception_4a/relu_5x5_reduce -> inception_4a/5x5_reduce (in-place)
I0309 05:03:59.502282  9646 net.cpp:141] Setting up inception_4a/relu_5x5_reduce
I0309 05:03:59.502306  9646 net.cpp:148] Top shape: 32 16 14 14 (100352)
I0309 05:03:59.502327  9646 net.cpp:156] Memory required for data: 1164886528
I0309 05:03:59.502347  9646 layer_factory.hpp:77] Creating layer inception_4a/5x5
I0309 05:03:59.502377  9646 net.cpp:91] Creating Layer inception_4a/5x5
I0309 05:03:59.502400  9646 net.cpp:425] inception_4a/5x5 <- inception_4a/5x5_reduce
I0309 05:03:59.502426  9646 net.cpp:399] inception_4a/5x5 -> inception_4a/5x5
I0309 05:03:59.502737  9646 net.cpp:141] Setting up inception_4a/5x5
I0309 05:03:59.502768  9646 net.cpp:148] Top shape: 32 48 14 14 (301056)
I0309 05:03:59.502790  9646 net.cpp:156] Memory required for data: 1166090752
I0309 05:03:59.502815  9646 layer_factory.hpp:77] Creating layer inception_4a/relu_5x5
I0309 05:03:59.502840  9646 net.cpp:91] Creating Layer inception_4a/relu_5x5
I0309 05:03:59.502863  9646 net.cpp:425] inception_4a/relu_5x5 <- inception_4a/5x5
I0309 05:03:59.502887  9646 net.cpp:386] inception_4a/relu_5x5 -> inception_4a/5x5 (in-place)
I0309 05:03:59.502914  9646 net.cpp:141] Setting up inception_4a/relu_5x5
I0309 05:03:59.502938  9646 net.cpp:148] Top shape: 32 48 14 14 (301056)
I0309 05:03:59.502959  9646 net.cpp:156] Memory required for data: 1167294976
I0309 05:03:59.502980  9646 layer_factory.hpp:77] Creating layer inception_4a/pool
I0309 05:03:59.503010  9646 net.cpp:91] Creating Layer inception_4a/pool
I0309 05:03:59.503036  9646 net.cpp:425] inception_4a/pool <- pool3/3x3_s2_pool3/3x3_s2_0_split_3
I0309 05:03:59.503059  9646 net.cpp:399] inception_4a/pool -> inception_4a/pool
I0309 05:03:59.503118  9646 net.cpp:141] Setting up inception_4a/pool
I0309 05:03:59.503157  9646 net.cpp:148] Top shape: 32 480 14 14 (3010560)
I0309 05:03:59.503180  9646 net.cpp:156] Memory required for data: 1179337216
I0309 05:03:59.503201  9646 layer_factory.hpp:77] Creating layer inception_4a/pool_proj
I0309 05:03:59.503228  9646 net.cpp:91] Creating Layer inception_4a/pool_proj
I0309 05:03:59.503252  9646 net.cpp:425] inception_4a/pool_proj <- inception_4a/pool
I0309 05:03:59.503304  9646 net.cpp:399] inception_4a/pool_proj -> inception_4a/pool_proj
I0309 05:03:59.503710  9646 net.cpp:141] Setting up inception_4a/pool_proj
I0309 05:03:59.503746  9646 net.cpp:148] Top shape: 32 64 14 14 (401408)
I0309 05:03:59.503768  9646 net.cpp:156] Memory required for data: 1180942848
I0309 05:03:59.503794  9646 layer_factory.hpp:77] Creating layer inception_4a/relu_pool_proj
I0309 05:03:59.503825  9646 net.cpp:91] Creating Layer inception_4a/relu_pool_proj
I0309 05:03:59.503849  9646 net.cpp:425] inception_4a/relu_pool_proj <- inception_4a/pool_proj
I0309 05:03:59.503876  9646 net.cpp:386] inception_4a/relu_pool_proj -> inception_4a/pool_proj (in-place)
I0309 05:03:59.503904  9646 net.cpp:141] Setting up inception_4a/relu_pool_proj
I0309 05:03:59.503931  9646 net.cpp:148] Top shape: 32 64 14 14 (401408)
I0309 05:03:59.503952  9646 net.cpp:156] Memory required for data: 1182548480
I0309 05:03:59.503973  9646 layer_factory.hpp:77] Creating layer inception_4a/output
I0309 05:03:59.504003  9646 net.cpp:91] Creating Layer inception_4a/output
I0309 05:03:59.504027  9646 net.cpp:425] inception_4a/output <- inception_4a/1x1
I0309 05:03:59.504051  9646 net.cpp:425] inception_4a/output <- inception_4a/3x3
I0309 05:03:59.504076  9646 net.cpp:425] inception_4a/output <- inception_4a/5x5
I0309 05:03:59.504099  9646 net.cpp:425] inception_4a/output <- inception_4a/pool_proj
I0309 05:03:59.504127  9646 net.cpp:399] inception_4a/output -> inception_4a/output
I0309 05:03:59.504169  9646 net.cpp:141] Setting up inception_4a/output
I0309 05:03:59.504200  9646 net.cpp:148] Top shape: 32 512 14 14 (3211264)
I0309 05:03:59.504222  9646 net.cpp:156] Memory required for data: 1195393536
I0309 05:03:59.504245  9646 layer_factory.hpp:77] Creating layer inception_4a/output_inception_4a/output_0_split
I0309 05:03:59.504269  9646 net.cpp:91] Creating Layer inception_4a/output_inception_4a/output_0_split
I0309 05:03:59.504293  9646 net.cpp:425] inception_4a/output_inception_4a/output_0_split <- inception_4a/output
I0309 05:03:59.504322  9646 net.cpp:399] inception_4a/output_inception_4a/output_0_split -> inception_4a/output_inception_4a/output_0_split_0
I0309 05:03:59.504350  9646 net.cpp:399] inception_4a/output_inception_4a/output_0_split -> inception_4a/output_inception_4a/output_0_split_1
I0309 05:03:59.504379  9646 net.cpp:399] inception_4a/output_inception_4a/output_0_split -> inception_4a/output_inception_4a/output_0_split_2
I0309 05:03:59.504410  9646 net.cpp:399] inception_4a/output_inception_4a/output_0_split -> inception_4a/output_inception_4a/output_0_split_3
I0309 05:03:59.504438  9646 net.cpp:399] inception_4a/output_inception_4a/output_0_split -> inception_4a/output_inception_4a/output_0_split_4
I0309 05:03:59.504518  9646 net.cpp:141] Setting up inception_4a/output_inception_4a/output_0_split
I0309 05:03:59.504549  9646 net.cpp:148] Top shape: 32 512 14 14 (3211264)
I0309 05:03:59.504573  9646 net.cpp:148] Top shape: 32 512 14 14 (3211264)
I0309 05:03:59.504597  9646 net.cpp:148] Top shape: 32 512 14 14 (3211264)
I0309 05:03:59.504621  9646 net.cpp:148] Top shape: 32 512 14 14 (3211264)
I0309 05:03:59.504644  9646 net.cpp:148] Top shape: 32 512 14 14 (3211264)
I0309 05:03:59.504667  9646 net.cpp:156] Memory required for data: 1259618816
I0309 05:03:59.504688  9646 layer_factory.hpp:77] Creating layer loss1/ave_pool
I0309 05:03:59.504714  9646 net.cpp:91] Creating Layer loss1/ave_pool
I0309 05:03:59.504736  9646 net.cpp:425] loss1/ave_pool <- inception_4a/output_inception_4a/output_0_split_0
I0309 05:03:59.504765  9646 net.cpp:399] loss1/ave_pool -> loss1/ave_pool
I0309 05:03:59.504809  9646 net.cpp:141] Setting up loss1/ave_pool
I0309 05:03:59.504840  9646 net.cpp:148] Top shape: 32 512 4 4 (262144)
I0309 05:03:59.504863  9646 net.cpp:156] Memory required for data: 1260667392
I0309 05:03:59.504884  9646 layer_factory.hpp:77] Creating layer loss1/conv
I0309 05:03:59.504914  9646 net.cpp:91] Creating Layer loss1/conv
I0309 05:03:59.504938  9646 net.cpp:425] loss1/conv <- loss1/ave_pool
I0309 05:03:59.504976  9646 net.cpp:399] loss1/conv -> loss1/conv
I0309 05:03:59.505574  9646 net.cpp:141] Setting up loss1/conv
I0309 05:03:59.505609  9646 net.cpp:148] Top shape: 32 128 4 4 (65536)
I0309 05:03:59.505631  9646 net.cpp:156] Memory required for data: 1260929536
I0309 05:03:59.505657  9646 layer_factory.hpp:77] Creating layer loss1/relu_conv
I0309 05:03:59.505683  9646 net.cpp:91] Creating Layer loss1/relu_conv
I0309 05:03:59.505707  9646 net.cpp:425] loss1/relu_conv <- loss1/conv
I0309 05:03:59.505731  9646 net.cpp:386] loss1/relu_conv -> loss1/conv (in-place)
I0309 05:03:59.505759  9646 net.cpp:141] Setting up loss1/relu_conv
I0309 05:03:59.505784  9646 net.cpp:148] Top shape: 32 128 4 4 (65536)
I0309 05:03:59.505805  9646 net.cpp:156] Memory required for data: 1261191680
I0309 05:03:59.505827  9646 layer_factory.hpp:77] Creating layer loss1/fc
I0309 05:03:59.505878  9646 net.cpp:91] Creating Layer loss1/fc
I0309 05:03:59.505905  9646 net.cpp:425] loss1/fc <- loss1/conv
I0309 05:03:59.505934  9646 net.cpp:399] loss1/fc -> loss1/fc
I0309 05:03:59.523428  9646 net.cpp:141] Setting up loss1/fc
I0309 05:03:59.523483  9646 net.cpp:148] Top shape: 32 1024 (32768)
I0309 05:03:59.523505  9646 net.cpp:156] Memory required for data: 1261322752
I0309 05:03:59.523533  9646 layer_factory.hpp:77] Creating layer loss1/relu_fc
I0309 05:03:59.523560  9646 net.cpp:91] Creating Layer loss1/relu_fc
I0309 05:03:59.523584  9646 net.cpp:425] loss1/relu_fc <- loss1/fc
I0309 05:03:59.523610  9646 net.cpp:386] loss1/relu_fc -> loss1/fc (in-place)
I0309 05:03:59.523638  9646 net.cpp:141] Setting up loss1/relu_fc
I0309 05:03:59.523664  9646 net.cpp:148] Top shape: 32 1024 (32768)
I0309 05:03:59.523685  9646 net.cpp:156] Memory required for data: 1261453824
I0309 05:03:59.523708  9646 layer_factory.hpp:77] Creating layer loss1/drop_fc
I0309 05:03:59.523744  9646 net.cpp:91] Creating Layer loss1/drop_fc
I0309 05:03:59.523771  9646 net.cpp:425] loss1/drop_fc <- loss1/fc
I0309 05:03:59.523795  9646 net.cpp:386] loss1/drop_fc -> loss1/fc (in-place)
I0309 05:03:59.523845  9646 net.cpp:141] Setting up loss1/drop_fc
I0309 05:03:59.523875  9646 net.cpp:148] Top shape: 32 1024 (32768)
I0309 05:03:59.523898  9646 net.cpp:156] Memory required for data: 1261584896
I0309 05:03:59.523921  9646 layer_factory.hpp:77] Creating layer loss1/classifier
I0309 05:03:59.523950  9646 net.cpp:91] Creating Layer loss1/classifier
I0309 05:03:59.523975  9646 net.cpp:425] loss1/classifier <- loss1/fc
I0309 05:03:59.524006  9646 net.cpp:399] loss1/classifier -> loss1/classifier
I0309 05:03:59.532279  9646 net.cpp:141] Setting up loss1/classifier
I0309 05:03:59.532320  9646 net.cpp:148] Top shape: 32 1000 (32000)
I0309 05:03:59.532342  9646 net.cpp:156] Memory required for data: 1261712896
I0309 05:03:59.532379  9646 layer_factory.hpp:77] Creating layer loss1/loss
I0309 05:03:59.532407  9646 net.cpp:91] Creating Layer loss1/loss
I0309 05:03:59.532430  9646 net.cpp:425] loss1/loss <- loss1/classifier
I0309 05:03:59.532455  9646 net.cpp:425] loss1/loss <- label_data_1_split_0
I0309 05:03:59.532480  9646 net.cpp:399] loss1/loss -> loss1/loss1
I0309 05:03:59.532552  9646 layer_factory.hpp:77] Creating layer loss1/loss
I0309 05:03:59.533249  9646 net.cpp:141] Setting up loss1/loss
I0309 05:03:59.533282  9646 net.cpp:148] Top shape: (1)
I0309 05:03:59.533304  9646 net.cpp:151]     with loss weight 0.3
I0309 05:03:59.533363  9646 net.cpp:156] Memory required for data: 1261712900
I0309 05:03:59.533385  9646 layer_factory.hpp:77] Creating layer inception_4b/1x1
I0309 05:03:59.533414  9646 net.cpp:91] Creating Layer inception_4b/1x1
I0309 05:03:59.533438  9646 net.cpp:425] inception_4b/1x1 <- inception_4a/output_inception_4a/output_0_split_1
I0309 05:03:59.533464  9646 net.cpp:399] inception_4b/1x1 -> inception_4b/1x1
I0309 05:03:59.534178  9646 net.cpp:141] Setting up inception_4b/1x1
I0309 05:03:59.534212  9646 net.cpp:148] Top shape: 32 160 14 14 (1003520)
I0309 05:03:59.534235  9646 net.cpp:156] Memory required for data: 1265726980
I0309 05:03:59.534279  9646 layer_factory.hpp:77] Creating layer inception_4b/relu_1x1
I0309 05:03:59.534337  9646 net.cpp:91] Creating Layer inception_4b/relu_1x1
I0309 05:03:59.534359  9646 net.cpp:425] inception_4b/relu_1x1 <- inception_4b/1x1
I0309 05:03:59.534384  9646 net.cpp:386] inception_4b/relu_1x1 -> inception_4b/1x1 (in-place)
I0309 05:03:59.534410  9646 net.cpp:141] Setting up inception_4b/relu_1x1
I0309 05:03:59.534435  9646 net.cpp:148] Top shape: 32 160 14 14 (1003520)
I0309 05:03:59.534456  9646 net.cpp:156] Memory required for data: 1269741060
I0309 05:03:59.534476  9646 layer_factory.hpp:77] Creating layer inception_4b/3x3_reduce
I0309 05:03:59.534505  9646 net.cpp:91] Creating Layer inception_4b/3x3_reduce
I0309 05:03:59.534529  9646 net.cpp:425] inception_4b/3x3_reduce <- inception_4a/output_inception_4a/output_0_split_2
I0309 05:03:59.534557  9646 net.cpp:399] inception_4b/3x3_reduce -> inception_4b/3x3_reduce
I0309 05:03:59.535109  9646 net.cpp:141] Setting up inception_4b/3x3_reduce
I0309 05:03:59.535141  9646 net.cpp:148] Top shape: 32 112 14 14 (702464)
I0309 05:03:59.535163  9646 net.cpp:156] Memory required for data: 1272550916
I0309 05:03:59.535188  9646 layer_factory.hpp:77] Creating layer inception_4b/relu_3x3_reduce
I0309 05:03:59.535214  9646 net.cpp:91] Creating Layer inception_4b/relu_3x3_reduce
I0309 05:03:59.535238  9646 net.cpp:425] inception_4b/relu_3x3_reduce <- inception_4b/3x3_reduce
I0309 05:03:59.535261  9646 net.cpp:386] inception_4b/relu_3x3_reduce -> inception_4b/3x3_reduce (in-place)
I0309 05:03:59.535287  9646 net.cpp:141] Setting up inception_4b/relu_3x3_reduce
I0309 05:03:59.535311  9646 net.cpp:148] Top shape: 32 112 14 14 (702464)
I0309 05:03:59.535332  9646 net.cpp:156] Memory required for data: 1275360772
I0309 05:03:59.535353  9646 layer_factory.hpp:77] Creating layer inception_4b/3x3
I0309 05:03:59.535382  9646 net.cpp:91] Creating Layer inception_4b/3x3
I0309 05:03:59.535406  9646 net.cpp:425] inception_4b/3x3 <- inception_4b/3x3_reduce
I0309 05:03:59.535431  9646 net.cpp:399] inception_4b/3x3 -> inception_4b/3x3
I0309 05:03:59.537485  9646 net.cpp:141] Setting up inception_4b/3x3
I0309 05:03:59.537523  9646 net.cpp:148] Top shape: 32 224 14 14 (1404928)
I0309 05:03:59.537546  9646 net.cpp:156] Memory required for data: 1280980484
I0309 05:03:59.537572  9646 layer_factory.hpp:77] Creating layer inception_4b/relu_3x3
I0309 05:03:59.537612  9646 net.cpp:91] Creating Layer inception_4b/relu_3x3
I0309 05:03:59.537636  9646 net.cpp:425] inception_4b/relu_3x3 <- inception_4b/3x3
I0309 05:03:59.537680  9646 net.cpp:386] inception_4b/relu_3x3 -> inception_4b/3x3 (in-place)
I0309 05:03:59.537708  9646 net.cpp:141] Setting up inception_4b/relu_3x3
I0309 05:03:59.537735  9646 net.cpp:148] Top shape: 32 224 14 14 (1404928)
I0309 05:03:59.537758  9646 net.cpp:156] Memory required for data: 1286600196
I0309 05:03:59.537781  9646 layer_factory.hpp:77] Creating layer inception_4b/5x5_reduce
I0309 05:03:59.537812  9646 net.cpp:91] Creating Layer inception_4b/5x5_reduce
I0309 05:03:59.537838  9646 net.cpp:425] inception_4b/5x5_reduce <- inception_4a/output_inception_4a/output_0_split_3
I0309 05:03:59.537865  9646 net.cpp:399] inception_4b/5x5_reduce -> inception_4b/5x5_reduce
I0309 05:03:59.538174  9646 net.cpp:141] Setting up inception_4b/5x5_reduce
I0309 05:03:59.538213  9646 net.cpp:148] Top shape: 32 24 14 14 (150528)
I0309 05:03:59.538238  9646 net.cpp:156] Memory required for data: 1287202308
I0309 05:03:59.538264  9646 layer_factory.hpp:77] Creating layer inception_4b/relu_5x5_reduce
I0309 05:03:59.538290  9646 net.cpp:91] Creating Layer inception_4b/relu_5x5_reduce
I0309 05:03:59.538313  9646 net.cpp:425] inception_4b/relu_5x5_reduce <- inception_4b/5x5_reduce
I0309 05:03:59.538338  9646 net.cpp:386] inception_4b/relu_5x5_reduce -> inception_4b/5x5_reduce (in-place)
I0309 05:03:59.538367  9646 net.cpp:141] Setting up inception_4b/relu_5x5_reduce
I0309 05:03:59.538393  9646 net.cpp:148] Top shape: 32 24 14 14 (150528)
I0309 05:03:59.538414  9646 net.cpp:156] Memory required for data: 1287804420
I0309 05:03:59.538449  9646 layer_factory.hpp:77] Creating layer inception_4b/5x5
I0309 05:03:59.538496  9646 net.cpp:91] Creating Layer inception_4b/5x5
I0309 05:03:59.538522  9646 net.cpp:425] inception_4b/5x5 <- inception_4b/5x5_reduce
I0309 05:03:59.538553  9646 net.cpp:399] inception_4b/5x5 -> inception_4b/5x5
I0309 05:03:59.538986  9646 net.cpp:141] Setting up inception_4b/5x5
I0309 05:03:59.539023  9646 net.cpp:148] Top shape: 32 64 14 14 (401408)
I0309 05:03:59.539047  9646 net.cpp:156] Memory required for data: 1289410052
I0309 05:03:59.539072  9646 layer_factory.hpp:77] Creating layer inception_4b/relu_5x5
I0309 05:03:59.539100  9646 net.cpp:91] Creating Layer inception_4b/relu_5x5
I0309 05:03:59.539125  9646 net.cpp:425] inception_4b/relu_5x5 <- inception_4b/5x5
I0309 05:03:59.539150  9646 net.cpp:386] inception_4b/relu_5x5 -> inception_4b/5x5 (in-place)
I0309 05:03:59.539178  9646 net.cpp:141] Setting up inception_4b/relu_5x5
I0309 05:03:59.539203  9646 net.cpp:148] Top shape: 32 64 14 14 (401408)
I0309 05:03:59.539227  9646 net.cpp:156] Memory required for data: 1291015684
I0309 05:03:59.539247  9646 layer_factory.hpp:77] Creating layer inception_4b/pool
I0309 05:03:59.539273  9646 net.cpp:91] Creating Layer inception_4b/pool
I0309 05:03:59.539299  9646 net.cpp:425] inception_4b/pool <- inception_4a/output_inception_4a/output_0_split_4
I0309 05:03:59.539325  9646 net.cpp:399] inception_4b/pool -> inception_4b/pool
I0309 05:03:59.539392  9646 net.cpp:141] Setting up inception_4b/pool
I0309 05:03:59.539425  9646 net.cpp:148] Top shape: 32 512 14 14 (3211264)
I0309 05:03:59.539448  9646 net.cpp:156] Memory required for data: 1303860740
I0309 05:03:59.539470  9646 layer_factory.hpp:77] Creating layer inception_4b/pool_proj
I0309 05:03:59.539500  9646 net.cpp:91] Creating Layer inception_4b/pool_proj
I0309 05:03:59.539527  9646 net.cpp:425] inception_4b/pool_proj <- inception_4b/pool
I0309 05:03:59.539554  9646 net.cpp:399] inception_4b/pool_proj -> inception_4b/pool_proj
I0309 05:03:59.539945  9646 net.cpp:141] Setting up inception_4b/pool_proj
I0309 05:03:59.539979  9646 net.cpp:148] Top shape: 32 64 14 14 (401408)
I0309 05:03:59.540006  9646 net.cpp:156] Memory required for data: 1305466372
I0309 05:03:59.540033  9646 layer_factory.hpp:77] Creating layer inception_4b/relu_pool_proj
I0309 05:03:59.540060  9646 net.cpp:91] Creating Layer inception_4b/relu_pool_proj
I0309 05:03:59.540083  9646 net.cpp:425] inception_4b/relu_pool_proj <- inception_4b/pool_proj
I0309 05:03:59.540110  9646 net.cpp:386] inception_4b/relu_pool_proj -> inception_4b/pool_proj (in-place)
I0309 05:03:59.540139  9646 net.cpp:141] Setting up inception_4b/relu_pool_proj
I0309 05:03:59.540165  9646 net.cpp:148] Top shape: 32 64 14 14 (401408)
I0309 05:03:59.540187  9646 net.cpp:156] Memory required for data: 1307072004
I0309 05:03:59.540210  9646 layer_factory.hpp:77] Creating layer inception_4b/output
I0309 05:03:59.540235  9646 net.cpp:91] Creating Layer inception_4b/output
I0309 05:03:59.540258  9646 net.cpp:425] inception_4b/output <- inception_4b/1x1
I0309 05:03:59.540282  9646 net.cpp:425] inception_4b/output <- inception_4b/3x3
I0309 05:03:59.540307  9646 net.cpp:425] inception_4b/output <- inception_4b/5x5
I0309 05:03:59.540330  9646 net.cpp:425] inception_4b/output <- inception_4b/pool_proj
I0309 05:03:59.540355  9646 net.cpp:399] inception_4b/output -> inception_4b/output
I0309 05:03:59.540401  9646 net.cpp:141] Setting up inception_4b/output
I0309 05:03:59.540432  9646 net.cpp:148] Top shape: 32 512 14 14 (3211264)
I0309 05:03:59.540455  9646 net.cpp:156] Memory required for data: 1319917060
I0309 05:03:59.540477  9646 layer_factory.hpp:77] Creating layer inception_4b/output_inception_4b/output_0_split
I0309 05:03:59.540503  9646 net.cpp:91] Creating Layer inception_4b/output_inception_4b/output_0_split
I0309 05:03:59.540526  9646 net.cpp:425] inception_4b/output_inception_4b/output_0_split <- inception_4b/output
I0309 05:03:59.540555  9646 net.cpp:399] inception_4b/output_inception_4b/output_0_split -> inception_4b/output_inception_4b/output_0_split_0
I0309 05:03:59.540607  9646 net.cpp:399] inception_4b/output_inception_4b/output_0_split -> inception_4b/output_inception_4b/output_0_split_1
I0309 05:03:59.540639  9646 net.cpp:399] inception_4b/output_inception_4b/output_0_split -> inception_4b/output_inception_4b/output_0_split_2
I0309 05:03:59.540668  9646 net.cpp:399] inception_4b/output_inception_4b/output_0_split -> inception_4b/output_inception_4b/output_0_split_3
I0309 05:03:59.540740  9646 net.cpp:141] Setting up inception_4b/output_inception_4b/output_0_split
I0309 05:03:59.540772  9646 net.cpp:148] Top shape: 32 512 14 14 (3211264)
I0309 05:03:59.540797  9646 net.cpp:148] Top shape: 32 512 14 14 (3211264)
I0309 05:03:59.540820  9646 net.cpp:148] Top shape: 32 512 14 14 (3211264)
I0309 05:03:59.540844  9646 net.cpp:148] Top shape: 32 512 14 14 (3211264)
I0309 05:03:59.540866  9646 net.cpp:156] Memory required for data: 1371297284
I0309 05:03:59.540889  9646 layer_factory.hpp:77] Creating layer inception_4c/1x1
I0309 05:03:59.540920  9646 net.cpp:91] Creating Layer inception_4c/1x1
I0309 05:03:59.540946  9646 net.cpp:425] inception_4c/1x1 <- inception_4b/output_inception_4b/output_0_split_0
I0309 05:03:59.540971  9646 net.cpp:399] inception_4c/1x1 -> inception_4c/1x1
I0309 05:03:59.541762  9646 net.cpp:141] Setting up inception_4c/1x1
I0309 05:03:59.541824  9646 net.cpp:148] Top shape: 32 128 14 14 (802816)
I0309 05:03:59.541849  9646 net.cpp:156] Memory required for data: 1374508548
I0309 05:03:59.541889  9646 layer_factory.hpp:77] Creating layer inception_4c/relu_1x1
I0309 05:03:59.541918  9646 net.cpp:91] Creating Layer inception_4c/relu_1x1
I0309 05:03:59.541955  9646 net.cpp:425] inception_4c/relu_1x1 <- inception_4c/1x1
I0309 05:03:59.541982  9646 net.cpp:386] inception_4c/relu_1x1 -> inception_4c/1x1 (in-place)
I0309 05:03:59.542018  9646 net.cpp:141] Setting up inception_4c/relu_1x1
I0309 05:03:59.542047  9646 net.cpp:148] Top shape: 32 128 14 14 (802816)
I0309 05:03:59.542069  9646 net.cpp:156] Memory required for data: 1377719812
I0309 05:03:59.542093  9646 layer_factory.hpp:77] Creating layer inception_4c/3x3_reduce
I0309 05:03:59.542135  9646 net.cpp:91] Creating Layer inception_4c/3x3_reduce
I0309 05:03:59.542172  9646 net.cpp:425] inception_4c/3x3_reduce <- inception_4b/output_inception_4b/output_0_split_1
I0309 05:03:59.542201  9646 net.cpp:399] inception_4c/3x3_reduce -> inception_4c/3x3_reduce
I0309 05:03:59.543350  9646 net.cpp:141] Setting up inception_4c/3x3_reduce
I0309 05:03:59.543390  9646 net.cpp:148] Top shape: 32 128 14 14 (802816)
I0309 05:03:59.543413  9646 net.cpp:156] Memory required for data: 1380931076
I0309 05:03:59.543439  9646 layer_factory.hpp:77] Creating layer inception_4c/relu_3x3_reduce
I0309 05:03:59.543464  9646 net.cpp:91] Creating Layer inception_4c/relu_3x3_reduce
I0309 05:03:59.543488  9646 net.cpp:425] inception_4c/relu_3x3_reduce <- inception_4c/3x3_reduce
I0309 05:03:59.543511  9646 net.cpp:386] inception_4c/relu_3x3_reduce -> inception_4c/3x3_reduce (in-place)
I0309 05:03:59.543540  9646 net.cpp:141] Setting up inception_4c/relu_3x3_reduce
I0309 05:03:59.543565  9646 net.cpp:148] Top shape: 32 128 14 14 (802816)
I0309 05:03:59.543586  9646 net.cpp:156] Memory required for data: 1384142340
I0309 05:03:59.543608  9646 layer_factory.hpp:77] Creating layer inception_4c/3x3
I0309 05:03:59.543640  9646 net.cpp:91] Creating Layer inception_4c/3x3
I0309 05:03:59.543665  9646 net.cpp:425] inception_4c/3x3 <- inception_4c/3x3_reduce
I0309 05:03:59.543694  9646 net.cpp:399] inception_4c/3x3 -> inception_4c/3x3
I0309 05:03:59.546295  9646 net.cpp:141] Setting up inception_4c/3x3
I0309 05:03:59.546335  9646 net.cpp:148] Top shape: 32 256 14 14 (1605632)
I0309 05:03:59.546360  9646 net.cpp:156] Memory required for data: 1390564868
I0309 05:03:59.546412  9646 layer_factory.hpp:77] Creating layer inception_4c/relu_3x3
I0309 05:03:59.546453  9646 net.cpp:91] Creating Layer inception_4c/relu_3x3
I0309 05:03:59.546478  9646 net.cpp:425] inception_4c/relu_3x3 <- inception_4c/3x3
I0309 05:03:59.546528  9646 net.cpp:386] inception_4c/relu_3x3 -> inception_4c/3x3 (in-place)
I0309 05:03:59.546581  9646 net.cpp:141] Setting up inception_4c/relu_3x3
I0309 05:03:59.546609  9646 net.cpp:148] Top shape: 32 256 14 14 (1605632)
I0309 05:03:59.546633  9646 net.cpp:156] Memory required for data: 1396987396
I0309 05:03:59.546654  9646 layer_factory.hpp:77] Creating layer inception_4c/5x5_reduce
I0309 05:03:59.546684  9646 net.cpp:91] Creating Layer inception_4c/5x5_reduce
I0309 05:03:59.546708  9646 net.cpp:425] inception_4c/5x5_reduce <- inception_4b/output_inception_4b/output_0_split_2
I0309 05:03:59.546738  9646 net.cpp:399] inception_4c/5x5_reduce -> inception_4c/5x5_reduce
I0309 05:03:59.547045  9646 net.cpp:141] Setting up inception_4c/5x5_reduce
I0309 05:03:59.547080  9646 net.cpp:148] Top shape: 32 24 14 14 (150528)
I0309 05:03:59.547102  9646 net.cpp:156] Memory required for data: 1397589508
I0309 05:03:59.547128  9646 layer_factory.hpp:77] Creating layer inception_4c/relu_5x5_reduce
I0309 05:03:59.547154  9646 net.cpp:91] Creating Layer inception_4c/relu_5x5_reduce
I0309 05:03:59.547178  9646 net.cpp:425] inception_4c/relu_5x5_reduce <- inception_4c/5x5_reduce
I0309 05:03:59.547201  9646 net.cpp:386] inception_4c/relu_5x5_reduce -> inception_4c/5x5_reduce (in-place)
I0309 05:03:59.547230  9646 net.cpp:141] Setting up inception_4c/relu_5x5_reduce
I0309 05:03:59.547255  9646 net.cpp:148] Top shape: 32 24 14 14 (150528)
I0309 05:03:59.547276  9646 net.cpp:156] Memory required for data: 1398191620
I0309 05:03:59.547297  9646 layer_factory.hpp:77] Creating layer inception_4c/5x5
I0309 05:03:59.547329  9646 net.cpp:91] Creating Layer inception_4c/5x5
I0309 05:03:59.547354  9646 net.cpp:425] inception_4c/5x5 <- inception_4c/5x5_reduce
I0309 05:03:59.547384  9646 net.cpp:399] inception_4c/5x5 -> inception_4c/5x5
I0309 05:03:59.547832  9646 net.cpp:141] Setting up inception_4c/5x5
I0309 05:03:59.547865  9646 net.cpp:148] Top shape: 32 64 14 14 (401408)
I0309 05:03:59.547888  9646 net.cpp:156] Memory required for data: 1399797252
I0309 05:03:59.547914  9646 layer_factory.hpp:77] Creating layer inception_4c/relu_5x5
I0309 05:03:59.547938  9646 net.cpp:91] Creating Layer inception_4c/relu_5x5
I0309 05:03:59.547961  9646 net.cpp:425] inception_4c/relu_5x5 <- inception_4c/5x5
I0309 05:03:59.547988  9646 net.cpp:386] inception_4c/relu_5x5 -> inception_4c/5x5 (in-place)
I0309 05:03:59.548022  9646 net.cpp:141] Setting up inception_4c/relu_5x5
I0309 05:03:59.548048  9646 net.cpp:148] Top shape: 32 64 14 14 (401408)
I0309 05:03:59.548069  9646 net.cpp:156] Memory required for data: 1401402884
I0309 05:03:59.548091  9646 layer_factory.hpp:77] Creating layer inception_4c/pool
I0309 05:03:59.548116  9646 net.cpp:91] Creating Layer inception_4c/pool
I0309 05:03:59.548141  9646 net.cpp:425] inception_4c/pool <- inception_4b/output_inception_4b/output_0_split_3
I0309 05:03:59.548166  9646 net.cpp:399] inception_4c/pool -> inception_4c/pool
I0309 05:03:59.548224  9646 net.cpp:141] Setting up inception_4c/pool
I0309 05:03:59.548255  9646 net.cpp:148] Top shape: 32 512 14 14 (3211264)
I0309 05:03:59.548277  9646 net.cpp:156] Memory required for data: 1414247940
I0309 05:03:59.548300  9646 layer_factory.hpp:77] Creating layer inception_4c/pool_proj
I0309 05:03:59.548331  9646 net.cpp:91] Creating Layer inception_4c/pool_proj
I0309 05:03:59.548355  9646 net.cpp:425] inception_4c/pool_proj <- inception_4c/pool
I0309 05:03:59.548384  9646 net.cpp:399] inception_4c/pool_proj -> inception_4c/pool_proj
I0309 05:03:59.548779  9646 net.cpp:141] Setting up inception_4c/pool_proj
I0309 05:03:59.548813  9646 net.cpp:148] Top shape: 32 64 14 14 (401408)
I0309 05:03:59.548835  9646 net.cpp:156] Memory required for data: 1415853572
I0309 05:03:59.548861  9646 layer_factory.hpp:77] Creating layer inception_4c/relu_pool_proj
I0309 05:03:59.548889  9646 net.cpp:91] Creating Layer inception_4c/relu_pool_proj
I0309 05:03:59.548913  9646 net.cpp:425] inception_4c/relu_pool_proj <- inception_4c/pool_proj
I0309 05:03:59.548938  9646 net.cpp:386] inception_4c/relu_pool_proj -> inception_4c/pool_proj (in-place)
I0309 05:03:59.548995  9646 net.cpp:141] Setting up inception_4c/relu_pool_proj
I0309 05:03:59.549026  9646 net.cpp:148] Top shape: 32 64 14 14 (401408)
I0309 05:03:59.549049  9646 net.cpp:156] Memory required for data: 1417459204
I0309 05:03:59.549070  9646 layer_factory.hpp:77] Creating layer inception_4c/output
I0309 05:03:59.549095  9646 net.cpp:91] Creating Layer inception_4c/output
I0309 05:03:59.549119  9646 net.cpp:425] inception_4c/output <- inception_4c/1x1
I0309 05:03:59.549144  9646 net.cpp:425] inception_4c/output <- inception_4c/3x3
I0309 05:03:59.549167  9646 net.cpp:425] inception_4c/output <- inception_4c/5x5
I0309 05:03:59.549190  9646 net.cpp:425] inception_4c/output <- inception_4c/pool_proj
I0309 05:03:59.549217  9646 net.cpp:399] inception_4c/output -> inception_4c/output
I0309 05:03:59.549262  9646 net.cpp:141] Setting up inception_4c/output
I0309 05:03:59.549293  9646 net.cpp:148] Top shape: 32 512 14 14 (3211264)
I0309 05:03:59.549314  9646 net.cpp:156] Memory required for data: 1430304260
I0309 05:03:59.549336  9646 layer_factory.hpp:77] Creating layer inception_4c/output_inception_4c/output_0_split
I0309 05:03:59.549365  9646 net.cpp:91] Creating Layer inception_4c/output_inception_4c/output_0_split
I0309 05:03:59.549387  9646 net.cpp:425] inception_4c/output_inception_4c/output_0_split <- inception_4c/output
I0309 05:03:59.549412  9646 net.cpp:399] inception_4c/output_inception_4c/output_0_split -> inception_4c/output_inception_4c/output_0_split_0
I0309 05:03:59.549443  9646 net.cpp:399] inception_4c/output_inception_4c/output_0_split -> inception_4c/output_inception_4c/output_0_split_1
I0309 05:03:59.549470  9646 net.cpp:399] inception_4c/output_inception_4c/output_0_split -> inception_4c/output_inception_4c/output_0_split_2
I0309 05:03:59.549499  9646 net.cpp:399] inception_4c/output_inception_4c/output_0_split -> inception_4c/output_inception_4c/output_0_split_3
I0309 05:03:59.549569  9646 net.cpp:141] Setting up inception_4c/output_inception_4c/output_0_split
I0309 05:03:59.549599  9646 net.cpp:148] Top shape: 32 512 14 14 (3211264)
I0309 05:03:59.549623  9646 net.cpp:148] Top shape: 32 512 14 14 (3211264)
I0309 05:03:59.549646  9646 net.cpp:148] Top shape: 32 512 14 14 (3211264)
I0309 05:03:59.549669  9646 net.cpp:148] Top shape: 32 512 14 14 (3211264)
I0309 05:03:59.549690  9646 net.cpp:156] Memory required for data: 1481684484
I0309 05:03:59.549712  9646 layer_factory.hpp:77] Creating layer inception_4d/1x1
I0309 05:03:59.549742  9646 net.cpp:91] Creating Layer inception_4d/1x1
I0309 05:03:59.549767  9646 net.cpp:425] inception_4d/1x1 <- inception_4c/output_inception_4c/output_0_split_0
I0309 05:03:59.549795  9646 net.cpp:399] inception_4d/1x1 -> inception_4d/1x1
I0309 05:03:59.550339  9646 net.cpp:141] Setting up inception_4d/1x1
I0309 05:03:59.550372  9646 net.cpp:148] Top shape: 32 112 14 14 (702464)
I0309 05:03:59.550395  9646 net.cpp:156] Memory required for data: 1484494340
I0309 05:03:59.550420  9646 layer_factory.hpp:77] Creating layer inception_4d/relu_1x1
I0309 05:03:59.550444  9646 net.cpp:91] Creating Layer inception_4d/relu_1x1
I0309 05:03:59.550467  9646 net.cpp:425] inception_4d/relu_1x1 <- inception_4d/1x1
I0309 05:03:59.550489  9646 net.cpp:386] inception_4d/relu_1x1 -> inception_4d/1x1 (in-place)
I0309 05:03:59.550515  9646 net.cpp:141] Setting up inception_4d/relu_1x1
I0309 05:03:59.550539  9646 net.cpp:148] Top shape: 32 112 14 14 (702464)
I0309 05:03:59.550559  9646 net.cpp:156] Memory required for data: 1487304196
I0309 05:03:59.550592  9646 layer_factory.hpp:77] Creating layer inception_4d/3x3_reduce
I0309 05:03:59.550622  9646 net.cpp:91] Creating Layer inception_4d/3x3_reduce
I0309 05:03:59.550657  9646 net.cpp:425] inception_4d/3x3_reduce <- inception_4c/output_inception_4c/output_0_split_1
I0309 05:03:59.550688  9646 net.cpp:399] inception_4d/3x3_reduce -> inception_4d/3x3_reduce
I0309 05:03:59.551393  9646 net.cpp:141] Setting up inception_4d/3x3_reduce
I0309 05:03:59.551425  9646 net.cpp:148] Top shape: 32 144 14 14 (903168)
I0309 05:03:59.551458  9646 net.cpp:156] Memory required for data: 1490916868
I0309 05:03:59.551497  9646 layer_factory.hpp:77] Creating layer inception_4d/relu_3x3_reduce
I0309 05:03:59.551524  9646 net.cpp:91] Creating Layer inception_4d/relu_3x3_reduce
I0309 05:03:59.551548  9646 net.cpp:425] inception_4d/relu_3x3_reduce <- inception_4d/3x3_reduce
I0309 05:03:59.551570  9646 net.cpp:386] inception_4d/relu_3x3_reduce -> inception_4d/3x3_reduce (in-place)
I0309 05:03:59.551596  9646 net.cpp:141] Setting up inception_4d/relu_3x3_reduce
I0309 05:03:59.551620  9646 net.cpp:148] Top shape: 32 144 14 14 (903168)
I0309 05:03:59.551640  9646 net.cpp:156] Memory required for data: 1494529540
I0309 05:03:59.551659  9646 layer_factory.hpp:77] Creating layer inception_4d/3x3
I0309 05:03:59.551688  9646 net.cpp:91] Creating Layer inception_4d/3x3
I0309 05:03:59.551712  9646 net.cpp:425] inception_4d/3x3 <- inception_4d/3x3_reduce
I0309 05:03:59.551738  9646 net.cpp:399] inception_4d/3x3 -> inception_4d/3x3
I0309 05:03:59.554926  9646 net.cpp:141] Setting up inception_4d/3x3
I0309 05:03:59.554962  9646 net.cpp:148] Top shape: 32 288 14 14 (1806336)
I0309 05:03:59.554985  9646 net.cpp:156] Memory required for data: 1501754884
I0309 05:03:59.555018  9646 layer_factory.hpp:77] Creating layer inception_4d/relu_3x3
I0309 05:03:59.555043  9646 net.cpp:91] Creating Layer inception_4d/relu_3x3
I0309 05:03:59.555065  9646 net.cpp:425] inception_4d/relu_3x3 <- inception_4d/3x3
I0309 05:03:59.555090  9646 net.cpp:386] inception_4d/relu_3x3 -> inception_4d/3x3 (in-place)
I0309 05:03:59.555117  9646 net.cpp:141] Setting up inception_4d/relu_3x3
I0309 05:03:59.555141  9646 net.cpp:148] Top shape: 32 288 14 14 (1806336)
I0309 05:03:59.555162  9646 net.cpp:156] Memory required for data: 1508980228
I0309 05:03:59.555182  9646 layer_factory.hpp:77] Creating layer inception_4d/5x5_reduce
I0309 05:03:59.555210  9646 net.cpp:91] Creating Layer inception_4d/5x5_reduce
I0309 05:03:59.555233  9646 net.cpp:425] inception_4d/5x5_reduce <- inception_4c/output_inception_4c/output_0_split_2
I0309 05:03:59.555258  9646 net.cpp:399] inception_4d/5x5_reduce -> inception_4d/5x5_reduce
I0309 05:03:59.555557  9646 net.cpp:141] Setting up inception_4d/5x5_reduce
I0309 05:03:59.555588  9646 net.cpp:148] Top shape: 32 32 14 14 (200704)
I0309 05:03:59.555608  9646 net.cpp:156] Memory required for data: 1509783044
I0309 05:03:59.555632  9646 layer_factory.hpp:77] Creating layer inception_4d/relu_5x5_reduce
I0309 05:03:59.555658  9646 net.cpp:91] Creating Layer inception_4d/relu_5x5_reduce
I0309 05:03:59.555680  9646 net.cpp:425] inception_4d/relu_5x5_reduce <- inception_4d/5x5_reduce
I0309 05:03:59.555703  9646 net.cpp:386] inception_4d/relu_5x5_reduce -> inception_4d/5x5_reduce (in-place)
I0309 05:03:59.555729  9646 net.cpp:141] Setting up inception_4d/relu_5x5_reduce
I0309 05:03:59.555752  9646 net.cpp:148] Top shape: 32 32 14 14 (200704)
I0309 05:03:59.555773  9646 net.cpp:156] Memory required for data: 1510585860
I0309 05:03:59.555794  9646 layer_factory.hpp:77] Creating layer inception_4d/5x5
I0309 05:03:59.555822  9646 net.cpp:91] Creating Layer inception_4d/5x5
I0309 05:03:59.555846  9646 net.cpp:425] inception_4d/5x5 <- inception_4d/5x5_reduce
I0309 05:03:59.555871  9646 net.cpp:399] inception_4d/5x5 -> inception_4d/5x5
I0309 05:03:59.556375  9646 net.cpp:141] Setting up inception_4d/5x5
I0309 05:03:59.556407  9646 net.cpp:148] Top shape: 32 64 14 14 (401408)
I0309 05:03:59.556428  9646 net.cpp:156] Memory required for data: 1512191492
I0309 05:03:59.556452  9646 layer_factory.hpp:77] Creating layer inception_4d/relu_5x5
I0309 05:03:59.556475  9646 net.cpp:91] Creating Layer inception_4d/relu_5x5
I0309 05:03:59.556498  9646 net.cpp:425] inception_4d/relu_5x5 <- inception_4d/5x5
I0309 05:03:59.556522  9646 net.cpp:386] inception_4d/relu_5x5 -> inception_4d/5x5 (in-place)
I0309 05:03:59.556548  9646 net.cpp:141] Setting up inception_4d/relu_5x5
I0309 05:03:59.556571  9646 net.cpp:148] Top shape: 32 64 14 14 (401408)
I0309 05:03:59.556591  9646 net.cpp:156] Memory required for data: 1513797124
I0309 05:03:59.556638  9646 layer_factory.hpp:77] Creating layer inception_4d/pool
I0309 05:03:59.556664  9646 net.cpp:91] Creating Layer inception_4d/pool
I0309 05:03:59.556699  9646 net.cpp:425] inception_4d/pool <- inception_4c/output_inception_4c/output_0_split_3
I0309 05:03:59.556730  9646 net.cpp:399] inception_4d/pool -> inception_4d/pool
I0309 05:03:59.556800  9646 net.cpp:141] Setting up inception_4d/pool
I0309 05:03:59.556831  9646 net.cpp:148] Top shape: 32 512 14 14 (3211264)
I0309 05:03:59.556854  9646 net.cpp:156] Memory required for data: 1526642180
I0309 05:03:59.556875  9646 layer_factory.hpp:77] Creating layer inception_4d/pool_proj
I0309 05:03:59.556905  9646 net.cpp:91] Creating Layer inception_4d/pool_proj
I0309 05:03:59.556928  9646 net.cpp:425] inception_4d/pool_proj <- inception_4d/pool
I0309 05:03:59.556957  9646 net.cpp:399] inception_4d/pool_proj -> inception_4d/pool_proj
I0309 05:03:59.557482  9646 net.cpp:141] Setting up inception_4d/pool_proj
I0309 05:03:59.557519  9646 net.cpp:148] Top shape: 32 64 14 14 (401408)
I0309 05:03:59.557544  9646 net.cpp:156] Memory required for data: 1528247812
I0309 05:03:59.557572  9646 layer_factory.hpp:77] Creating layer inception_4d/relu_pool_proj
I0309 05:03:59.557600  9646 net.cpp:91] Creating Layer inception_4d/relu_pool_proj
I0309 05:03:59.557644  9646 net.cpp:425] inception_4d/relu_pool_proj <- inception_4d/pool_proj
I0309 05:03:59.557670  9646 net.cpp:386] inception_4d/relu_pool_proj -> inception_4d/pool_proj (in-place)
I0309 05:03:59.557711  9646 net.cpp:141] Setting up inception_4d/relu_pool_proj
I0309 05:03:59.557736  9646 net.cpp:148] Top shape: 32 64 14 14 (401408)
I0309 05:03:59.557771  9646 net.cpp:156] Memory required for data: 1529853444
I0309 05:03:59.557792  9646 layer_factory.hpp:77] Creating layer inception_4d/output
I0309 05:03:59.557821  9646 net.cpp:91] Creating Layer inception_4d/output
I0309 05:03:59.557844  9646 net.cpp:425] inception_4d/output <- inception_4d/1x1
I0309 05:03:59.557868  9646 net.cpp:425] inception_4d/output <- inception_4d/3x3
I0309 05:03:59.557893  9646 net.cpp:425] inception_4d/output <- inception_4d/5x5
I0309 05:03:59.557915  9646 net.cpp:425] inception_4d/output <- inception_4d/pool_proj
I0309 05:03:59.557940  9646 net.cpp:399] inception_4d/output -> inception_4d/output
I0309 05:03:59.557986  9646 net.cpp:141] Setting up inception_4d/output
I0309 05:03:59.558022  9646 net.cpp:148] Top shape: 32 528 14 14 (3311616)
I0309 05:03:59.558044  9646 net.cpp:156] Memory required for data: 1543099908
I0309 05:03:59.558066  9646 layer_factory.hpp:77] Creating layer inception_4d/output_inception_4d/output_0_split
I0309 05:03:59.558092  9646 net.cpp:91] Creating Layer inception_4d/output_inception_4d/output_0_split
I0309 05:03:59.558116  9646 net.cpp:425] inception_4d/output_inception_4d/output_0_split <- inception_4d/output
I0309 05:03:59.558145  9646 net.cpp:399] inception_4d/output_inception_4d/output_0_split -> inception_4d/output_inception_4d/output_0_split_0
I0309 05:03:59.558172  9646 net.cpp:399] inception_4d/output_inception_4d/output_0_split -> inception_4d/output_inception_4d/output_0_split_1
I0309 05:03:59.558202  9646 net.cpp:399] inception_4d/output_inception_4d/output_0_split -> inception_4d/output_inception_4d/output_0_split_2
I0309 05:03:59.558230  9646 net.cpp:399] inception_4d/output_inception_4d/output_0_split -> inception_4d/output_inception_4d/output_0_split_3
I0309 05:03:59.558257  9646 net.cpp:399] inception_4d/output_inception_4d/output_0_split -> inception_4d/output_inception_4d/output_0_split_4
I0309 05:03:59.558339  9646 net.cpp:141] Setting up inception_4d/output_inception_4d/output_0_split
I0309 05:03:59.558370  9646 net.cpp:148] Top shape: 32 528 14 14 (3311616)
I0309 05:03:59.558394  9646 net.cpp:148] Top shape: 32 528 14 14 (3311616)
I0309 05:03:59.558418  9646 net.cpp:148] Top shape: 32 528 14 14 (3311616)
I0309 05:03:59.558440  9646 net.cpp:148] Top shape: 32 528 14 14 (3311616)
I0309 05:03:59.558465  9646 net.cpp:148] Top shape: 32 528 14 14 (3311616)
I0309 05:03:59.558497  9646 net.cpp:156] Memory required for data: 1609332228
I0309 05:03:59.558534  9646 layer_factory.hpp:77] Creating layer loss2/ave_pool
I0309 05:03:59.558560  9646 net.cpp:91] Creating Layer loss2/ave_pool
I0309 05:03:59.558583  9646 net.cpp:425] loss2/ave_pool <- inception_4d/output_inception_4d/output_0_split_0
I0309 05:03:59.558609  9646 net.cpp:399] loss2/ave_pool -> loss2/ave_pool
I0309 05:03:59.558655  9646 net.cpp:141] Setting up loss2/ave_pool
I0309 05:03:59.558686  9646 net.cpp:148] Top shape: 32 528 4 4 (270336)
I0309 05:03:59.558708  9646 net.cpp:156] Memory required for data: 1610413572
I0309 05:03:59.558730  9646 layer_factory.hpp:77] Creating layer loss2/conv
I0309 05:03:59.558760  9646 net.cpp:91] Creating Layer loss2/conv
I0309 05:03:59.558784  9646 net.cpp:425] loss2/conv <- loss2/ave_pool
I0309 05:03:59.558828  9646 net.cpp:399] loss2/conv -> loss2/conv
I0309 05:03:59.559979  9646 net.cpp:141] Setting up loss2/conv
I0309 05:03:59.560020  9646 net.cpp:148] Top shape: 32 128 4 4 (65536)
I0309 05:03:59.560045  9646 net.cpp:156] Memory required for data: 1610675716
I0309 05:03:59.560070  9646 layer_factory.hpp:77] Creating layer loss2/relu_conv
I0309 05:03:59.560097  9646 net.cpp:91] Creating Layer loss2/relu_conv
I0309 05:03:59.560122  9646 net.cpp:425] loss2/relu_conv <- loss2/conv
I0309 05:03:59.560147  9646 net.cpp:386] loss2/relu_conv -> loss2/conv (in-place)
I0309 05:03:59.560174  9646 net.cpp:141] Setting up loss2/relu_conv
I0309 05:03:59.560200  9646 net.cpp:148] Top shape: 32 128 4 4 (65536)
I0309 05:03:59.560221  9646 net.cpp:156] Memory required for data: 1610937860
I0309 05:03:59.560242  9646 layer_factory.hpp:77] Creating layer loss2/fc
I0309 05:03:59.560273  9646 net.cpp:91] Creating Layer loss2/fc
I0309 05:03:59.560297  9646 net.cpp:425] loss2/fc <- loss2/conv
I0309 05:03:59.560322  9646 net.cpp:399] loss2/fc -> loss2/fc
I0309 05:03:59.577321  9646 net.cpp:141] Setting up loss2/fc
I0309 05:03:59.577368  9646 net.cpp:148] Top shape: 32 1024 (32768)
I0309 05:03:59.577391  9646 net.cpp:156] Memory required for data: 1611068932
I0309 05:03:59.577417  9646 layer_factory.hpp:77] Creating layer loss2/relu_fc
I0309 05:03:59.577443  9646 net.cpp:91] Creating Layer loss2/relu_fc
I0309 05:03:59.577467  9646 net.cpp:425] loss2/relu_fc <- loss2/fc
I0309 05:03:59.577491  9646 net.cpp:386] loss2/relu_fc -> loss2/fc (in-place)
I0309 05:03:59.577523  9646 net.cpp:141] Setting up loss2/relu_fc
I0309 05:03:59.577548  9646 net.cpp:148] Top shape: 32 1024 (32768)
I0309 05:03:59.577570  9646 net.cpp:156] Memory required for data: 1611200004
I0309 05:03:59.577592  9646 layer_factory.hpp:77] Creating layer loss2/drop_fc
I0309 05:03:59.577618  9646 net.cpp:91] Creating Layer loss2/drop_fc
I0309 05:03:59.577641  9646 net.cpp:425] loss2/drop_fc <- loss2/fc
I0309 05:03:59.577664  9646 net.cpp:386] loss2/drop_fc -> loss2/fc (in-place)
I0309 05:03:59.577711  9646 net.cpp:141] Setting up loss2/drop_fc
I0309 05:03:59.577741  9646 net.cpp:148] Top shape: 32 1024 (32768)
I0309 05:03:59.577764  9646 net.cpp:156] Memory required for data: 1611331076
I0309 05:03:59.577786  9646 layer_factory.hpp:77] Creating layer loss2/classifier
I0309 05:03:59.577813  9646 net.cpp:91] Creating Layer loss2/classifier
I0309 05:03:59.577837  9646 net.cpp:425] loss2/classifier <- loss2/fc
I0309 05:03:59.577865  9646 net.cpp:399] loss2/classifier -> loss2/classifier
I0309 05:03:59.586669  9646 net.cpp:141] Setting up loss2/classifier
I0309 05:03:59.586709  9646 net.cpp:148] Top shape: 32 1000 (32000)
I0309 05:03:59.586733  9646 net.cpp:156] Memory required for data: 1611459076
I0309 05:03:59.586760  9646 layer_factory.hpp:77] Creating layer loss2/loss
I0309 05:03:59.586787  9646 net.cpp:91] Creating Layer loss2/loss
I0309 05:03:59.586812  9646 net.cpp:425] loss2/loss <- loss2/classifier
I0309 05:03:59.586836  9646 net.cpp:425] loss2/loss <- label_data_1_split_1
I0309 05:03:59.586861  9646 net.cpp:399] loss2/loss -> loss2/loss1
I0309 05:03:59.586892  9646 layer_factory.hpp:77] Creating layer loss2/loss
I0309 05:03:59.587568  9646 net.cpp:141] Setting up loss2/loss
I0309 05:03:59.587651  9646 net.cpp:148] Top shape: (1)
I0309 05:03:59.587677  9646 net.cpp:151]     with loss weight 0.3
I0309 05:03:59.587713  9646 net.cpp:156] Memory required for data: 1611459080
I0309 05:03:59.587735  9646 layer_factory.hpp:77] Creating layer inception_4e/1x1
I0309 05:03:59.587765  9646 net.cpp:91] Creating Layer inception_4e/1x1
I0309 05:03:59.587790  9646 net.cpp:425] inception_4e/1x1 <- inception_4d/output_inception_4d/output_0_split_1
I0309 05:03:59.587817  9646 net.cpp:399] inception_4e/1x1 -> inception_4e/1x1
I0309 05:03:59.588959  9646 net.cpp:141] Setting up inception_4e/1x1
I0309 05:03:59.588994  9646 net.cpp:148] Top shape: 32 256 14 14 (1605632)
I0309 05:03:59.589033  9646 net.cpp:156] Memory required for data: 1617881608
I0309 05:03:59.589058  9646 layer_factory.hpp:77] Creating layer inception_4e/relu_1x1
I0309 05:03:59.589083  9646 net.cpp:91] Creating Layer inception_4e/relu_1x1
I0309 05:03:59.589105  9646 net.cpp:425] inception_4e/relu_1x1 <- inception_4e/1x1
I0309 05:03:59.589133  9646 net.cpp:386] inception_4e/relu_1x1 -> inception_4e/1x1 (in-place)
I0309 05:03:59.589160  9646 net.cpp:141] Setting up inception_4e/relu_1x1
I0309 05:03:59.589184  9646 net.cpp:148] Top shape: 32 256 14 14 (1605632)
I0309 05:03:59.589205  9646 net.cpp:156] Memory required for data: 1624304136
I0309 05:03:59.589226  9646 layer_factory.hpp:77] Creating layer inception_4e/3x3_reduce
I0309 05:03:59.589256  9646 net.cpp:91] Creating Layer inception_4e/3x3_reduce
I0309 05:03:59.589278  9646 net.cpp:425] inception_4e/3x3_reduce <- inception_4d/output_inception_4d/output_0_split_2
I0309 05:03:59.589304  9646 net.cpp:399] inception_4e/3x3_reduce -> inception_4e/3x3_reduce
I0309 05:03:59.590549  9646 net.cpp:141] Setting up inception_4e/3x3_reduce
I0309 05:03:59.590585  9646 net.cpp:148] Top shape: 32 160 14 14 (1003520)
I0309 05:03:59.590607  9646 net.cpp:156] Memory required for data: 1628318216
I0309 05:03:59.590633  9646 layer_factory.hpp:77] Creating layer inception_4e/relu_3x3_reduce
I0309 05:03:59.590657  9646 net.cpp:91] Creating Layer inception_4e/relu_3x3_reduce
I0309 05:03:59.590680  9646 net.cpp:425] inception_4e/relu_3x3_reduce <- inception_4e/3x3_reduce
I0309 05:03:59.590706  9646 net.cpp:386] inception_4e/relu_3x3_reduce -> inception_4e/3x3_reduce (in-place)
I0309 05:03:59.590734  9646 net.cpp:141] Setting up inception_4e/relu_3x3_reduce
I0309 05:03:59.590759  9646 net.cpp:148] Top shape: 32 160 14 14 (1003520)
I0309 05:03:59.590780  9646 net.cpp:156] Memory required for data: 1632332296
I0309 05:03:59.590801  9646 layer_factory.hpp:77] Creating layer inception_4e/3x3
I0309 05:03:59.590828  9646 net.cpp:91] Creating Layer inception_4e/3x3
I0309 05:03:59.590852  9646 net.cpp:425] inception_4e/3x3 <- inception_4e/3x3_reduce
I0309 05:03:59.590879  9646 net.cpp:399] inception_4e/3x3 -> inception_4e/3x3
I0309 05:03:59.595047  9646 net.cpp:141] Setting up inception_4e/3x3
I0309 05:03:59.595085  9646 net.cpp:148] Top shape: 32 320 14 14 (2007040)
I0309 05:03:59.595108  9646 net.cpp:156] Memory required for data: 1640360456
I0309 05:03:59.595134  9646 layer_factory.hpp:77] Creating layer inception_4e/relu_3x3
I0309 05:03:59.595160  9646 net.cpp:91] Creating Layer inception_4e/relu_3x3
I0309 05:03:59.595183  9646 net.cpp:425] inception_4e/relu_3x3 <- inception_4e/3x3
I0309 05:03:59.595211  9646 net.cpp:386] inception_4e/relu_3x3 -> inception_4e/3x3 (in-place)
I0309 05:03:59.595239  9646 net.cpp:141] Setting up inception_4e/relu_3x3
I0309 05:03:59.595265  9646 net.cpp:148] Top shape: 32 320 14 14 (2007040)
I0309 05:03:59.595286  9646 net.cpp:156] Memory required for data: 1648388616
I0309 05:03:59.595309  9646 layer_factory.hpp:77] Creating layer inception_4e/5x5_reduce
I0309 05:03:59.595336  9646 net.cpp:91] Creating Layer inception_4e/5x5_reduce
I0309 05:03:59.595360  9646 net.cpp:425] inception_4e/5x5_reduce <- inception_4d/output_inception_4d/output_0_split_3
I0309 05:03:59.595389  9646 net.cpp:399] inception_4e/5x5_reduce -> inception_4e/5x5_reduce
I0309 05:03:59.595718  9646 net.cpp:141] Setting up inception_4e/5x5_reduce
I0309 05:03:59.595768  9646 net.cpp:148] Top shape: 32 32 14 14 (200704)
I0309 05:03:59.595791  9646 net.cpp:156] Memory required for data: 1649191432
I0309 05:03:59.595818  9646 layer_factory.hpp:77] Creating layer inception_4e/relu_5x5_reduce
I0309 05:03:59.595844  9646 net.cpp:91] Creating Layer inception_4e/relu_5x5_reduce
I0309 05:03:59.595866  9646 net.cpp:425] inception_4e/relu_5x5_reduce <- inception_4e/5x5_reduce
I0309 05:03:59.595890  9646 net.cpp:386] inception_4e/relu_5x5_reduce -> inception_4e/5x5_reduce (in-place)
I0309 05:03:59.595918  9646 net.cpp:141] Setting up inception_4e/relu_5x5_reduce
I0309 05:03:59.595943  9646 net.cpp:148] Top shape: 32 32 14 14 (200704)
I0309 05:03:59.595964  9646 net.cpp:156] Memory required for data: 1649994248
I0309 05:03:59.595986  9646 layer_factory.hpp:77] Creating layer inception_4e/5x5
I0309 05:03:59.596041  9646 net.cpp:91] Creating Layer inception_4e/5x5
I0309 05:03:59.596070  9646 net.cpp:425] inception_4e/5x5 <- inception_4e/5x5_reduce
I0309 05:03:59.596099  9646 net.cpp:399] inception_4e/5x5 -> inception_4e/5x5
I0309 05:03:59.596915  9646 net.cpp:141] Setting up inception_4e/5x5
I0309 05:03:59.596948  9646 net.cpp:148] Top shape: 32 128 14 14 (802816)
I0309 05:03:59.596971  9646 net.cpp:156] Memory required for data: 1653205512
I0309 05:03:59.596997  9646 layer_factory.hpp:77] Creating layer inception_4e/relu_5x5
I0309 05:03:59.597028  9646 net.cpp:91] Creating Layer inception_4e/relu_5x5
I0309 05:03:59.597051  9646 net.cpp:425] inception_4e/relu_5x5 <- inception_4e/5x5
I0309 05:03:59.597079  9646 net.cpp:386] inception_4e/relu_5x5 -> inception_4e/5x5 (in-place)
I0309 05:03:59.597106  9646 net.cpp:141] Setting up inception_4e/relu_5x5
I0309 05:03:59.597131  9646 net.cpp:148] Top shape: 32 128 14 14 (802816)
I0309 05:03:59.597153  9646 net.cpp:156] Memory required for data: 1656416776
I0309 05:03:59.597174  9646 layer_factory.hpp:77] Creating layer inception_4e/pool
I0309 05:03:59.597199  9646 net.cpp:91] Creating Layer inception_4e/pool
I0309 05:03:59.597223  9646 net.cpp:425] inception_4e/pool <- inception_4d/output_inception_4d/output_0_split_4
I0309 05:03:59.597250  9646 net.cpp:399] inception_4e/pool -> inception_4e/pool
I0309 05:03:59.597309  9646 net.cpp:141] Setting up inception_4e/pool
I0309 05:03:59.597339  9646 net.cpp:148] Top shape: 32 528 14 14 (3311616)
I0309 05:03:59.597362  9646 net.cpp:156] Memory required for data: 1669663240
I0309 05:03:59.597383  9646 layer_factory.hpp:77] Creating layer inception_4e/pool_proj
I0309 05:03:59.597411  9646 net.cpp:91] Creating Layer inception_4e/pool_proj
I0309 05:03:59.597435  9646 net.cpp:425] inception_4e/pool_proj <- inception_4e/pool
I0309 05:03:59.597463  9646 net.cpp:399] inception_4e/pool_proj -> inception_4e/pool_proj
I0309 05:03:59.598129  9646 net.cpp:141] Setting up inception_4e/pool_proj
I0309 05:03:59.598162  9646 net.cpp:148] Top shape: 32 128 14 14 (802816)
I0309 05:03:59.598184  9646 net.cpp:156] Memory required for data: 1672874504
I0309 05:03:59.598208  9646 layer_factory.hpp:77] Creating layer inception_4e/relu_pool_proj
I0309 05:03:59.598232  9646 net.cpp:91] Creating Layer inception_4e/relu_pool_proj
I0309 05:03:59.598255  9646 net.cpp:425] inception_4e/relu_pool_proj <- inception_4e/pool_proj
I0309 05:03:59.598278  9646 net.cpp:386] inception_4e/relu_pool_proj -> inception_4e/pool_proj (in-place)
I0309 05:03:59.598304  9646 net.cpp:141] Setting up inception_4e/relu_pool_proj
I0309 05:03:59.598328  9646 net.cpp:148] Top shape: 32 128 14 14 (802816)
I0309 05:03:59.598350  9646 net.cpp:156] Memory required for data: 1676085768
I0309 05:03:59.598371  9646 layer_factory.hpp:77] Creating layer inception_4e/output
I0309 05:03:59.598393  9646 net.cpp:91] Creating Layer inception_4e/output
I0309 05:03:59.598417  9646 net.cpp:425] inception_4e/output <- inception_4e/1x1
I0309 05:03:59.598438  9646 net.cpp:425] inception_4e/output <- inception_4e/3x3
I0309 05:03:59.598461  9646 net.cpp:425] inception_4e/output <- inception_4e/5x5
I0309 05:03:59.598495  9646 net.cpp:425] inception_4e/output <- inception_4e/pool_proj
I0309 05:03:59.598537  9646 net.cpp:399] inception_4e/output -> inception_4e/output
I0309 05:03:59.598584  9646 net.cpp:141] Setting up inception_4e/output
I0309 05:03:59.598616  9646 net.cpp:148] Top shape: 32 832 14 14 (5218304)
I0309 05:03:59.598639  9646 net.cpp:156] Memory required for data: 1696958984
I0309 05:03:59.598659  9646 layer_factory.hpp:77] Creating layer pool4/3x3_s2
I0309 05:03:59.598683  9646 net.cpp:91] Creating Layer pool4/3x3_s2
I0309 05:03:59.598706  9646 net.cpp:425] pool4/3x3_s2 <- inception_4e/output
I0309 05:03:59.598731  9646 net.cpp:399] pool4/3x3_s2 -> pool4/3x3_s2
I0309 05:03:59.598788  9646 net.cpp:141] Setting up pool4/3x3_s2
I0309 05:03:59.598817  9646 net.cpp:148] Top shape: 32 832 7 7 (1304576)
I0309 05:03:59.598839  9646 net.cpp:156] Memory required for data: 1702177288
I0309 05:03:59.598860  9646 layer_factory.hpp:77] Creating layer pool4/3x3_s2_pool4/3x3_s2_0_split
I0309 05:03:59.598883  9646 net.cpp:91] Creating Layer pool4/3x3_s2_pool4/3x3_s2_0_split
I0309 05:03:59.598904  9646 net.cpp:425] pool4/3x3_s2_pool4/3x3_s2_0_split <- pool4/3x3_s2
I0309 05:03:59.598930  9646 net.cpp:399] pool4/3x3_s2_pool4/3x3_s2_0_split -> pool4/3x3_s2_pool4/3x3_s2_0_split_0
I0309 05:03:59.598958  9646 net.cpp:399] pool4/3x3_s2_pool4/3x3_s2_0_split -> pool4/3x3_s2_pool4/3x3_s2_0_split_1
I0309 05:03:59.598984  9646 net.cpp:399] pool4/3x3_s2_pool4/3x3_s2_0_split -> pool4/3x3_s2_pool4/3x3_s2_0_split_2
I0309 05:03:59.599014  9646 net.cpp:399] pool4/3x3_s2_pool4/3x3_s2_0_split -> pool4/3x3_s2_pool4/3x3_s2_0_split_3
I0309 05:03:59.599089  9646 net.cpp:141] Setting up pool4/3x3_s2_pool4/3x3_s2_0_split
I0309 05:03:59.599123  9646 net.cpp:148] Top shape: 32 832 7 7 (1304576)
I0309 05:03:59.599145  9646 net.cpp:148] Top shape: 32 832 7 7 (1304576)
I0309 05:03:59.599169  9646 net.cpp:148] Top shape: 32 832 7 7 (1304576)
I0309 05:03:59.599190  9646 net.cpp:148] Top shape: 32 832 7 7 (1304576)
I0309 05:03:59.599210  9646 net.cpp:156] Memory required for data: 1723050504
I0309 05:03:59.599231  9646 layer_factory.hpp:77] Creating layer inception_5a/1x1
I0309 05:03:59.599262  9646 net.cpp:91] Creating Layer inception_5a/1x1
I0309 05:03:59.599287  9646 net.cpp:425] inception_5a/1x1 <- pool4/3x3_s2_pool4/3x3_s2_0_split_0
I0309 05:03:59.599311  9646 net.cpp:399] inception_5a/1x1 -> inception_5a/1x1
I0309 05:03:59.601305  9646 net.cpp:141] Setting up inception_5a/1x1
I0309 05:03:59.601343  9646 net.cpp:148] Top shape: 32 256 7 7 (401408)
I0309 05:03:59.601366  9646 net.cpp:156] Memory required for data: 1724656136
I0309 05:03:59.601390  9646 layer_factory.hpp:77] Creating layer inception_5a/relu_1x1
I0309 05:03:59.601415  9646 net.cpp:91] Creating Layer inception_5a/relu_1x1
I0309 05:03:59.601438  9646 net.cpp:425] inception_5a/relu_1x1 <- inception_5a/1x1
I0309 05:03:59.601461  9646 net.cpp:386] inception_5a/relu_1x1 -> inception_5a/1x1 (in-place)
I0309 05:03:59.601488  9646 net.cpp:141] Setting up inception_5a/relu_1x1
I0309 05:03:59.601512  9646 net.cpp:148] Top shape: 32 256 7 7 (401408)
I0309 05:03:59.601533  9646 net.cpp:156] Memory required for data: 1726261768
I0309 05:03:59.601553  9646 layer_factory.hpp:77] Creating layer inception_5a/3x3_reduce
I0309 05:03:59.601584  9646 net.cpp:91] Creating Layer inception_5a/3x3_reduce
I0309 05:03:59.601608  9646 net.cpp:425] inception_5a/3x3_reduce <- pool4/3x3_s2_pool4/3x3_s2_0_split_1
I0309 05:03:59.601634  9646 net.cpp:399] inception_5a/3x3_reduce -> inception_5a/3x3_reduce
I0309 05:03:59.603242  9646 net.cpp:141] Setting up inception_5a/3x3_reduce
I0309 05:03:59.603279  9646 net.cpp:148] Top shape: 32 160 7 7 (250880)
I0309 05:03:59.603303  9646 net.cpp:156] Memory required for data: 1727265288
I0309 05:03:59.603328  9646 layer_factory.hpp:77] Creating layer inception_5a/relu_3x3_reduce
I0309 05:03:59.603354  9646 net.cpp:91] Creating Layer inception_5a/relu_3x3_reduce
I0309 05:03:59.603377  9646 net.cpp:425] inception_5a/relu_3x3_reduce <- inception_5a/3x3_reduce
I0309 05:03:59.603402  9646 net.cpp:386] inception_5a/relu_3x3_reduce -> inception_5a/3x3_reduce (in-place)
I0309 05:03:59.603456  9646 net.cpp:141] Setting up inception_5a/relu_3x3_reduce
I0309 05:03:59.603483  9646 net.cpp:148] Top shape: 32 160 7 7 (250880)
I0309 05:03:59.603505  9646 net.cpp:156] Memory required for data: 1728268808
I0309 05:03:59.603528  9646 layer_factory.hpp:77] Creating layer inception_5a/3x3
I0309 05:03:59.603560  9646 net.cpp:91] Creating Layer inception_5a/3x3
I0309 05:03:59.603587  9646 net.cpp:425] inception_5a/3x3 <- inception_5a/3x3_reduce
I0309 05:03:59.603615  9646 net.cpp:399] inception_5a/3x3 -> inception_5a/3x3
I0309 05:03:59.607705  9646 net.cpp:141] Setting up inception_5a/3x3
I0309 05:03:59.607743  9646 net.cpp:148] Top shape: 32 320 7 7 (501760)
I0309 05:03:59.607765  9646 net.cpp:156] Memory required for data: 1730275848
I0309 05:03:59.607790  9646 layer_factory.hpp:77] Creating layer inception_5a/relu_3x3
I0309 05:03:59.607815  9646 net.cpp:91] Creating Layer inception_5a/relu_3x3
I0309 05:03:59.607838  9646 net.cpp:425] inception_5a/relu_3x3 <- inception_5a/3x3
I0309 05:03:59.607862  9646 net.cpp:386] inception_5a/relu_3x3 -> inception_5a/3x3 (in-place)
I0309 05:03:59.607889  9646 net.cpp:141] Setting up inception_5a/relu_3x3
I0309 05:03:59.607914  9646 net.cpp:148] Top shape: 32 320 7 7 (501760)
I0309 05:03:59.607935  9646 net.cpp:156] Memory required for data: 1732282888
I0309 05:03:59.607956  9646 layer_factory.hpp:77] Creating layer inception_5a/5x5_reduce
I0309 05:03:59.607986  9646 net.cpp:91] Creating Layer inception_5a/5x5_reduce
I0309 05:03:59.608014  9646 net.cpp:425] inception_5a/5x5_reduce <- pool4/3x3_s2_pool4/3x3_s2_0_split_2
I0309 05:03:59.608043  9646 net.cpp:399] inception_5a/5x5_reduce -> inception_5a/5x5_reduce
I0309 05:03:59.608428  9646 net.cpp:141] Setting up inception_5a/5x5_reduce
I0309 05:03:59.608461  9646 net.cpp:148] Top shape: 32 32 7 7 (50176)
I0309 05:03:59.608484  9646 net.cpp:156] Memory required for data: 1732483592
I0309 05:03:59.608508  9646 layer_factory.hpp:77] Creating layer inception_5a/relu_5x5_reduce
I0309 05:03:59.608533  9646 net.cpp:91] Creating Layer inception_5a/relu_5x5_reduce
I0309 05:03:59.608556  9646 net.cpp:425] inception_5a/relu_5x5_reduce <- inception_5a/5x5_reduce
I0309 05:03:59.608580  9646 net.cpp:386] inception_5a/relu_5x5_reduce -> inception_5a/5x5_reduce (in-place)
I0309 05:03:59.608606  9646 net.cpp:141] Setting up inception_5a/relu_5x5_reduce
I0309 05:03:59.608631  9646 net.cpp:148] Top shape: 32 32 7 7 (50176)
I0309 05:03:59.608652  9646 net.cpp:156] Memory required for data: 1732684296
I0309 05:03:59.608674  9646 layer_factory.hpp:77] Creating layer inception_5a/5x5
I0309 05:03:59.608703  9646 net.cpp:91] Creating Layer inception_5a/5x5
I0309 05:03:59.608727  9646 net.cpp:425] inception_5a/5x5 <- inception_5a/5x5_reduce
I0309 05:03:59.608757  9646 net.cpp:399] inception_5a/5x5 -> inception_5a/5x5
I0309 05:03:59.609575  9646 net.cpp:141] Setting up inception_5a/5x5
I0309 05:03:59.609609  9646 net.cpp:148] Top shape: 32 128 7 7 (200704)
I0309 05:03:59.609630  9646 net.cpp:156] Memory required for data: 1733487112
I0309 05:03:59.609655  9646 layer_factory.hpp:77] Creating layer inception_5a/relu_5x5
I0309 05:03:59.609679  9646 net.cpp:91] Creating Layer inception_5a/relu_5x5
I0309 05:03:59.609702  9646 net.cpp:425] inception_5a/relu_5x5 <- inception_5a/5x5
I0309 05:03:59.609726  9646 net.cpp:386] inception_5a/relu_5x5 -> inception_5a/5x5 (in-place)
I0309 05:03:59.609752  9646 net.cpp:141] Setting up inception_5a/relu_5x5
I0309 05:03:59.609777  9646 net.cpp:148] Top shape: 32 128 7 7 (200704)
I0309 05:03:59.609798  9646 net.cpp:156] Memory required for data: 1734289928
I0309 05:03:59.609819  9646 layer_factory.hpp:77] Creating layer inception_5a/pool
I0309 05:03:59.609843  9646 net.cpp:91] Creating Layer inception_5a/pool
I0309 05:03:59.609866  9646 net.cpp:425] inception_5a/pool <- pool4/3x3_s2_pool4/3x3_s2_0_split_3
I0309 05:03:59.609894  9646 net.cpp:399] inception_5a/pool -> inception_5a/pool
I0309 05:03:59.609951  9646 net.cpp:141] Setting up inception_5a/pool
I0309 05:03:59.609993  9646 net.cpp:148] Top shape: 32 832 7 7 (1304576)
I0309 05:03:59.610035  9646 net.cpp:156] Memory required for data: 1739508232
I0309 05:03:59.610057  9646 layer_factory.hpp:77] Creating layer inception_5a/pool_proj
I0309 05:03:59.610090  9646 net.cpp:91] Creating Layer inception_5a/pool_proj
I0309 05:03:59.610113  9646 net.cpp:425] inception_5a/pool_proj <- inception_5a/pool
I0309 05:03:59.610139  9646 net.cpp:399] inception_5a/pool_proj -> inception_5a/pool_proj
I0309 05:03:59.611539  9646 net.cpp:141] Setting up inception_5a/pool_proj
I0309 05:03:59.611577  9646 net.cpp:148] Top shape: 32 128 7 7 (200704)
I0309 05:03:59.611613  9646 net.cpp:156] Memory required for data: 1740311048
I0309 05:03:59.611639  9646 layer_factory.hpp:77] Creating layer inception_5a/relu_pool_proj
I0309 05:03:59.611665  9646 net.cpp:91] Creating Layer inception_5a/relu_pool_proj
I0309 05:03:59.611688  9646 net.cpp:425] inception_5a/relu_pool_proj <- inception_5a/pool_proj
I0309 05:03:59.611714  9646 net.cpp:386] inception_5a/relu_pool_proj -> inception_5a/pool_proj (in-place)
I0309 05:03:59.611742  9646 net.cpp:141] Setting up inception_5a/relu_pool_proj
I0309 05:03:59.611768  9646 net.cpp:148] Top shape: 32 128 7 7 (200704)
I0309 05:03:59.611790  9646 net.cpp:156] Memory required for data: 1741113864
I0309 05:03:59.611812  9646 layer_factory.hpp:77] Creating layer inception_5a/output
I0309 05:03:59.611842  9646 net.cpp:91] Creating Layer inception_5a/output
I0309 05:03:59.611866  9646 net.cpp:425] inception_5a/output <- inception_5a/1x1
I0309 05:03:59.611891  9646 net.cpp:425] inception_5a/output <- inception_5a/3x3
I0309 05:03:59.611914  9646 net.cpp:425] inception_5a/output <- inception_5a/5x5
I0309 05:03:59.611938  9646 net.cpp:425] inception_5a/output <- inception_5a/pool_proj
I0309 05:03:59.611963  9646 net.cpp:399] inception_5a/output -> inception_5a/output
I0309 05:03:59.612015  9646 net.cpp:141] Setting up inception_5a/output
I0309 05:03:59.612047  9646 net.cpp:148] Top shape: 32 832 7 7 (1304576)
I0309 05:03:59.612069  9646 net.cpp:156] Memory required for data: 1746332168
I0309 05:03:59.612092  9646 layer_factory.hpp:77] Creating layer inception_5a/output_inception_5a/output_0_split
I0309 05:03:59.612118  9646 net.cpp:91] Creating Layer inception_5a/output_inception_5a/output_0_split
I0309 05:03:59.612141  9646 net.cpp:425] inception_5a/output_inception_5a/output_0_split <- inception_5a/output
I0309 05:03:59.612166  9646 net.cpp:399] inception_5a/output_inception_5a/output_0_split -> inception_5a/output_inception_5a/output_0_split_0
I0309 05:03:59.612196  9646 net.cpp:399] inception_5a/output_inception_5a/output_0_split -> inception_5a/output_inception_5a/output_0_split_1
I0309 05:03:59.612226  9646 net.cpp:399] inception_5a/output_inception_5a/output_0_split -> inception_5a/output_inception_5a/output_0_split_2
I0309 05:03:59.612256  9646 net.cpp:399] inception_5a/output_inception_5a/output_0_split -> inception_5a/output_inception_5a/output_0_split_3
I0309 05:03:59.612330  9646 net.cpp:141] Setting up inception_5a/output_inception_5a/output_0_split
I0309 05:03:59.612361  9646 net.cpp:148] Top shape: 32 832 7 7 (1304576)
I0309 05:03:59.612385  9646 net.cpp:148] Top shape: 32 832 7 7 (1304576)
I0309 05:03:59.612409  9646 net.cpp:148] Top shape: 32 832 7 7 (1304576)
I0309 05:03:59.612433  9646 net.cpp:148] Top shape: 32 832 7 7 (1304576)
I0309 05:03:59.612454  9646 net.cpp:156] Memory required for data: 1767205384
I0309 05:03:59.612476  9646 layer_factory.hpp:77] Creating layer inception_5b/1x1
I0309 05:03:59.612507  9646 net.cpp:91] Creating Layer inception_5b/1x1
I0309 05:03:59.612532  9646 net.cpp:425] inception_5b/1x1 <- inception_5a/output_inception_5a/output_0_split_0
I0309 05:03:59.612558  9646 net.cpp:399] inception_5b/1x1 -> inception_5b/1x1
I0309 05:03:59.615298  9646 net.cpp:141] Setting up inception_5b/1x1
I0309 05:03:59.615335  9646 net.cpp:148] Top shape: 32 384 7 7 (602112)
I0309 05:03:59.615360  9646 net.cpp:156] Memory required for data: 1769613832
I0309 05:03:59.615384  9646 layer_factory.hpp:77] Creating layer inception_5b/relu_1x1
I0309 05:03:59.615458  9646 net.cpp:91] Creating Layer inception_5b/relu_1x1
I0309 05:03:59.615483  9646 net.cpp:425] inception_5b/relu_1x1 <- inception_5b/1x1
I0309 05:03:59.615522  9646 net.cpp:386] inception_5b/relu_1x1 -> inception_5b/1x1 (in-place)
I0309 05:03:59.615552  9646 net.cpp:141] Setting up inception_5b/relu_1x1
I0309 05:03:59.615579  9646 net.cpp:148] Top shape: 32 384 7 7 (602112)
I0309 05:03:59.615602  9646 net.cpp:156] Memory required for data: 1772022280
I0309 05:03:59.615624  9646 layer_factory.hpp:77] Creating layer inception_5b/3x3_reduce
I0309 05:03:59.615667  9646 net.cpp:91] Creating Layer inception_5b/3x3_reduce
I0309 05:03:59.615692  9646 net.cpp:425] inception_5b/3x3_reduce <- inception_5a/output_inception_5a/output_0_split_1
I0309 05:03:59.615722  9646 net.cpp:399] inception_5b/3x3_reduce -> inception_5b/3x3_reduce
I0309 05:03:59.617444  9646 net.cpp:141] Setting up inception_5b/3x3_reduce
I0309 05:03:59.617481  9646 net.cpp:148] Top shape: 32 192 7 7 (301056)
I0309 05:03:59.617503  9646 net.cpp:156] Memory required for data: 1773226504
I0309 05:03:59.617529  9646 layer_factory.hpp:77] Creating layer inception_5b/relu_3x3_reduce
I0309 05:03:59.617554  9646 net.cpp:91] Creating Layer inception_5b/relu_3x3_reduce
I0309 05:03:59.617578  9646 net.cpp:425] inception_5b/relu_3x3_reduce <- inception_5b/3x3_reduce
I0309 05:03:59.617601  9646 net.cpp:386] inception_5b/relu_3x3_reduce -> inception_5b/3x3_reduce (in-place)
I0309 05:03:59.617629  9646 net.cpp:141] Setting up inception_5b/relu_3x3_reduce
I0309 05:03:59.617653  9646 net.cpp:148] Top shape: 32 192 7 7 (301056)
I0309 05:03:59.617674  9646 net.cpp:156] Memory required for data: 1774430728
I0309 05:03:59.617696  9646 layer_factory.hpp:77] Creating layer inception_5b/3x3
I0309 05:03:59.617725  9646 net.cpp:91] Creating Layer inception_5b/3x3
I0309 05:03:59.617749  9646 net.cpp:425] inception_5b/3x3 <- inception_5b/3x3_reduce
I0309 05:03:59.617777  9646 net.cpp:399] inception_5b/3x3 -> inception_5b/3x3
I0309 05:03:59.623499  9646 net.cpp:141] Setting up inception_5b/3x3
I0309 05:03:59.623538  9646 net.cpp:148] Top shape: 32 384 7 7 (602112)
I0309 05:03:59.623561  9646 net.cpp:156] Memory required for data: 1776839176
I0309 05:03:59.623587  9646 layer_factory.hpp:77] Creating layer inception_5b/relu_3x3
I0309 05:03:59.623615  9646 net.cpp:91] Creating Layer inception_5b/relu_3x3
I0309 05:03:59.623641  9646 net.cpp:425] inception_5b/relu_3x3 <- inception_5b/3x3
I0309 05:03:59.623666  9646 net.cpp:386] inception_5b/relu_3x3 -> inception_5b/3x3 (in-place)
I0309 05:03:59.623694  9646 net.cpp:141] Setting up inception_5b/relu_3x3
I0309 05:03:59.623720  9646 net.cpp:148] Top shape: 32 384 7 7 (602112)
I0309 05:03:59.623742  9646 net.cpp:156] Memory required for data: 1779247624
I0309 05:03:59.623764  9646 layer_factory.hpp:77] Creating layer inception_5b/5x5_reduce
I0309 05:03:59.623795  9646 net.cpp:91] Creating Layer inception_5b/5x5_reduce
I0309 05:03:59.623821  9646 net.cpp:425] inception_5b/5x5_reduce <- inception_5a/output_inception_5a/output_0_split_2
I0309 05:03:59.623847  9646 net.cpp:399] inception_5b/5x5_reduce -> inception_5b/5x5_reduce
I0309 05:03:59.624317  9646 net.cpp:141] Setting up inception_5b/5x5_reduce
I0309 05:03:59.624351  9646 net.cpp:148] Top shape: 32 48 7 7 (75264)
I0309 05:03:59.624373  9646 net.cpp:156] Memory required for data: 1779548680
I0309 05:03:59.624397  9646 layer_factory.hpp:77] Creating layer inception_5b/relu_5x5_reduce
I0309 05:03:59.624423  9646 net.cpp:91] Creating Layer inception_5b/relu_5x5_reduce
I0309 05:03:59.624445  9646 net.cpp:425] inception_5b/relu_5x5_reduce <- inception_5b/5x5_reduce
I0309 05:03:59.624471  9646 net.cpp:386] inception_5b/relu_5x5_reduce -> inception_5b/5x5_reduce (in-place)
I0309 05:03:59.624500  9646 net.cpp:141] Setting up inception_5b/relu_5x5_reduce
I0309 05:03:59.624524  9646 net.cpp:148] Top shape: 32 48 7 7 (75264)
I0309 05:03:59.624546  9646 net.cpp:156] Memory required for data: 1779849736
I0309 05:03:59.624567  9646 layer_factory.hpp:77] Creating layer inception_5b/5x5
I0309 05:03:59.624624  9646 net.cpp:91] Creating Layer inception_5b/5x5
I0309 05:03:59.624662  9646 net.cpp:425] inception_5b/5x5 <- inception_5b/5x5_reduce
I0309 05:03:59.624689  9646 net.cpp:399] inception_5b/5x5 -> inception_5b/5x5
I0309 05:03:59.625869  9646 net.cpp:141] Setting up inception_5b/5x5
I0309 05:03:59.625901  9646 net.cpp:148] Top shape: 32 128 7 7 (200704)
I0309 05:03:59.625923  9646 net.cpp:156] Memory required for data: 1780652552
I0309 05:03:59.625947  9646 layer_factory.hpp:77] Creating layer inception_5b/relu_5x5
I0309 05:03:59.625972  9646 net.cpp:91] Creating Layer inception_5b/relu_5x5
I0309 05:03:59.625995  9646 net.cpp:425] inception_5b/relu_5x5 <- inception_5b/5x5
I0309 05:03:59.626026  9646 net.cpp:386] inception_5b/relu_5x5 -> inception_5b/5x5 (in-place)
I0309 05:03:59.626055  9646 net.cpp:141] Setting up inception_5b/relu_5x5
I0309 05:03:59.626080  9646 net.cpp:148] Top shape: 32 128 7 7 (200704)
I0309 05:03:59.626099  9646 net.cpp:156] Memory required for data: 1781455368
I0309 05:03:59.626121  9646 layer_factory.hpp:77] Creating layer inception_5b/pool
I0309 05:03:59.626145  9646 net.cpp:91] Creating Layer inception_5b/pool
I0309 05:03:59.626168  9646 net.cpp:425] inception_5b/pool <- inception_5a/output_inception_5a/output_0_split_3
I0309 05:03:59.626191  9646 net.cpp:399] inception_5b/pool -> inception_5b/pool
I0309 05:03:59.626251  9646 net.cpp:141] Setting up inception_5b/pool
I0309 05:03:59.626282  9646 net.cpp:148] Top shape: 32 832 7 7 (1304576)
I0309 05:03:59.626303  9646 net.cpp:156] Memory required for data: 1786673672
I0309 05:03:59.626324  9646 layer_factory.hpp:77] Creating layer inception_5b/pool_proj
I0309 05:03:59.626356  9646 net.cpp:91] Creating Layer inception_5b/pool_proj
I0309 05:03:59.626380  9646 net.cpp:425] inception_5b/pool_proj <- inception_5b/pool
I0309 05:03:59.626408  9646 net.cpp:399] inception_5b/pool_proj -> inception_5b/pool_proj
I0309 05:03:59.627780  9646 net.cpp:141] Setting up inception_5b/pool_proj
I0309 05:03:59.627816  9646 net.cpp:148] Top shape: 32 128 7 7 (200704)
I0309 05:03:59.627840  9646 net.cpp:156] Memory required for data: 1787476488
I0309 05:03:59.627864  9646 layer_factory.hpp:77] Creating layer inception_5b/relu_pool_proj
I0309 05:03:59.627889  9646 net.cpp:91] Creating Layer inception_5b/relu_pool_proj
I0309 05:03:59.627915  9646 net.cpp:425] inception_5b/relu_pool_proj <- inception_5b/pool_proj
I0309 05:03:59.627939  9646 net.cpp:386] inception_5b/relu_pool_proj -> inception_5b/pool_proj (in-place)
I0309 05:03:59.627966  9646 net.cpp:141] Setting up inception_5b/relu_pool_proj
I0309 05:03:59.627990  9646 net.cpp:148] Top shape: 32 128 7 7 (200704)
I0309 05:03:59.628016  9646 net.cpp:156] Memory required for data: 1788279304
I0309 05:03:59.628038  9646 layer_factory.hpp:77] Creating layer inception_5b/output
I0309 05:03:59.628062  9646 net.cpp:91] Creating Layer inception_5b/output
I0309 05:03:59.628085  9646 net.cpp:425] inception_5b/output <- inception_5b/1x1
I0309 05:03:59.628108  9646 net.cpp:425] inception_5b/output <- inception_5b/3x3
I0309 05:03:59.628131  9646 net.cpp:425] inception_5b/output <- inception_5b/5x5
I0309 05:03:59.628154  9646 net.cpp:425] inception_5b/output <- inception_5b/pool_proj
I0309 05:03:59.628178  9646 net.cpp:399] inception_5b/output -> inception_5b/output
I0309 05:03:59.628224  9646 net.cpp:141] Setting up inception_5b/output
I0309 05:03:59.628255  9646 net.cpp:148] Top shape: 32 1024 7 7 (1605632)
I0309 05:03:59.628276  9646 net.cpp:156] Memory required for data: 1794701832
I0309 05:03:59.628298  9646 layer_factory.hpp:77] Creating layer pool5/7x7_s1
I0309 05:03:59.628324  9646 net.cpp:91] Creating Layer pool5/7x7_s1
I0309 05:03:59.628348  9646 net.cpp:425] pool5/7x7_s1 <- inception_5b/output
I0309 05:03:59.628372  9646 net.cpp:399] pool5/7x7_s1 -> pool5/7x7_s1
I0309 05:03:59.628419  9646 net.cpp:141] Setting up pool5/7x7_s1
I0309 05:03:59.628449  9646 net.cpp:148] Top shape: 32 1024 1 1 (32768)
I0309 05:03:59.628470  9646 net.cpp:156] Memory required for data: 1794832904
I0309 05:03:59.628504  9646 layer_factory.hpp:77] Creating layer pool5/drop_7x7_s1
I0309 05:03:59.628545  9646 net.cpp:91] Creating Layer pool5/drop_7x7_s1
I0309 05:03:59.628568  9646 net.cpp:425] pool5/drop_7x7_s1 <- pool5/7x7_s1
I0309 05:03:59.628594  9646 net.cpp:386] pool5/drop_7x7_s1 -> pool5/7x7_s1 (in-place)
I0309 05:03:59.628640  9646 net.cpp:141] Setting up pool5/drop_7x7_s1
I0309 05:03:59.628670  9646 net.cpp:148] Top shape: 32 1024 1 1 (32768)
I0309 05:03:59.628691  9646 net.cpp:156] Memory required for data: 1794963976
I0309 05:03:59.628712  9646 layer_factory.hpp:77] Creating layer loss3/classifier_new
I0309 05:03:59.628742  9646 net.cpp:91] Creating Layer loss3/classifier_new
I0309 05:03:59.628765  9646 net.cpp:425] loss3/classifier_new <- pool5/7x7_s1
I0309 05:03:59.628793  9646 net.cpp:399] loss3/classifier_new -> loss3/classifier_new
I0309 05:03:59.629089  9646 net.cpp:141] Setting up loss3/classifier_new
I0309 05:03:59.629123  9646 net.cpp:148] Top shape: 32 25 (800)
I0309 05:03:59.629145  9646 net.cpp:156] Memory required for data: 1794967176
I0309 05:03:59.629170  9646 layer_factory.hpp:77] Creating layer loss3/loss3
I0309 05:03:59.629199  9646 net.cpp:91] Creating Layer loss3/loss3
I0309 05:03:59.629222  9646 net.cpp:425] loss3/loss3 <- loss3/classifier_new
I0309 05:03:59.629246  9646 net.cpp:425] loss3/loss3 <- label_data_1_split_2
I0309 05:03:59.629271  9646 net.cpp:399] loss3/loss3 -> loss3/loss3
…
I0309 05:03:59.638387  9646 net.cpp:313] The NetState phase (1) differed from the phase (0) specified by a rule in layer data
I0309 05:03:59.639312  9646 net.cpp:49] Initializing net from parameters: 
name: "GoogleNet"
state {
  phase: TEST
}
layer {
  name: "data"
  type: "Data"
  top: "data"
  top: "label"
  include {
    phase: TEST
  }
  transform_param {
    mirror: false
    crop_size: 224
    mean_value: 104
    mean_value: 117
    mean_value: 123
  }
  data_param {
    source: "data/hw2/test_lmdb"
    batch_size: 50
    backend: LMDB
  }
}
layer {
  name: "conv1/7x7_s2"
  type: "Convolution"
  bottom: "data"
  top: "conv1/7x7_s2"
  param {
    lr_mult: 0
    decay_mult: 1
  }
  param {
    lr_mult: 0
    decay_mult: 0
  }
  convolution_param {
    num_output: 64
    pad: 3
    kernel_size: 7
    stride: 2
    weight_filler {
      type: "xavier"
    }
    bias_filler {
      type: "constant"
      value: 0.2
    }
  }
}
layer {
  name: "conv1/relu_7x7"
  type: "ReLU"
  bottom: "conv1/7x7_s2"
  top: "conv1/7x7_s2"
}
layer {
  name: "pool1/3x3_s2"
  type: "Pooling"
  bottom: "conv1/7x7_s2"
  top: "pool1/3x3_s2"
  pooling_param {
    pool: MAX
    kernel_size: 3
    stride: 2
  }
}
layer {
  name: "pool1/norm1"
  type: "LRN"
  bottom: "pool1/3x3_s2"
  top: "pool1/norm1"
  lrn_param {
    local_size: 5
    alpha: 0.0001
    beta: 0.75
  }
}
layer {
  name: "conv2/3x3_reduce"
  type: "Convolution"
  bottom: "pool1/norm1"
  top: "conv2/3x3_reduce"
  param {
    lr_mult: 0
    decay_mult: 1
  }
  param {
    lr_mult: 0
    decay_mult: 0
  }
  convolution_param {
    num_output: 64
    kernel_size: 1
    weight_filler {
      type: "xavier"
    }
    bias_filler {
      type: "constant"
      value: 0.2
    }
  }
}
layer {
  name: "conv2/relu_3x3_reduce"
  type: "ReLU"
  bottom: "conv2/3x3_reduce"
  top: "conv2/3x3_reduce"
}
layer {
  name: "conv2/3x3"
  type: "Convolution"
  bottom: "conv2/3x3_reduce"
  top: "conv2/3x3"
  param {
    lr_mult: 0
    decay_mult: 1
  }
  param {
    lr_mult: 0
    decay_mult: 0
  }
  convolution_param {
    num_output: 192
    pad: 1
    kernel_size: 3
    weight_filler {
      type: "xavier"
    }
    bias_filler {
      type: "constant"
      value: 0.2
    }
  }
}
layer {
  name: "conv2/relu_3x3"
  type: "ReLU"
  bottom: "conv2/3x3"
  top: "conv2/3x3"
}
layer {
  name: "conv2/norm2"
  type: "LRN"
  bottom: "conv2/3x3"
  top: "conv2/norm2"
  lrn_param {
    local_size: 5
    alpha: 0.0001
    beta: 0.75
  }
}
layer {
  name: "pool2/3x3_s2"
  type: "Pooling"
  bottom: "conv2/norm2"
  top: "pool2/3x3_s2"
  pooling_param {
    pool: MAX
    kernel_size: 3
    stride: 2
  }
}
layer {
  name: "inception_3a/1x1"
  type: "Convolution"
  bottom: "pool2/3x3_s2"
  top: "inception_3a/1x1"
  param {
    lr_mult: 0
    decay_mult: 1
  }
  param {
    lr_mult: 0
    decay_mult: 0
  }
  convolution_param {
    num_output: 64
    kernel_size: 1
    weight_filler {
      type: "xavier"
    }
    bias_filler {
      type: "constant"
      value: 0.2
    }
  }
}
layer {
  name: "inception_3a/relu_1x1"
  type: "ReLU"
  bottom: "inception_3a/1x1"
  top: "inception_3a/1x1"
}
layer {
  name: "inception_3a/3x3_reduce"
  type: "Convolution"
  bottom: "pool2/3x3_s2"
  top: "inception_3a/3x3_reduce"
  param {
    lr_mult: 0
    decay_mult: 1
  }
  param {
    lr_mult: 0
    decay_mult: 0
  }
  convolution_param {
    num_output: 96
    kernel_size: 1
    weight_filler {
      type: "xavier"
    }
    bias_filler {
      type: "constant"
      value: 0.2
    }
  }
}
layer {
  name: "inception_3a/relu_3x3_reduce"
  type: "ReLU"
  bottom: "inception_3a/3x3_reduce"
  top: "inception_3a/3x3_reduce"
}
layer {
  name: "inception_3a/3x3"
  type: "Convolution"
  bottom: "inception_3a/3x3_reduce"
  top: "inception_3a/3x3"
  param {
    lr_mult: 0
    decay_mult: 1
  }
  param {
    lr_mult: 0
    decay_mult: 0
  }
  convolution_param {
    num_output: 128
    pad: 1
    kernel_size: 3
    weight_filler {
      type: "xavier"
    }
    bias_filler {
      type: "constant"
      value: 0.2
    }
  }
}
layer {
  name: "inception_3a/relu_3x3"
  type: "ReLU"
  bottom: "inception_3a/3x3"
  top: "inception_3a/3x3"
}
layer {
  name: "inception_3a/5x5_reduce"
  type: "Convolution"
  bottom: "pool2/3x3_s2"
  top: "inception_3a/5x5_reduce"
  param {
    lr_mult: 0
    decay_mult: 1
  }
  param {
    lr_mult: 0
    decay_mult: 0
  }
  convolution_param {
    num_output: 16
    kernel_size: 1
    weight_filler {
      type: "xavier"
    }
    bias_filler {
      type: "constant"
      value: 0.2
    }
  }
}
layer {
  name: "inception_3a/relu_5x5_reduce"
  type: "ReLU"
  bottom: "inception_3a/5x5_reduce"
  top: "inception_3a/5x5_reduce"
}
layer {
  name: "inception_3a/5x5"
  type: "Convolution"
  bottom: "inception_3a/5x5_reduce"
  top: "inception_3a/5x5"
  param {
    lr_mult: 0
    decay_mult: 1
  }
  param {
    lr_mult: 0
    decay_mult: 0
  }
  convolution_param {
    num_output: 32
    pad: 2
    kernel_size: 5
    weight_filler {
      type: "xavier"
    }
    bias_filler {
      type: "constant"
      value: 0.2
    }
  }
}
layer {
  name: "inception_3a/relu_5x5"
  type: "ReLU"
  bottom: "inception_3a/5x5"
  top: "inception_3a/5x5"
}
layer {
  name: "inception_3a/pool"
  type: "Pooling"
  bottom: "pool2/3x3_s2"
  top: "inception_3a/pool"
  pooling_param {
    pool: MAX
    kernel_size: 3
    stride: 1
    pad: 1
  }
}
layer {
  name: "inception_3a/pool_proj"
  type: "Convolution"
  bottom: "inception_3a/pool"
  top: "inception_3a/pool_proj"
  param {
    lr_mult: 0
    decay_mult: 1
  }
  param {
    lr_mult: 0
    decay_mult: 0
  }
  convolution_param {
    num_output: 32
    kernel_size: 1
    weight_filler {
      type: "xavier"
    }
    bias_filler {
      type: "constant"
      value: 0.2
    }
  }
}
layer {
  name: "inception_3a/relu_pool_proj"
  type: "ReLU"
  bottom: "inception_3a/pool_proj"
  top: "inception_3a/pool_proj"
}
layer {
  name: "inception_3a/output"
  type: "Concat"
  bottom: "inception_3a/1x1"
  bottom: "inception_3a/3x3"
  bottom: "inception_3a/5x5"
  bottom: "inception_3a/pool_proj"
  top: "inception_3a/output"
}
layer {
  name: "inception_3b/1x1"
  type: "Convolution"
  bottom: "inception_3a/output"
  top: "inception_3b/1x1"
  param {
    lr_mult: 0
    decay_mult: 1
  }
  param {
    lr_mult: 0
    decay_mult: 0
  }
  convolution_param {
    num_output: 128
    kernel_size: 1
    weight_filler {
      type: "xavier"
    }
    bias_filler {
      type: "constant"
      value: 0.2
    }
  }
}
layer {
  name: "inception_3b/relu_1x1"
  type: "ReLU"
  bottom: "inception_3b/1x1"
  top: "inception_3b/1x1"
}
layer {
  name: "inception_3b/3x3_reduce"
  type: "Convolution"
  bottom: "inception_3a/output"
  top: "inception_3b/3x3_reduce"
  param {
    lr_mult: 0
    decay_mult: 1
  }
  param {
    lr_mult: 0
    decay_mult: 0
  }
  convolution_param {
    num_output: 128
    kernel_size: 1
    weight_filler {
      type: "xavier"
    }
    bias_filler {
      type: "constant"
      value: 0.2
    }
  }
}
layer {
  name: "inception_3b/relu_3x3_reduce"
  type: "ReLU"
  bottom: "inception_3b/3x3_reduce"
  top: "inception_3b/3x3_reduce"
}
layer {
  name: "inception_3b/3x3"
  type: "Convolution"
  bottom: "inception_3b/3x3_reduce"
  top: "inception_3b/3x3"
  param {
    lr_mult: 0
    decay_mult: 1
  }
  param {
    lr_mult: 0
    decay_mult: 0
  }
  convolution_param {
    num_output: 192
    pad: 1
    kernel_size: 3
    weight_filler {
      type: "xavier"
    }
    bias_filler {
      type: "constant"
      value: 0.2
    }
  }
}
layer {
  name: "inception_3b/relu_3x3"
  type: "ReLU"
  bottom: "inception_3b/3x3"
  top: "inception_3b/3x3"
}
layer {
  name: "inception_3b/5x5_reduce"
  type: "Convolution"
  bottom: "inception_3a/output"
  top: "inception_3b/5x5_reduce"
  param {
    lr_mult: 0
    decay_mult: 1
  }
  param {
    lr_mult: 0
    decay_mult: 0
  }
  convolution_param {
    num_output: 32
    kernel_size: 1
    weight_filler {
      type: "xavier"
    }
    bias_filler {
      type: "constant"
      value: 0.2
    }
  }
}
layer {
  name: "inception_3b/relu_5x5_reduce"
  type: "ReLU"
  bottom: "inception_3b/5x5_reduce"
  top: "inception_3b/5x5_reduce"
}
layer {
  name: "inception_3b/5x5"
  type: "Convolution"
  bottom: "inception_3b/5x5_reduce"
  top: "inception_3b/5x5"
  param {
    lr_mult: 0
    decay_mult: 1
  }
  param {
    lr_mult: 0
    decay_mult: 0
  }
  convolution_param {
    num_output: 96
    pad: 2
    kernel_size: 5
    weight_filler {
      type: "xavier"
    }
    bias_filler {
      type: "constant"
      value: 0.2
    }
  }
}
layer {
  name: "inception_3b/relu_5x5"
  type: "ReLU"
  bottom: "inception_3b/5x5"
  top: "inception_3b/5x5"
}
layer {
  name: "inception_3b/pool"
  type: "Pooling"
  bottom: "inception_3a/output"
  top: "inception_3b/pool"
  pooling_param {
    pool: MAX
    kernel_size: 3
    stride: 1
    pad: 1
  }
}
layer {
  name: "inception_3b/pool_proj"
  type: "Convolution"
  bottom: "inception_3b/pool"
  top: "inception_3b/pool_proj"
  param {
    lr_mult: 0
    decay_mult: 1
  }
  param {
    lr_mult: 0
    decay_mult: 0
  }
  convolution_param {
    num_output: 64
    kernel_size: 1
    weight_filler {
      type: "xavier"
    }
    bias_filler {
      type: "constant"
      value: 0.2
    }
  }
}
layer {
  name: "inception_3b/relu_pool_proj"
  type: "ReLU"
  bottom: "inception_3b/pool_proj"
  top: "inception_3b/pool_proj"
}
layer {
  name: "inception_3b/output"
  type: "Concat"
  bottom: "inception_3b/1x1"
  bottom: "inception_3b/3x3"
  bottom: "inception_3b/5x5"
  bottom: "inception_3b/pool_proj"
  top: "inception_3b/output"
}
layer {
  name: "pool3/3x3_s2"
  type: "Pooling"
  bottom: "inception_3b/output"
  top: "pool3/3x3_s2"
  pooling_param {
    pool: MAX
    kernel_size: 3
    stride: 2
  }
}
layer {
  name: "inception_4a/1x1"
  type: "Convolution"
  bottom: "pool3/3x3_s2"
  top: "inception_4a/1x1"
  param {
    lr_mult: 0
    decay_mult: 1
  }
  param {
    lr_mult: 0
    decay_mult: 0
  }
  convolution_param {
    num_output: 192
    kernel_size: 1
    weight_filler {
      type: "xavier"
    }
    bias_filler {
      type: "constant"
      value: 0.2
    }
  }
}
layer {
  name: "inception_4a/relu_1x1"
  type: "ReLU"
  bottom: "inception_4a/1x1"
  top: "inception_4a/1x1"
}
layer {
  name: "inception_4a/3x3_reduce"
  type: "Convolution"
  bottom: "pool3/3x3_s2"
  top: "inception_4a/3x3_reduce"
  param {
    lr_mult: 0
    decay_mult: 1
  }
  param {
    lr_mult: 0
    decay_mult: 0
  }
  convolution_param {
    num_output: 96
    kernel_size: 1
    weight_filler {
      type: "xavier"
    }
    bias_filler {
      type: "constant"
      value: 0.2
    }
  }
}
layer {
  name: "inception_4a/relu_3x3_reduce"
  type: "ReLU"
  bottom: "inception_4a/3x3_reduce"
  top: "inception_4a/3x3_reduce"
}
layer {
  name: "inception_4a/3x3"
  type: "Convolution"
  bottom: "inception_4a/3x3_reduce"
  top: "inception_4a/3x3"
  param {
    lr_mult: 0
    decay_mult: 1
  }
  param {
    lr_mult: 0
    decay_mult: 0
  }
  convolution_param {
    num_output: 208
    pad: 1
    kernel_size: 3
    weight_filler {
      type: "xavier"
    }
    bias_filler {
      type: "constant"
      value: 0.2
    }
  }
}
layer {
  name: "inception_4a/relu_3x3"
  type: "ReLU"
  bottom: "inception_4a/3x3"
  top: "inception_4a/3x3"
}
layer {
  name: "inception_4a/5x5_reduce"
  type: "Convolution"
  bottom: "pool3/3x3_s2"
  top: "inception_4a/5x5_reduce"
  param {
    lr_mult: 0
    decay_mult: 1
  }
  param {
    lr_mult: 0
    decay_mult: 0
  }
  convolution_param {
    num_output: 16
    kernel_size: 1
    weight_filler {
      type: "xavier"
    }
    bias_filler {
      type: "constant"
      value: 0.2
    }
  }
}
layer {
  name: "inception_4a/relu_5x5_reduce"
  type: "ReLU"
  bottom: "inception_4a/5x5_reduce"
  top: "inception_4a/5x5_reduce"
}
layer {
  name: "inception_4a/5x5"
  type: "Convolution"
  bottom: "inception_4a/5x5_reduce"
  top: "inception_4a/5x5"
  param {
    lr_mult: 0
    decay_mult: 1
  }
  param {
    lr_mult: 0
    decay_mult: 0
  }
  convolution_param {
    num_output: 48
    pad: 2
    kernel_size: 5
    weight_filler {
      type: "xavier"
    }
    bias_filler {
      type: "constant"
      value: 0.2
    }
  }
}
layer {
  name: "inception_4a/relu_5x5"
  type: "ReLU"
  bottom: "inception_4a/5x5"
  top: "inception_4a/5x5"
}
layer {
  name: "inception_4a/pool"
  type: "Pooling"
  bottom: "pool3/3x3_s2"
  top: "inception_4a/pool"
  pooling_param {
    pool: MAX
    kernel_size: 3
    stride: 1
    pad: 1
  }
}
layer {
  name: "inception_4a/pool_proj"
  type: "Convolution"
  bottom: "inception_4a/pool"
  top: "inception_4a/pool_proj"
  param {
    lr_mult: 0
    decay_mult: 1
  }
  param {
    lr_mult: 0
    decay_mult: 0
  }
  convolution_param {
    num_output: 64
    kernel_size: 1
    weight_filler {
      type: "xavier"
    }
    bias_filler {
      type: "constant"
      value: 0.2
    }
  }
}
layer {
  name: "inception_4a/relu_pool_proj"
  type: "ReLU"
  bottom: "inception_4a/pool_proj"
  top: "inception_4a/pool_proj"
}
layer {
  name: "inception_4a/output"
  type: "Concat"
  bottom: "inception_4a/1x1"
  bottom: "inception_4a/3x3"
  bottom: "inception_4a/5x5"
  bottom: "inception_4a/pool_proj"
  top: "inception_4a/output"
}
layer {
  name: "loss1/ave_pool"
  type: "Pooling"
  bottom: "inception_4a/output"
  top: "loss1/ave_pool"
  pooling_param {
    pool: AVE
    kernel_size: 5
    stride: 3
  }
}
layer {
  name: "loss1/conv"
  type: "Convolution"
  bottom: "loss1/ave_pool"
  top: "loss1/conv"
  param {
    lr_mult: 0
    decay_mult: 1
  }
  param {
    lr_mult: 0
    decay_mult: 0
  }
  convolution_param {
    num_output: 128
    kernel_size: 1
    weight_filler {
      type: "xavier"
    }
    bias_filler {
      type: "constant"
      value: 0.2
    }
  }
}
layer {
  name: "loss1/relu_conv"
  type: "ReLU"
  bottom: "loss1/conv"
  top: "loss1/conv"
}
layer {
  name: "loss1/fc"
  type: "InnerProduct"
  bottom: "loss1/conv"
  top: "loss1/fc"
  param {
    lr_mult: 0
    decay_mult: 1
  }
  param {
    lr_mult: 0
    decay_mult: 0
  }
  inner_product_param {
    num_output: 1024
    weight_filler {
      type: "xavier"
    }
    bias_filler {
      type: "constant"
      value: 0.2
    }
  }
}
layer {
  name: "loss1/relu_fc"
  type: "ReLU"
  bottom: "loss1/fc"
  top: "loss1/fc"
}
layer {
  name: "loss1/drop_fc"
  type: "Dropout"
  bottom: "loss1/fc"
  top: "loss1/fc"
  dropout_param {
    dropout_ratio: 0.7
  }
}
layer {
  name: "loss1/classifier"
  type: "InnerProduct"
  bottom: "loss1/fc"
  top: "loss1/classifier"
  param {
    lr_mult: 0
    decay_mult: 1
  }
  param {
    lr_mult: 0
    decay_mult: 0
  }
  inner_product_param {
    num_output: 1000
    weight_filler {
…
I0309 05:03:59.853890  9646 layer_factory.hpp:77] Creating layer inception_4c/pool
I0309 05:03:59.853915  9646 net.cpp:91] Creating Layer inception_4c/pool
I0309 05:03:59.853938  9646 net.cpp:425] inception_4c/pool <- inception_4b/output_inception_4b/output_0_split_3
I0309 05:03:59.853961  9646 net.cpp:399] inception_4c/pool -> inception_4c/pool
I0309 05:03:59.854027  9646 net.cpp:141] Setting up inception_4c/pool
I0309 05:03:59.854056  9646 net.cpp:148] Top shape: 50 512 14 14 (5017600)
I0309 05:03:59.854077  9646 net.cpp:156] Memory required for data: 2210363612
I0309 05:03:59.854099  9646 layer_factory.hpp:77] Creating layer inception_4c/pool_proj
I0309 05:03:59.854127  9646 net.cpp:91] Creating Layer inception_4c/pool_proj
I0309 05:03:59.854151  9646 net.cpp:425] inception_4c/pool_proj <- inception_4c/pool
I0309 05:03:59.854174  9646 net.cpp:399] inception_4c/pool_proj -> inception_4c/pool_proj
I0309 05:03:59.854591  9646 net.cpp:141] Setting up inception_4c/pool_proj
I0309 05:03:59.854624  9646 net.cpp:148] Top shape: 50 64 14 14 (627200)
I0309 05:03:59.854645  9646 net.cpp:156] Memory required for data: 2212872412
I0309 05:03:59.854668  9646 layer_factory.hpp:77] Creating layer inception_4c/relu_pool_proj
I0309 05:03:59.854706  9646 net.cpp:91] Creating Layer inception_4c/relu_pool_proj
I0309 05:03:59.854743  9646 net.cpp:425] inception_4c/relu_pool_proj <- inception_4c/pool_proj
I0309 05:03:59.854766  9646 net.cpp:386] inception_4c/relu_pool_proj -> inception_4c/pool_proj (in-place)
I0309 05:03:59.854792  9646 net.cpp:141] Setting up inception_4c/relu_pool_proj
I0309 05:03:59.854815  9646 net.cpp:148] Top shape: 50 64 14 14 (627200)
I0309 05:03:59.854835  9646 net.cpp:156] Memory required for data: 2215381212
I0309 05:03:59.854854  9646 layer_factory.hpp:77] Creating layer inception_4c/output
I0309 05:03:59.854877  9646 net.cpp:91] Creating Layer inception_4c/output
I0309 05:03:59.854898  9646 net.cpp:425] inception_4c/output <- inception_4c/1x1
I0309 05:03:59.854920  9646 net.cpp:425] inception_4c/output <- inception_4c/3x3
I0309 05:03:59.854943  9646 net.cpp:425] inception_4c/output <- inception_4c/5x5
I0309 05:03:59.854964  9646 net.cpp:425] inception_4c/output <- inception_4c/pool_proj
I0309 05:03:59.854990  9646 net.cpp:399] inception_4c/output -> inception_4c/output
I0309 05:03:59.855038  9646 net.cpp:141] Setting up inception_4c/output
I0309 05:03:59.855067  9646 net.cpp:148] Top shape: 50 512 14 14 (5017600)
I0309 05:03:59.855092  9646 net.cpp:156] Memory required for data: 2235451612
I0309 05:03:59.855113  9646 layer_factory.hpp:77] Creating layer inception_4c/output_inception_4c/output_0_split
I0309 05:03:59.855134  9646 net.cpp:91] Creating Layer inception_4c/output_inception_4c/output_0_split
I0309 05:03:59.855156  9646 net.cpp:425] inception_4c/output_inception_4c/output_0_split <- inception_4c/output
I0309 05:03:59.855178  9646 net.cpp:399] inception_4c/output_inception_4c/output_0_split -> inception_4c/output_inception_4c/output_0_split_0
I0309 05:03:59.855204  9646 net.cpp:399] inception_4c/output_inception_4c/output_0_split -> inception_4c/output_inception_4c/output_0_split_1
I0309 05:03:59.855231  9646 net.cpp:399] inception_4c/output_inception_4c/output_0_split -> inception_4c/output_inception_4c/output_0_split_2
I0309 05:03:59.855257  9646 net.cpp:399] inception_4c/output_inception_4c/output_0_split -> inception_4c/output_inception_4c/output_0_split_3
I0309 05:03:59.855334  9646 net.cpp:141] Setting up inception_4c/output_inception_4c/output_0_split
I0309 05:03:59.855363  9646 net.cpp:148] Top shape: 50 512 14 14 (5017600)
I0309 05:03:59.855386  9646 net.cpp:148] Top shape: 50 512 14 14 (5017600)
I0309 05:03:59.855407  9646 net.cpp:148] Top shape: 50 512 14 14 (5017600)
I0309 05:03:59.855428  9646 net.cpp:148] Top shape: 50 512 14 14 (5017600)
I0309 05:03:59.855448  9646 net.cpp:156] Memory required for data: 2315733212
I0309 05:03:59.855468  9646 layer_factory.hpp:77] Creating layer inception_4d/1x1
I0309 05:03:59.855496  9646 net.cpp:91] Creating Layer inception_4d/1x1
I0309 05:03:59.855520  9646 net.cpp:425] inception_4d/1x1 <- inception_4c/output_inception_4c/output_0_split_0
I0309 05:03:59.855546  9646 net.cpp:399] inception_4d/1x1 -> inception_4d/1x1
I0309 05:03:59.856673  9646 net.cpp:141] Setting up inception_4d/1x1
I0309 05:03:59.856711  9646 net.cpp:148] Top shape: 50 112 14 14 (1097600)
I0309 05:03:59.856734  9646 net.cpp:156] Memory required for data: 2320123612
I0309 05:03:59.856760  9646 layer_factory.hpp:77] Creating layer inception_4d/relu_1x1
I0309 05:03:59.856796  9646 net.cpp:91] Creating Layer inception_4d/relu_1x1
I0309 05:03:59.856825  9646 net.cpp:425] inception_4d/relu_1x1 <- inception_4d/1x1
I0309 05:03:59.856866  9646 net.cpp:386] inception_4d/relu_1x1 -> inception_4d/1x1 (in-place)
I0309 05:03:59.856909  9646 net.cpp:141] Setting up inception_4d/relu_1x1
I0309 05:03:59.856932  9646 net.cpp:148] Top shape: 50 112 14 14 (1097600)
I0309 05:03:59.856953  9646 net.cpp:156] Memory required for data: 2324514012
I0309 05:03:59.856974  9646 layer_factory.hpp:77] Creating layer inception_4d/3x3_reduce
I0309 05:03:59.857008  9646 net.cpp:91] Creating Layer inception_4d/3x3_reduce
I0309 05:03:59.857048  9646 net.cpp:425] inception_4d/3x3_reduce <- inception_4c/output_inception_4c/output_0_split_1
I0309 05:03:59.857090  9646 net.cpp:399] inception_4d/3x3_reduce -> inception_4d/3x3_reduce
I0309 05:03:59.857784  9646 net.cpp:141] Setting up inception_4d/3x3_reduce
I0309 05:03:59.857823  9646 net.cpp:148] Top shape: 50 144 14 14 (1411200)
I0309 05:03:59.857849  9646 net.cpp:156] Memory required for data: 2330158812
I0309 05:03:59.857878  9646 layer_factory.hpp:77] Creating layer inception_4d/relu_3x3_reduce
I0309 05:03:59.857908  9646 net.cpp:91] Creating Layer inception_4d/relu_3x3_reduce
I0309 05:03:59.857934  9646 net.cpp:425] inception_4d/relu_3x3_reduce <- inception_4d/3x3_reduce
I0309 05:03:59.857964  9646 net.cpp:386] inception_4d/relu_3x3_reduce -> inception_4d/3x3_reduce (in-place)
I0309 05:03:59.857996  9646 net.cpp:141] Setting up inception_4d/relu_3x3_reduce
I0309 05:03:59.858031  9646 net.cpp:148] Top shape: 50 144 14 14 (1411200)
I0309 05:03:59.858057  9646 net.cpp:156] Memory required for data: 2335803612
I0309 05:03:59.858083  9646 layer_factory.hpp:77] Creating layer inception_4d/3x3
I0309 05:03:59.858117  9646 net.cpp:91] Creating Layer inception_4d/3x3
I0309 05:03:59.858145  9646 net.cpp:425] inception_4d/3x3 <- inception_4d/3x3_reduce
I0309 05:03:59.858175  9646 net.cpp:399] inception_4d/3x3 -> inception_4d/3x3
I0309 05:03:59.861841  9646 net.cpp:141] Setting up inception_4d/3x3
I0309 05:03:59.861891  9646 net.cpp:148] Top shape: 50 288 14 14 (2822400)
I0309 05:03:59.861914  9646 net.cpp:156] Memory required for data: 2347093212
I0309 05:03:59.861939  9646 layer_factory.hpp:77] Creating layer inception_4d/relu_3x3
I0309 05:03:59.861965  9646 net.cpp:91] Creating Layer inception_4d/relu_3x3
I0309 05:03:59.861989  9646 net.cpp:425] inception_4d/relu_3x3 <- inception_4d/3x3
I0309 05:03:59.862020  9646 net.cpp:386] inception_4d/relu_3x3 -> inception_4d/3x3 (in-place)
I0309 05:03:59.862049  9646 net.cpp:141] Setting up inception_4d/relu_3x3
I0309 05:03:59.862074  9646 net.cpp:148] Top shape: 50 288 14 14 (2822400)
I0309 05:03:59.862094  9646 net.cpp:156] Memory required for data: 2358382812
I0309 05:03:59.862115  9646 layer_factory.hpp:77] Creating layer inception_4d/5x5_reduce
I0309 05:03:59.862154  9646 net.cpp:91] Creating Layer inception_4d/5x5_reduce
I0309 05:03:59.862177  9646 net.cpp:425] inception_4d/5x5_reduce <- inception_4c/output_inception_4c/output_0_split_2
I0309 05:03:59.862202  9646 net.cpp:399] inception_4d/5x5_reduce -> inception_4d/5x5_reduce
I0309 05:03:59.862543  9646 net.cpp:141] Setting up inception_4d/5x5_reduce
I0309 05:03:59.862576  9646 net.cpp:148] Top shape: 50 32 14 14 (313600)
I0309 05:03:59.862597  9646 net.cpp:156] Memory required for data: 2359637212
I0309 05:03:59.862622  9646 layer_factory.hpp:77] Creating layer inception_4d/relu_5x5_reduce
I0309 05:03:59.862645  9646 net.cpp:91] Creating Layer inception_4d/relu_5x5_reduce
I0309 05:03:59.862668  9646 net.cpp:425] inception_4d/relu_5x5_reduce <- inception_4d/5x5_reduce
I0309 05:03:59.862695  9646 net.cpp:386] inception_4d/relu_5x5_reduce -> inception_4d/5x5_reduce (in-place)
I0309 05:03:59.862722  9646 net.cpp:141] Setting up inception_4d/relu_5x5_reduce
I0309 05:03:59.862746  9646 net.cpp:148] Top shape: 50 32 14 14 (313600)
I0309 05:03:59.862766  9646 net.cpp:156] Memory required for data: 2360891612
I0309 05:03:59.862787  9646 layer_factory.hpp:77] Creating layer inception_4d/5x5
I0309 05:03:59.862815  9646 net.cpp:91] Creating Layer inception_4d/5x5
I0309 05:03:59.862838  9646 net.cpp:425] inception_4d/5x5 <- inception_4d/5x5_reduce
I0309 05:03:59.862864  9646 net.cpp:399] inception_4d/5x5 -> inception_4d/5x5
I0309 05:03:59.863397  9646 net.cpp:141] Setting up inception_4d/5x5
I0309 05:03:59.863430  9646 net.cpp:148] Top shape: 50 64 14 14 (627200)
I0309 05:03:59.863451  9646 net.cpp:156] Memory required for data: 2363400412
I0309 05:03:59.863476  9646 layer_factory.hpp:77] Creating layer inception_4d/relu_5x5
I0309 05:03:59.863499  9646 net.cpp:91] Creating Layer inception_4d/relu_5x5
I0309 05:03:59.863522  9646 net.cpp:425] inception_4d/relu_5x5 <- inception_4d/5x5
I0309 05:03:59.863546  9646 net.cpp:386] inception_4d/relu_5x5 -> inception_4d/5x5 (in-place)
I0309 05:03:59.863601  9646 net.cpp:141] Setting up inception_4d/relu_5x5
I0309 05:03:59.863627  9646 net.cpp:148] Top shape: 50 64 14 14 (627200)
I0309 05:03:59.863648  9646 net.cpp:156] Memory required for data: 2365909212
I0309 05:03:59.863668  9646 layer_factory.hpp:77] Creating layer inception_4d/pool
I0309 05:03:59.863692  9646 net.cpp:91] Creating Layer inception_4d/pool
I0309 05:03:59.863714  9646 net.cpp:425] inception_4d/pool <- inception_4c/output_inception_4c/output_0_split_3
I0309 05:03:59.863741  9646 net.cpp:399] inception_4d/pool -> inception_4d/pool
I0309 05:03:59.866821  9646 net.cpp:141] Setting up inception_4d/pool
I0309 05:03:59.866866  9646 net.cpp:148] Top shape: 50 512 14 14 (5017600)
I0309 05:03:59.866890  9646 net.cpp:156] Memory required for data: 2385979612
I0309 05:03:59.866912  9646 layer_factory.hpp:77] Creating layer inception_4d/pool_proj
I0309 05:03:59.866947  9646 net.cpp:91] Creating Layer inception_4d/pool_proj
I0309 05:03:59.866977  9646 net.cpp:425] inception_4d/pool_proj <- inception_4d/pool
I0309 05:03:59.867017  9646 net.cpp:399] inception_4d/pool_proj -> inception_4d/pool_proj
I0309 05:03:59.867445  9646 net.cpp:141] Setting up inception_4d/pool_proj
I0309 05:03:59.867483  9646 net.cpp:148] Top shape: 50 64 14 14 (627200)
I0309 05:03:59.867511  9646 net.cpp:156] Memory required for data: 2388488412
I0309 05:03:59.867540  9646 layer_factory.hpp:77] Creating layer inception_4d/relu_pool_proj
I0309 05:03:59.867568  9646 net.cpp:91] Creating Layer inception_4d/relu_pool_proj
I0309 05:03:59.867596  9646 net.cpp:425] inception_4d/relu_pool_proj <- inception_4d/pool_proj
I0309 05:03:59.867624  9646 net.cpp:386] inception_4d/relu_pool_proj -> inception_4d/pool_proj (in-place)
I0309 05:03:59.867651  9646 net.cpp:141] Setting up inception_4d/relu_pool_proj
I0309 05:03:59.867676  9646 net.cpp:148] Top shape: 50 64 14 14 (627200)
I0309 05:03:59.867697  9646 net.cpp:156] Memory required for data: 2390997212
I0309 05:03:59.867719  9646 layer_factory.hpp:77] Creating layer inception_4d/output
I0309 05:03:59.867749  9646 net.cpp:91] Creating Layer inception_4d/output
I0309 05:03:59.867776  9646 net.cpp:425] inception_4d/output <- inception_4d/1x1
I0309 05:03:59.867805  9646 net.cpp:425] inception_4d/output <- inception_4d/3x3
I0309 05:03:59.867832  9646 net.cpp:425] inception_4d/output <- inception_4d/5x5
I0309 05:03:59.867859  9646 net.cpp:425] inception_4d/output <- inception_4d/pool_proj
I0309 05:03:59.867888  9646 net.cpp:399] inception_4d/output -> inception_4d/output
I0309 05:03:59.867938  9646 net.cpp:141] Setting up inception_4d/output
I0309 05:03:59.867974  9646 net.cpp:148] Top shape: 50 528 14 14 (5174400)
I0309 05:03:59.868005  9646 net.cpp:156] Memory required for data: 2411694812
I0309 05:03:59.868032  9646 layer_factory.hpp:77] Creating layer inception_4d/output_inception_4d/output_0_split
I0309 05:03:59.868060  9646 net.cpp:91] Creating Layer inception_4d/output_inception_4d/output_0_split
I0309 05:03:59.868088  9646 net.cpp:425] inception_4d/output_inception_4d/output_0_split <- inception_4d/output
I0309 05:03:59.868116  9646 net.cpp:399] inception_4d/output_inception_4d/output_0_split -> inception_4d/output_inception_4d/output_0_split_0
I0309 05:03:59.868151  9646 net.cpp:399] inception_4d/output_inception_4d/output_0_split -> inception_4d/output_inception_4d/output_0_split_1
I0309 05:03:59.868183  9646 net.cpp:399] inception_4d/output_inception_4d/output_0_split -> inception_4d/output_inception_4d/output_0_split_2
I0309 05:03:59.868216  9646 net.cpp:399] inception_4d/output_inception_4d/output_0_split -> inception_4d/output_inception_4d/output_0_split_3
I0309 05:03:59.868247  9646 net.cpp:399] inception_4d/output_inception_4d/output_0_split -> inception_4d/output_inception_4d/output_0_split_4
I0309 05:03:59.868340  9646 net.cpp:141] Setting up inception_4d/output_inception_4d/output_0_split
I0309 05:03:59.868377  9646 net.cpp:148] Top shape: 50 528 14 14 (5174400)
I0309 05:03:59.868407  9646 net.cpp:148] Top shape: 50 528 14 14 (5174400)
I0309 05:03:59.868448  9646 net.cpp:148] Top shape: 50 528 14 14 (5174400)
I0309 05:03:59.868489  9646 net.cpp:148] Top shape: 50 528 14 14 (5174400)
I0309 05:03:59.868511  9646 net.cpp:148] Top shape: 50 528 14 14 (5174400)
I0309 05:03:59.868531  9646 net.cpp:156] Memory required for data: 2515182812
I0309 05:03:59.868552  9646 layer_factory.hpp:77] Creating layer loss2/ave_pool
I0309 05:03:59.868582  9646 net.cpp:91] Creating Layer loss2/ave_pool
I0309 05:03:59.868609  9646 net.cpp:425] loss2/ave_pool <- inception_4d/output_inception_4d/output_0_split_0
I0309 05:03:59.868638  9646 net.cpp:399] loss2/ave_pool -> loss2/ave_pool
I0309 05:03:59.868691  9646 net.cpp:141] Setting up loss2/ave_pool
I0309 05:03:59.868727  9646 net.cpp:148] Top shape: 50 528 4 4 (422400)
I0309 05:03:59.868753  9646 net.cpp:156] Memory required for data: 2516872412
I0309 05:03:59.868778  9646 layer_factory.hpp:77] Creating layer loss2/conv
I0309 05:03:59.868815  9646 net.cpp:91] Creating Layer loss2/conv
I0309 05:03:59.868845  9646 net.cpp:425] loss2/conv <- loss2/ave_pool
I0309 05:03:59.868893  9646 net.cpp:399] loss2/conv -> loss2/conv
I0309 05:03:59.870038  9646 net.cpp:141] Setting up loss2/conv
I0309 05:03:59.870079  9646 net.cpp:148] Top shape: 50 128 4 4 (102400)
I0309 05:03:59.870107  9646 net.cpp:156] Memory required for data: 2517282012
I0309 05:03:59.870136  9646 layer_factory.hpp:77] Creating layer loss2/relu_conv
I0309 05:03:59.870167  9646 net.cpp:91] Creating Layer loss2/relu_conv
I0309 05:03:59.870194  9646 net.cpp:425] loss2/relu_conv <- loss2/conv
I0309 05:03:59.870218  9646 net.cpp:386] loss2/relu_conv -> loss2/conv (in-place)
I0309 05:03:59.870245  9646 net.cpp:141] Setting up loss2/relu_conv
I0309 05:03:59.870270  9646 net.cpp:148] Top shape: 50 128 4 4 (102400)
I0309 05:03:59.870293  9646 net.cpp:156] Memory required for data: 2517691612
I0309 05:03:59.870317  9646 layer_factory.hpp:77] Creating layer loss2/fc
I0309 05:03:59.870349  9646 net.cpp:91] Creating Layer loss2/fc
I0309 05:03:59.870376  9646 net.cpp:425] loss2/fc <- loss2/conv
I0309 05:03:59.870405  9646 net.cpp:399] loss2/fc -> loss2/fc
I0309 05:03:59.886924  9646 net.cpp:141] Setting up loss2/fc
I0309 05:03:59.886977  9646 net.cpp:148] Top shape: 50 1024 (51200)
I0309 05:03:59.887008  9646 net.cpp:156] Memory required for data: 2517896412
I0309 05:03:59.887040  9646 layer_factory.hpp:77] Creating layer loss2/relu_fc
I0309 05:03:59.887069  9646 net.cpp:91] Creating Layer loss2/relu_fc
I0309 05:03:59.887096  9646 net.cpp:425] loss2/relu_fc <- loss2/fc
I0309 05:03:59.887128  9646 net.cpp:386] loss2/relu_fc -> loss2/fc (in-place)
I0309 05:03:59.887161  9646 net.cpp:141] Setting up loss2/relu_fc
I0309 05:03:59.887189  9646 net.cpp:148] Top shape: 50 1024 (51200)
I0309 05:03:59.887228  9646 net.cpp:156] Memory required for data: 2518101212
I0309 05:03:59.887253  9646 layer_factory.hpp:77] Creating layer loss2/drop_fc
I0309 05:03:59.887281  9646 net.cpp:91] Creating Layer loss2/drop_fc
I0309 05:03:59.887308  9646 net.cpp:425] loss2/drop_fc <- loss2/fc
I0309 05:03:59.887339  9646 net.cpp:386] loss2/drop_fc -> loss2/fc (in-place)
I0309 05:03:59.887390  9646 net.cpp:141] Setting up loss2/drop_fc
I0309 05:03:59.887424  9646 net.cpp:148] Top shape: 50 1024 (51200)
I0309 05:03:59.887449  9646 net.cpp:156] Memory required for data: 2518306012
I0309 05:03:59.887475  9646 layer_factory.hpp:77] Creating layer loss2/classifier
I0309 05:03:59.887508  9646 net.cpp:91] Creating Layer loss2/classifier
I0309 05:03:59.887536  9646 net.cpp:425] loss2/classifier <- loss2/fc
I0309 05:03:59.887563  9646 net.cpp:399] loss2/classifier -> loss2/classifier
I0309 05:03:59.895855  9646 net.cpp:141] Setting up loss2/classifier
I0309 05:03:59.895901  9646 net.cpp:148] Top shape: 50 1000 (50000)
I0309 05:03:59.895942  9646 net.cpp:156] Memory required for data: 2518506012
I0309 05:03:59.895972  9646 layer_factory.hpp:77] Creating layer loss2/classifier_loss2/classifier_0_split
I0309 05:03:59.896005  9646 net.cpp:91] Creating Layer loss2/classifier_loss2/classifier_0_split
I0309 05:03:59.896051  9646 net.cpp:425] loss2/classifier_loss2/classifier_0_split <- loss2/classifier
I0309 05:03:59.896111  9646 net.cpp:399] loss2/classifier_loss2/classifier_0_split -> loss2/classifier_loss2/classifier_0_split_0
I0309 05:03:59.896145  9646 net.cpp:399] loss2/classifier_loss2/classifier_0_split -> loss2/classifier_loss2/classifier_0_split_1
I0309 05:03:59.896178  9646 net.cpp:399] loss2/classifier_loss2/classifier_0_split -> loss2/classifier_loss2/classifier_0_split_2
I0309 05:03:59.896268  9646 net.cpp:141] Setting up loss2/classifier_loss2/classifier_0_split
I0309 05:03:59.896303  9646 net.cpp:148] Top shape: 50 1000 (50000)
I0309 05:03:59.896332  9646 net.cpp:148] Top shape: 50 1000 (50000)
I0309 05:03:59.896358  9646 net.cpp:148] Top shape: 50 1000 (50000)
I0309 05:03:59.896384  9646 net.cpp:156] Memory required for data: 2519106012
I0309 05:03:59.896410  9646 layer_factory.hpp:77] Creating layer loss2/loss
I0309 05:03:59.896438  9646 net.cpp:91] Creating Layer loss2/loss
I0309 05:03:59.896466  9646 net.cpp:425] loss2/loss <- loss2/classifier_loss2/classifier_0_split_0
I0309 05:03:59.896492  9646 net.cpp:425] loss2/loss <- label_data_1_split_3
…
I0309 05:03:59.897195  9646 net.cpp:141] Setting up loss2/top-5
I0309 05:03:59.897224  9646 net.cpp:148] Top shape: (1)
I0309 05:03:59.897249  9646 net.cpp:156] Memory required for data: 2519106024
I0309 05:03:59.897275  9646 layer_factory.hpp:77] Creating layer inception_4e/1x1
I0309 05:03:59.897310  9646 net.cpp:91] Creating Layer inception_4e/1x1
I0309 05:03:59.897339  9646 net.cpp:425] inception_4e/1x1 <- inception_4d/output_inception_4d/output_0_split_1
I0309 05:03:59.897372  9646 net.cpp:399] inception_4e/1x1 -> inception_4e/1x1
I0309 05:03:59.898396  9646 net.cpp:141] Setting up inception_4e/1x1
I0309 05:03:59.898432  9646 net.cpp:148] Top shape: 50 256 14 14 (2508800)
I0309 05:03:59.898458  9646 net.cpp:156] Memory required for data: 2529141224
I0309 05:03:59.898488  9646 layer_factory.hpp:77] Creating layer inception_4e/relu_1x1
I0309 05:03:59.898516  9646 net.cpp:91] Creating Layer inception_4e/relu_1x1
I0309 05:03:59.898543  9646 net.cpp:425] inception_4e/relu_1x1 <- inception_4e/1x1
I0309 05:03:59.898571  9646 net.cpp:386] inception_4e/relu_1x1 -> inception_4e/1x1 (in-place)
I0309 05:03:59.898602  9646 net.cpp:141] Setting up inception_4e/relu_1x1
I0309 05:03:59.898629  9646 net.cpp:148] Top shape: 50 256 14 14 (2508800)
I0309 05:03:59.898655  9646 net.cpp:156] Memory required for data: 2539176424
I0309 05:03:59.898681  9646 layer_factory.hpp:77] Creating layer inception_4e/3x3_reduce
I0309 05:03:59.898730  9646 net.cpp:91] Creating Layer inception_4e/3x3_reduce
I0309 05:03:59.898761  9646 net.cpp:425] inception_4e/3x3_reduce <- inception_4d/output_inception_4d/output_0_split_2
I0309 05:03:59.898818  9646 net.cpp:399] inception_4e/3x3_reduce -> inception_4e/3x3_reduce
I0309 05:03:59.900110  9646 net.cpp:141] Setting up inception_4e/3x3_reduce
I0309 05:03:59.900161  9646 net.cpp:148] Top shape: 50 160 14 14 (1568000)
I0309 05:03:59.900184  9646 net.cpp:156] Memory required for data: 2545448424
I0309 05:03:59.900220  9646 layer_factory.hpp:77] Creating layer inception_4e/relu_3x3_reduce
I0309 05:03:59.900249  9646 net.cpp:91] Creating Layer inception_4e/relu_3x3_reduce
I0309 05:03:59.900282  9646 net.cpp:425] inception_4e/relu_3x3_reduce <- inception_4e/3x3_reduce
I0309 05:03:59.900306  9646 net.cpp:386] inception_4e/relu_3x3_reduce -> inception_4e/3x3_reduce (in-place)
I0309 05:03:59.900333  9646 net.cpp:141] Setting up inception_4e/relu_3x3_reduce
I0309 05:03:59.900370  9646 net.cpp:148] Top shape: 50 160 14 14 (1568000)
I0309 05:03:59.900391  9646 net.cpp:156] Memory required for data: 2551720424
I0309 05:03:59.900413  9646 layer_factory.hpp:77] Creating layer inception_4e/3x3
I0309 05:03:59.900461  9646 net.cpp:91] Creating Layer inception_4e/3x3
I0309 05:03:59.900485  9646 net.cpp:425] inception_4e/3x3 <- inception_4e/3x3_reduce
I0309 05:03:59.900511  9646 net.cpp:399] inception_4e/3x3 -> inception_4e/3x3
I0309 05:03:59.904412  9646 net.cpp:141] Setting up inception_4e/3x3
I0309 05:03:59.904448  9646 net.cpp:148] Top shape: 50 320 14 14 (3136000)
I0309 05:03:59.904470  9646 net.cpp:156] Memory required for data: 2564264424
I0309 05:03:59.904495  9646 layer_factory.hpp:77] Creating layer inception_4e/relu_3x3
I0309 05:03:59.904521  9646 net.cpp:91] Creating Layer inception_4e/relu_3x3
I0309 05:03:59.904544  9646 net.cpp:425] inception_4e/relu_3x3 <- inception_4e/3x3
I0309 05:03:59.904567  9646 net.cpp:386] inception_4e/relu_3x3 -> inception_4e/3x3 (in-place)
I0309 05:03:59.904593  9646 net.cpp:141] Setting up inception_4e/relu_3x3
I0309 05:03:59.904618  9646 net.cpp:148] Top shape: 50 320 14 14 (3136000)
I0309 05:03:59.904638  9646 net.cpp:156] Memory required for data: 2576808424
I0309 05:03:59.904657  9646 layer_factory.hpp:77] Creating layer inception_4e/5x5_reduce
I0309 05:03:59.904691  9646 net.cpp:91] Creating Layer inception_4e/5x5_reduce
I0309 05:03:59.904714  9646 net.cpp:425] inception_4e/5x5_reduce <- inception_4d/output_inception_4d/output_0_split_3
I0309 05:03:59.904739  9646 net.cpp:399] inception_4e/5x5_reduce -> inception_4e/5x5_reduce
I0309 05:03:59.905699  9646 net.cpp:141] Setting up inception_4e/5x5_reduce
I0309 05:03:59.905741  9646 net.cpp:148] Top shape: 50 32 14 14 (313600)
I0309 05:03:59.905768  9646 net.cpp:156] Memory required for data: 2578062824
I0309 05:03:59.905797  9646 layer_factory.hpp:77] Creating layer inception_4e/relu_5x5_reduce
I0309 05:03:59.905825  9646 net.cpp:91] Creating Layer inception_4e/relu_5x5_reduce
I0309 05:03:59.905853  9646 net.cpp:425] inception_4e/relu_5x5_reduce <- inception_4e/5x5_reduce
I0309 05:03:59.905880  9646 net.cpp:386] inception_4e/relu_5x5_reduce -> inception_4e/5x5_reduce (in-place)
I0309 05:03:59.905910  9646 net.cpp:141] Setting up inception_4e/relu_5x5_reduce
I0309 05:03:59.905951  9646 net.cpp:148] Top shape: 50 32 14 14 (313600)
I0309 05:03:59.906002  9646 net.cpp:156] Memory required for data: 2579317224
I0309 05:03:59.906028  9646 layer_factory.hpp:77] Creating layer inception_4e/5x5
I0309 05:03:59.906059  9646 net.cpp:91] Creating Layer inception_4e/5x5
I0309 05:03:59.906083  9646 net.cpp:425] inception_4e/5x5 <- inception_4e/5x5_reduce
I0309 05:03:59.906113  9646 net.cpp:399] inception_4e/5x5 -> inception_4e/5x5
I0309 05:03:59.906920  9646 net.cpp:141] Setting up inception_4e/5x5
I0309 05:03:59.906957  9646 net.cpp:148] Top shape: 50 128 14 14 (1254400)
I0309 05:03:59.906983  9646 net.cpp:156] Memory required for data: 2584334824
I0309 05:03:59.907017  9646 layer_factory.hpp:77] Creating layer inception_4e/relu_5x5
I0309 05:03:59.907047  9646 net.cpp:91] Creating Layer inception_4e/relu_5x5
I0309 05:03:59.907073  9646 net.cpp:425] inception_4e/relu_5x5 <- inception_4e/5x5
I0309 05:03:59.907131  9646 net.cpp:386] inception_4e/relu_5x5 -> inception_4e/5x5 (in-place)
I0309 05:03:59.907165  9646 net.cpp:141] Setting up inception_4e/relu_5x5
I0309 05:03:59.907193  9646 net.cpp:148] Top shape: 50 128 14 14 (1254400)
I0309 05:03:59.907219  9646 net.cpp:156] Memory required for data: 2589352424
I0309 05:03:59.907244  9646 layer_factory.hpp:77] Creating layer inception_4e/pool
I0309 05:03:59.907274  9646 net.cpp:91] Creating Layer inception_4e/pool
I0309 05:03:59.907301  9646 net.cpp:425] inception_4e/pool <- inception_4d/output_inception_4d/output_0_split_4
I0309 05:03:59.907330  9646 net.cpp:399] inception_4e/pool -> inception_4e/pool
I0309 05:03:59.907392  9646 net.cpp:141] Setting up inception_4e/pool
I0309 05:03:59.907426  9646 net.cpp:148] Top shape: 50 528 14 14 (5174400)
I0309 05:03:59.907451  9646 net.cpp:156] Memory required for data: 2610050024
I0309 05:03:59.907477  9646 layer_factory.hpp:77] Creating layer inception_4e/pool_proj
I0309 05:03:59.907510  9646 net.cpp:91] Creating Layer inception_4e/pool_proj
I0309 05:03:59.907537  9646 net.cpp:425] inception_4e/pool_proj <- inception_4e/pool
I0309 05:03:59.907564  9646 net.cpp:399] inception_4e/pool_proj -> inception_4e/pool_proj
I0309 05:03:59.908170  9646 net.cpp:141] Setting up inception_4e/pool_proj
I0309 05:03:59.908208  9646 net.cpp:148] Top shape: 50 128 14 14 (1254400)
I0309 05:03:59.908233  9646 net.cpp:156] Memory required for data: 2615067624
I0309 05:03:59.908262  9646 layer_factory.hpp:77] Creating layer inception_4e/relu_pool_proj
I0309 05:03:59.908291  9646 net.cpp:91] Creating Layer inception_4e/relu_pool_proj
I0309 05:03:59.908314  9646 net.cpp:425] inception_4e/relu_pool_proj <- inception_4e/pool_proj
I0309 05:03:59.908337  9646 net.cpp:386] inception_4e/relu_pool_proj -> inception_4e/pool_proj (in-place)
I0309 05:03:59.908363  9646 net.cpp:141] Setting up inception_4e/relu_pool_proj
I0309 05:03:59.908393  9646 net.cpp:148] Top shape: 50 128 14 14 (1254400)
I0309 05:03:59.908417  9646 net.cpp:156] Memory required for data: 2620085224
I0309 05:03:59.908443  9646 layer_factory.hpp:77] Creating layer inception_4e/output
I0309 05:03:59.908471  9646 net.cpp:91] Creating Layer inception_4e/output
I0309 05:03:59.908496  9646 net.cpp:425] inception_4e/output <- inception_4e/1x1
I0309 05:03:59.908524  9646 net.cpp:425] inception_4e/output <- inception_4e/3x3
I0309 05:03:59.908551  9646 net.cpp:425] inception_4e/output <- inception_4e/5x5
I0309 05:03:59.908579  9646 net.cpp:425] inception_4e/output <- inception_4e/pool_proj
I0309 05:03:59.908612  9646 net.cpp:399] inception_4e/output -> inception_4e/output
I0309 05:03:59.908658  9646 net.cpp:141] Setting up inception_4e/output
I0309 05:03:59.908692  9646 net.cpp:148] Top shape: 50 832 14 14 (8153600)
I0309 05:03:59.908718  9646 net.cpp:156] Memory required for data: 2652699624
I0309 05:03:59.908745  9646 layer_factory.hpp:77] Creating layer pool4/3x3_s2
I0309 05:03:59.908776  9646 net.cpp:91] Creating Layer pool4/3x3_s2
I0309 05:03:59.908803  9646 net.cpp:425] pool4/3x3_s2 <- inception_4e/output
I0309 05:03:59.908831  9646 net.cpp:399] pool4/3x3_s2 -> pool4/3x3_s2
I0309 05:03:59.908890  9646 net.cpp:141] Setting up pool4/3x3_s2
I0309 05:03:59.908926  9646 net.cpp:148] Top shape: 50 832 7 7 (2038400)
I0309 05:03:59.908951  9646 net.cpp:156] Memory required for data: 2660853224
I0309 05:03:59.908977  9646 layer_factory.hpp:77] Creating layer pool4/3x3_s2_pool4/3x3_s2_0_split
I0309 05:03:59.909008  9646 net.cpp:91] Creating Layer pool4/3x3_s2_pool4/3x3_s2_0_split
I0309 05:03:59.909039  9646 net.cpp:425] pool4/3x3_s2_pool4/3x3_s2_0_split <- pool4/3x3_s2
I0309 05:03:59.909066  9646 net.cpp:399] pool4/3x3_s2_pool4/3x3_s2_0_split -> pool4/3x3_s2_pool4/3x3_s2_0_split_0
I0309 05:03:59.909097  9646 net.cpp:399] pool4/3x3_s2_pool4/3x3_s2_0_split -> pool4/3x3_s2_pool4/3x3_s2_0_split_1
I0309 05:03:59.909131  9646 net.cpp:399] pool4/3x3_s2_pool4/3x3_s2_0_split -> pool4/3x3_s2_pool4/3x3_s2_0_split_2
I0309 05:03:59.909173  9646 net.cpp:399] pool4/3x3_s2_pool4/3x3_s2_0_split -> pool4/3x3_s2_pool4/3x3_s2_0_split_3
I0309 05:03:59.909268  9646 net.cpp:141] Setting up pool4/3x3_s2_pool4/3x3_s2_0_split
I0309 05:03:59.909303  9646 net.cpp:148] Top shape: 50 832 7 7 (2038400)
I0309 05:03:59.909332  9646 net.cpp:148] Top shape: 50 832 7 7 (2038400)
I0309 05:03:59.909361  9646 net.cpp:148] Top shape: 50 832 7 7 (2038400)
I0309 05:03:59.909389  9646 net.cpp:148] Top shape: 50 832 7 7 (2038400)
I0309 05:03:59.909415  9646 net.cpp:156] Memory required for data: 2693467624
I0309 05:03:59.909441  9646 layer_factory.hpp:77] Creating layer inception_5a/1x1
I0309 05:03:59.909471  9646 net.cpp:91] Creating Layer inception_5a/1x1
I0309 05:03:59.909498  9646 net.cpp:425] inception_5a/1x1 <- pool4/3x3_s2_pool4/3x3_s2_0_split_0
I0309 05:03:59.909528  9646 net.cpp:399] inception_5a/1x1 -> inception_5a/1x1
I0309 05:03:59.911846  9646 net.cpp:141] Setting up inception_5a/1x1
I0309 05:03:59.911883  9646 net.cpp:148] Top shape: 50 256 7 7 (627200)
I0309 05:03:59.911906  9646 net.cpp:156] Memory required for data: 2695976424
I0309 05:03:59.911931  9646 layer_factory.hpp:77] Creating layer inception_5a/relu_1x1
I0309 05:03:59.911957  9646 net.cpp:91] Creating Layer inception_5a/relu_1x1
I0309 05:03:59.911980  9646 net.cpp:425] inception_5a/relu_1x1 <- inception_5a/1x1
I0309 05:03:59.912006  9646 net.cpp:386] inception_5a/relu_1x1 -> inception_5a/1x1 (in-place)
I0309 05:03:59.912034  9646 net.cpp:141] Setting up inception_5a/relu_1x1
I0309 05:03:59.912058  9646 net.cpp:148] Top shape: 50 256 7 7 (627200)
I0309 05:03:59.912080  9646 net.cpp:156] Memory required for data: 2698485224
I0309 05:03:59.912099  9646 layer_factory.hpp:77] Creating layer inception_5a/3x3_reduce
I0309 05:03:59.912127  9646 net.cpp:91] Creating Layer inception_5a/3x3_reduce
I0309 05:03:59.912150  9646 net.cpp:425] inception_5a/3x3_reduce <- pool4/3x3_s2_pool4/3x3_s2_0_split_1
I0309 05:03:59.912179  9646 net.cpp:399] inception_5a/3x3_reduce -> inception_5a/3x3_reduce
I0309 05:03:59.913677  9646 net.cpp:141] Setting up inception_5a/3x3_reduce
I0309 05:03:59.913713  9646 net.cpp:148] Top shape: 50 160 7 7 (392000)
I0309 05:03:59.913735  9646 net.cpp:156] Memory required for data: 2700053224
I0309 05:03:59.913759  9646 layer_factory.hpp:77] Creating layer inception_5a/relu_3x3_reduce
I0309 05:03:59.913786  9646 net.cpp:91] Creating Layer inception_5a/relu_3x3_reduce
I0309 05:03:59.913810  9646 net.cpp:425] inception_5a/relu_3x3_reduce <- inception_5a/3x3_reduce
I0309 05:03:59.913832  9646 net.cpp:386] inception_5a/relu_3x3_reduce -> inception_5a/3x3_reduce (in-place)
I0309 05:03:59.913857  9646 net.cpp:141] Setting up inception_5a/relu_3x3_reduce
I0309 05:03:59.913882  9646 net.cpp:148] Top shape: 50 160 7 7 (392000)
I0309 05:03:59.913902  9646 net.cpp:156] Memory required for data: 2701621224
I0309 05:03:59.913923  9646 layer_factory.hpp:77] Creating layer inception_5a/3x3
I0309 05:03:59.913950  9646 net.cpp:91] Creating Layer inception_5a/3x3
I0309 05:03:59.913975  9646 net.cpp:425] inception_5a/3x3 <- inception_5a/3x3_reduce
I0309 05:03:59.914005  9646 net.cpp:399] inception_5a/3x3 -> inception_5a/3x3
I0309 05:03:59.918056  9646 net.cpp:141] Setting up inception_5a/3x3
I0309 05:03:59.918097  9646 net.cpp:148] Top shape: 50 320 7 7 (784000)
I0309 05:03:59.918123  9646 net.cpp:156] Memory required for data: 2704757224
I0309 05:03:59.918151  9646 layer_factory.hpp:77] Creating layer inception_5a/relu_3x3
I0309 05:03:59.918203  9646 net.cpp:91] Creating Layer inception_5a/relu_3x3
I0309 05:03:59.918236  9646 net.cpp:425] inception_5a/relu_3x3 <- inception_5a/3x3
I0309 05:03:59.918264  9646 net.cpp:386] inception_5a/relu_3x3 -> inception_5a/3x3 (in-place)
I0309 05:03:59.918295  9646 net.cpp:141] Setting up inception_5a/relu_3x3
I0309 05:03:59.918325  9646 net.cpp:148] Top shape: 50 320 7 7 (784000)
I0309 05:03:59.918351  9646 net.cpp:156] Memory required for data: 2707893224
I0309 05:03:59.918376  9646 layer_factory.hpp:77] Creating layer inception_5a/5x5_reduce
I0309 05:03:59.918408  9646 net.cpp:91] Creating Layer inception_5a/5x5_reduce
I0309 05:03:59.918448  9646 net.cpp:425] inception_5a/5x5_reduce <- pool4/3x3_s2_pool4/3x3_s2_0_split_2
I0309 05:03:59.918495  9646 net.cpp:399] inception_5a/5x5_reduce -> inception_5a/5x5_reduce
I0309 05:03:59.918871  9646 net.cpp:141] Setting up inception_5a/5x5_reduce
I0309 05:03:59.918910  9646 net.cpp:148] Top shape: 50 32 7 7 (78400)
I0309 05:03:59.918951  9646 net.cpp:156] Memory required for data: 2708206824
I0309 05:03:59.918979  9646 layer_factory.hpp:77] Creating layer inception_5a/relu_5x5_reduce
I0309 05:03:59.919013  9646 net.cpp:91] Creating Layer inception_5a/relu_5x5_reduce
I0309 05:03:59.919042  9646 net.cpp:425] inception_5a/relu_5x5_reduce <- inception_5a/5x5_reduce
I0309 05:03:59.919071  9646 net.cpp:386] inception_5a/relu_5x5_reduce -> inception_5a/5x5_reduce (in-place)
I0309 05:03:59.919103  9646 net.cpp:141] Setting up inception_5a/relu_5x5_reduce
I0309 05:03:59.919132  9646 net.cpp:148] Top shape: 50 32 7 7 (78400)
I0309 05:03:59.919159  9646 net.cpp:156] Memory required for data: 2708520424
I0309 05:03:59.919185  9646 layer_factory.hpp:77] Creating layer inception_5a/5x5
I0309 05:03:59.919219  9646 net.cpp:91] Creating Layer inception_5a/5x5
I0309 05:03:59.919258  9646 net.cpp:425] inception_5a/5x5 <- inception_5a/5x5_reduce
I0309 05:03:59.919288  9646 net.cpp:399] inception_5a/5x5 -> inception_5a/5x5
I0309 05:03:59.920200  9646 net.cpp:141] Setting up inception_5a/5x5
I0309 05:03:59.920248  9646 net.cpp:148] Top shape: 50 128 7 7 (313600)
I0309 05:03:59.920270  9646 net.cpp:156] Memory required for data: 2709774824
I0309 05:03:59.920305  9646 layer_factory.hpp:77] Creating layer inception_5a/relu_5x5
I0309 05:03:59.920330  9646 net.cpp:91] Creating Layer inception_5a/relu_5x5
I0309 05:03:59.920351  9646 net.cpp:425] inception_5a/relu_5x5 <- inception_5a/5x5
I0309 05:03:59.920377  9646 net.cpp:386] inception_5a/relu_5x5 -> inception_5a/5x5 (in-place)
I0309 05:03:59.920403  9646 net.cpp:141] Setting up inception_5a/relu_5x5
I0309 05:03:59.920426  9646 net.cpp:148] Top shape: 50 128 7 7 (313600)
I0309 05:03:59.920446  9646 net.cpp:156] Memory required for data: 2711029224
I0309 05:03:59.920466  9646 layer_factory.hpp:77] Creating layer inception_5a/pool
I0309 05:03:59.920490  9646 net.cpp:91] Creating Layer inception_5a/pool
I0309 05:03:59.920511  9646 net.cpp:425] inception_5a/pool <- pool4/3x3_s2_pool4/3x3_s2_0_split_3
I0309 05:03:59.920536  9646 net.cpp:399] inception_5a/pool -> inception_5a/pool
I0309 05:03:59.920591  9646 net.cpp:141] Setting up inception_5a/pool
I0309 05:03:59.920621  9646 net.cpp:148] Top shape: 50 832 7 7 (2038400)
I0309 05:03:59.920642  9646 net.cpp:156] Memory required for data: 2719182824
I0309 05:03:59.920662  9646 layer_factory.hpp:77] Creating layer inception_5a/pool_proj
I0309 05:03:59.920694  9646 net.cpp:91] Creating Layer inception_5a/pool_proj
I0309 05:03:59.920717  9646 net.cpp:425] inception_5a/pool_proj <- inception_5a/pool
I0309 05:03:59.920744  9646 net.cpp:399] inception_5a/pool_proj -> inception_5a/pool_proj
I0309 05:03:59.922086  9646 net.cpp:141] Setting up inception_5a/pool_proj
I0309 05:03:59.922123  9646 net.cpp:148] Top shape: 50 128 7 7 (313600)
I0309 05:03:59.922145  9646 net.cpp:156] Memory required for data: 2720437224
I0309 05:03:59.922170  9646 layer_factory.hpp:77] Creating layer inception_5a/relu_pool_proj
I0309 05:03:59.922196  9646 net.cpp:91] Creating Layer inception_5a/relu_pool_proj
I0309 05:03:59.922219  9646 net.cpp:425] inception_5a/relu_pool_proj <- inception_5a/pool_proj
I0309 05:03:59.922242  9646 net.cpp:386] inception_5a/relu_pool_proj -> inception_5a/pool_proj (in-place)
I0309 05:03:59.922268  9646 net.cpp:141] Setting up inception_5a/relu_pool_proj
I0309 05:03:59.922292  9646 net.cpp:148] Top shape: 50 128 7 7 (313600)
I0309 05:03:59.922312  9646 net.cpp:156] Memory required for data: 2721691624
I0309 05:03:59.922333  9646 layer_factory.hpp:77] Creating layer inception_5a/output
I0309 05:03:59.922355  9646 net.cpp:91] Creating Layer inception_5a/output
I0309 05:03:59.922380  9646 net.cpp:425] inception_5a/output <- inception_5a/1x1
I0309 05:03:59.922415  9646 net.cpp:425] inception_5a/output <- inception_5a/3x3
I0309 05:03:59.922453  9646 net.cpp:425] inception_5a/output <- inception_5a/5x5
I0309 05:03:59.922477  9646 net.cpp:425] inception_5a/output <- inception_5a/pool_proj
I0309 05:03:59.922500  9646 net.cpp:399] inception_5a/output -> inception_5a/output
I0309 05:03:59.922544  9646 net.cpp:141] Setting up inception_5a/output
I0309 05:03:59.922572  9646 net.cpp:148] Top shape: 50 832 7 7 (2038400)
I0309 05:03:59.922593  9646 net.cpp:156] Memory required for data: 2729845224
I0309 05:03:59.922613  9646 layer_factory.hpp:77] Creating layer inception_5a/output_inception_5a/output_0_split
I0309 05:03:59.922639  9646 net.cpp:91] Creating Layer inception_5a/output_inception_5a/output_0_split
I0309 05:03:59.922662  9646 net.cpp:425] inception_5a/output_inception_5a/output_0_split <- inception_5a/output
I0309 05:03:59.922685  9646 net.cpp:399] inception_5a/output_inception_5a/output_0_split -> inception_5a/output_inception_5a/output_0_split_0
I0309 05:03:59.922713  9646 net.cpp:399] inception_5a/output_inception_5a/output_0_split -> inception_5a/output_inception_5a/output_0_split_1
I0309 05:03:59.922741  9646 net.cpp:399] inception_5a/output_inception_5a/output_0_split -> inception_5a/output_inception_5a/output_0_split_2
I0309 05:03:59.922767  9646 net.cpp:399] inception_5a/output_inception_5a/output_0_split -> inception_5a/output_inception_5a/output_0_split_3
I0309 05:03:59.922837  9646 net.cpp:141] Setting up inception_5a/output_inception_5a/output_0_split
I0309 05:03:59.922866  9646 net.cpp:148] Top shape: 50 832 7 7 (2038400)
I0309 05:03:59.922889  9646 net.cpp:148] Top shape: 50 832 7 7 (2038400)
I0309 05:03:59.922911  9646 net.cpp:148] Top shape: 50 832 7 7 (2038400)
I0309 05:03:59.922933  9646 net.cpp:148] Top shape: 50 832 7 7 (2038400)
I0309 05:03:59.922953  9646 net.cpp:156] Memory required for data: 2762459624
I0309 05:03:59.922973  9646 layer_factory.hpp:77] Creating layer inception_5b/1x1
I0309 05:03:59.923005  9646 net.cpp:91] Creating Layer inception_5b/1x1
I0309 05:03:59.923030  9646 net.cpp:425] inception_5b/1x1 <- inception_5a/output_inception_5a/output_0_split_0
I0309 05:03:59.923058  9646 net.cpp:399] inception_5b/1x1 -> inception_5b/1x1
I0309 05:03:59.925848  9646 net.cpp:141] Setting up inception_5b/1x1
I0309 05:03:59.925892  9646 net.cpp:148] Top shape: 50 384 7 7 (940800)
I0309 05:03:59.925920  9646 net.cpp:156] Memory required for data: 2766222824
I0309 05:03:59.925950  9646 layer_factory.hpp:77] Creating layer inception_5b/relu_1x1
I0309 05:03:59.925984  9646 net.cpp:91] Creating Layer inception_5b/relu_1x1
I0309 05:03:59.926028  9646 net.cpp:425] inception_5b/relu_1x1 <- inception_5b/1x1
I0309 05:03:59.926059  9646 net.cpp:386] inception_5b/relu_1x1 -> inception_5b/1x1 (in-place)
I0309 05:03:59.926090  9646 net.cpp:141] Setting up inception_5b/relu_1x1
I0309 05:03:59.926120  9646 net.cpp:148] Top shape: 50 384 7 7 (940800)
I0309 05:03:59.926146  9646 net.cpp:156] Memory required for data: 2769986024
I0309 05:03:59.926172  9646 layer_factory.hpp:77] Creating layer inception_5b/3x3_reduce
I0309 05:03:59.926208  9646 net.cpp:91] Creating Layer inception_5b/3x3_reduce
I0309 05:03:59.926236  9646 net.cpp:425] inception_5b/3x3_reduce <- inception_5a/output_inception_5a/output_0_split_1
I0309 05:03:59.926270  9646 net.cpp:399] inception_5b/3x3_reduce -> inception_5b/3x3_reduce
I0309 05:03:59.927930  9646 net.cpp:141] Setting up inception_5b/3x3_reduce
I0309 05:03:59.927969  9646 net.cpp:148] Top shape: 50 192 7 7 (470400)
I0309 05:03:59.927996  9646 net.cpp:156] Memory required for data: 2771867624
I0309 05:03:59.928031  9646 layer_factory.hpp:77] Creating layer inception_5b/relu_3x3_reduce
I0309 05:03:59.928061  9646 net.cpp:91] Creating Layer inception_5b/relu_3x3_reduce
I0309 05:03:59.928089  9646 net.cpp:425] inception_5b/relu_3x3_reduce <- inception_5b/3x3_reduce
I0309 05:03:59.928118  9646 net.cpp:386] inception_5b/relu_3x3_reduce -> inception_5b/3x3_reduce (in-place)
I0309 05:03:59.928149  9646 net.cpp:141] Setting up inception_5b/relu_3x3_reduce
I0309 05:03:59.928189  9646 net.cpp:148] Top shape: 50 192 7 7 (470400)
I0309 05:03:59.928231  9646 net.cpp:156] Memory required for data: 2773749224
I0309 05:03:59.928257  9646 layer_factory.hpp:77] Creating layer inception_5b/3x3
I0309 05:03:59.928292  9646 net.cpp:91] Creating Layer inception_5b/3x3
I0309 05:03:59.928320  9646 net.cpp:425] inception_5b/3x3 <- inception_5b/3x3_reduce
I0309 05:03:59.928351  9646 net.cpp:399] inception_5b/3x3 -> inception_5b/3x3
I0309 05:03:59.933810  9646 net.cpp:141] Setting up inception_5b/3x3
I0309 05:03:59.933851  9646 net.cpp:148] Top shape: 50 384 7 7 (940800)
I0309 05:03:59.933873  9646 net.cpp:156] Memory required for data: 2777512424
I0309 05:03:59.933898  9646 layer_factory.hpp:77] Creating layer inception_5b/relu_3x3
I0309 05:03:59.933923  9646 net.cpp:91] Creating Layer inception_5b/relu_3x3
I0309 05:03:59.933945  9646 net.cpp:425] inception_5b/relu_3x3 <- inception_5b/3x3
I0309 05:03:59.933971  9646 net.cpp:386] inception_5b/relu_3x3 -> inception_5b/3x3 (in-place)
I0309 05:03:59.934001  9646 net.cpp:141] Setting up inception_5b/relu_3x3
I0309 05:03:59.934027  9646 net.cpp:148] Top shape: 50 384 7 7 (940800)
I0309 05:03:59.934048  9646 net.cpp:156] Memory required for data: 2781275624
I0309 05:03:59.934068  9646 layer_factory.hpp:77] Creating layer inception_5b/5x5_reduce
I0309 05:03:59.934098  9646 net.cpp:91] Creating Layer inception_5b/5x5_reduce
I0309 05:03:59.934120  9646 net.cpp:425] inception_5b/5x5_reduce <- inception_5a/output_inception_5a/output_0_split_2
I0309 05:03:59.934145  9646 net.cpp:399] inception_5b/5x5_reduce -> inception_5b/5x5_reduce
I0309 05:03:59.935200  9646 net.cpp:141] Setting up inception_5b/5x5_reduce
I0309 05:03:59.935241  9646 net.cpp:148] Top shape: 50 48 7 7 (117600)
I0309 05:03:59.935278  9646 net.cpp:156] Memory required for data: 2781746024
I0309 05:03:59.935307  9646 layer_factory.hpp:77] Creating layer inception_5b/relu_5x5_reduce
I0309 05:03:59.935351  9646 net.cpp:91] Creating Layer inception_5b/relu_5x5_reduce
I0309 05:03:59.935387  9646 net.cpp:425] inception_5b/relu_5x5_reduce <- inception_5b/5x5_reduce
I0309 05:03:59.935413  9646 net.cpp:386] inception_5b/relu_5x5_reduce -> inception_5b/5x5_reduce (in-place)
I0309 05:03:59.935441  9646 net.cpp:141] Setting up inception_5b/relu_5x5_reduce
I0309 05:03:59.935472  9646 net.cpp:148] Top shape: 50 48 7 7 (117600)
I0309 05:03:59.935497  9646 net.cpp:156] Memory required for data: 2782216424
I0309 05:03:59.935523  9646 layer_factory.hpp:77] Creating layer inception_5b/5x5
I0309 05:03:59.935556  9646 net.cpp:91] Creating Layer inception_5b/5x5
I0309 05:03:59.935585  9646 net.cpp:425] inception_5b/5x5 <- inception_5b/5x5_reduce
I0309 05:03:59.935616  9646 net.cpp:399] inception_5b/5x5 -> inception_5b/5x5
I0309 05:03:59.936731  9646 net.cpp:141] Setting up inception_5b/5x5
I0309 05:03:59.936769  9646 net.cpp:148] Top shape: 50 128 7 7 (313600)
I0309 05:03:59.936794  9646 net.cpp:156] Memory required for data: 2783470824
I0309 05:03:59.936823  9646 layer_factory.hpp:77] Creating layer inception_5b/relu_5x5
I0309 05:03:59.936852  9646 net.cpp:91] Creating Layer inception_5b/relu_5x5
I0309 05:03:59.936877  9646 net.cpp:425] inception_5b/relu_5x5 <- inception_5b/5x5
I0309 05:03:59.936902  9646 net.cpp:386] inception_5b/relu_5x5 -> inception_5b/5x5 (in-place)
I0309 05:03:59.936928  9646 net.cpp:141] Setting up inception_5b/relu_5x5
I0309 05:03:59.936951  9646 net.cpp:148] Top shape: 50 128 7 7 (313600)
I0309 05:03:59.936978  9646 net.cpp:156] Memory required for data: 2784725224
I0309 05:03:59.937008  9646 layer_factory.hpp:77] Creating layer inception_5b/pool
I0309 05:03:59.937041  9646 net.cpp:91] Creating Layer inception_5b/pool
I0309 05:03:59.937067  9646 net.cpp:425] inception_5b/pool <- inception_5a/output_inception_5a/output_0_split_3
I0309 05:03:59.937096  9646 net.cpp:399] inception_5b/pool -> inception_5b/pool
I0309 05:03:59.937160  9646 net.cpp:141] Setting up inception_5b/pool
I0309 05:03:59.937193  9646 net.cpp:148] Top shape: 50 832 7 7 (2038400)
I0309 05:03:59.937232  9646 net.cpp:156] Memory required for data: 2792878824
I0309 05:03:59.937276  9646 layer_factory.hpp:77] Creating layer inception_5b/pool_proj
I0309 05:03:59.937309  9646 net.cpp:91] Creating Layer inception_5b/pool_proj
I0309 05:03:59.937337  9646 net.cpp:425] inception_5b/pool_proj <- inception_5b/pool
I0309 05:03:59.937369  9646 net.cpp:399] inception_5b/pool_proj -> inception_5b/pool_proj
I0309 05:03:59.938699  9646 net.cpp:141] Setting up inception_5b/pool_proj
I0309 05:03:59.938740  9646 net.cpp:148] Top shape: 50 128 7 7 (313600)
I0309 05:03:59.938766  9646 net.cpp:156] Memory required for data: 2794133224
I0309 05:03:59.938794  9646 layer_factory.hpp:77] Creating layer inception_5b/relu_pool_proj
I0309 05:03:59.938823  9646 net.cpp:91] Creating Layer inception_5b/relu_pool_proj
I0309 05:03:59.938850  9646 net.cpp:425] inception_5b/relu_pool_proj <- inception_5b/pool_proj
I0309 05:03:59.938881  9646 net.cpp:386] inception_5b/relu_pool_proj -> inception_5b/pool_proj (in-place)
I0309 05:03:59.938915  9646 net.cpp:141] Setting up inception_5b/relu_pool_proj
I0309 05:03:59.938941  9646 net.cpp:148] Top shape: 50 128 7 7 (313600)
I0309 05:03:59.938967  9646 net.cpp:156] Memory required for data: 2795387624
I0309 05:03:59.938993  9646 layer_factory.hpp:77] Creating layer inception_5b/output
I0309 05:03:59.939025  9646 net.cpp:91] Creating Layer inception_5b/output
I0309 05:03:59.939054  9646 net.cpp:425] inception_5b/output <- inception_5b/1x1
I0309 05:03:59.939081  9646 net.cpp:425] inception_5b/output <- inception_5b/3x3
I0309 05:03:59.939110  9646 net.cpp:425] inception_5b/output <- inception_5b/5x5
I0309 05:03:59.939136  9646 net.cpp:425] inception_5b/output <- inception_5b/pool_proj
I0309 05:03:59.939164  9646 net.cpp:399] inception_5b/output -> inception_5b/output
I0309 05:03:59.939214  9646 net.cpp:141] Setting up inception_5b/output
I0309 05:03:59.939249  9646 net.cpp:148] Top shape: 50 1024 7 7 (2508800)
I0309 05:03:59.939275  9646 net.cpp:156] Memory required for data: 2805422824
I0309 05:03:59.939301  9646 layer_factory.hpp:77] Creating layer pool5/7x7_s1
I0309 05:03:59.939332  9646 net.cpp:91] Creating Layer pool5/7x7_s1
I0309 05:03:59.939358  9646 net.cpp:425] pool5/7x7_s1 <- inception_5b/output
I0309 05:03:59.939388  9646 net.cpp:399] pool5/7x7_s1 -> pool5/7x7_s1
I0309 05:03:59.939437  9646 net.cpp:141] Setting up pool5/7x7_s1
I0309 05:03:59.939471  9646 net.cpp:148] Top shape: 50 1024 1 1 (51200)
I0309 05:03:59.939496  9646 net.cpp:156] Memory required for data: 2805627624
I0309 05:03:59.939520  9646 layer_factory.hpp:77] Creating layer pool5/drop_7x7_s1
I0309 05:03:59.939548  9646 net.cpp:91] Creating Layer pool5/drop_7x7_s1
I0309 05:03:59.939574  9646 net.cpp:425] pool5/drop_7x7_s1 <- pool5/7x7_s1
I0309 05:03:59.939602  9646 net.cpp:386] pool5/drop_7x7_s1 -> pool5/7x7_s1 (in-place)
I0309 05:03:59.939648  9646 net.cpp:141] Setting up pool5/drop_7x7_s1
I0309 05:03:59.939681  9646 net.cpp:148] Top shape: 50 1024 1 1 (51200)
I0309 05:03:59.939704  9646 net.cpp:156] Memory required for data: 2805832424
I0309 05:03:59.939728  9646 layer_factory.hpp:77] Creating layer loss3/classifier_new
I0309 05:03:59.939759  9646 net.cpp:91] Creating Layer loss3/classifier_new
I0309 05:03:59.939785  9646 net.cpp:425] loss3/classifier_new <- pool5/7x7_s1
I0309 05:03:59.939815  9646 net.cpp:399] loss3/classifier_new -> loss3/classifier_new
I0309 05:03:59.940117  9646 net.cpp:141] Setting up loss3/classifier_new
I0309 05:03:59.940161  9646 net.cpp:148] Top shape: 50 25 (1250)
I0309 05:03:59.940183  9646 net.cpp:156] Memory required for data: 2805837424
I0309 05:03:59.940212  9646 layer_factory.hpp:77] Creating layer loss3/classifier_new_loss3/classifier_new_0_split
I0309 05:03:59.940237  9646 net.cpp:91] Creating Layer loss3/classifier_new_loss3/classifier_new_0_split
I0309 05:03:59.940263  9646 net.cpp:425] loss3/classifier_new_loss3/classifier_new_0_split <- loss3/classifier_new
I0309 05:03:59.940289  9646 net.cpp:399] loss3/classifier_new_loss3/classifier_new_0_split -> loss3/classifier_new_loss3/classifier_new_0_split_0
I0309 05:03:59.940340  9646 net.cpp:399] loss3/classifier_new_loss3/classifier_new_0_split -> loss3/classifier_new_loss3/classifier_new_0_split_1
I0309 05:03:59.940383  9646 net.cpp:399] loss3/classifier_new_loss3/classifier_new_0_split -> loss3/classifier_new_loss3/classifier_new_0_split_2
I0309 05:03:59.940449  9646 net.cpp:141] Setting up loss3/classifier_new_loss3/classifier_new_0_split
I0309 05:03:59.940479  9646 net.cpp:148] Top shape: 50 25 (1250)
I0309 05:03:59.940502  9646 net.cpp:148] Top shape: 50 25 (1250)
I0309 05:03:59.940523  9646 net.cpp:148] Top shape: 50 25 (1250)
I0309 05:03:59.940544  9646 net.cpp:156] Memory required for data: 2805852424
I0309 05:03:59.940564  9646 layer_factory.hpp:77] Creating layer loss3/loss3
I0309 05:03:59.940590  9646 net.cpp:91] Creating Layer loss3/loss3
I0309 05:03:59.940613  9646 net.cpp:425] loss3/loss3 <- loss3/classifier_new_loss3/classifier_new_0_split_0
I0309 05:03:59.940636  9646 net.cpp:425] loss3/loss3 <- label_data_1_split_6
…
